models/puray_simple2test.pt (torch, 326616 bytes, 41 tensors)

module.feat_mlp.0.weight f8 [32, 3]
000000 e5 bd 2b 5a 0d 1a e0 3f 86 3a 22 2f 67 ef e1 3f
       0.5031801949643834 0.5604740067081628
000010 5b 73 e9 aa b7 2e 9c 3f f5 a0 38 3d ed e3 dd bf
       0.027521962935100102 -0.46703654268868827
000020 82 9c 1d a6 6d 30 9e 3f 0d cc ca 97 44 7d ba 3f
       0.029481614364524684 0.10347393709052728
000030 6a 70 88 7c 02 d1 ab 3f 11 99 19 f3 81 fd bb 3f
       0.05432899255922126 0.1093369692331161
000040 6f 41 e8 22 9f 1a da 3f 74 2d cb 54 4f c0 c7 3f
       0.40787485512648564 0.18555633201900046
000050 0b ed c9 64 59 7a cb 3f 74 1a b2 de 54 00 d8 bf
       0.2146713010914499 -0.37502023456219225
000060 88 96 0b 0e eb 32 e4 bf e2 c1 5c 0e c5 11 d6 3f
       -0.6312155985185237 0.34483457949229834
000070 7b 19 94 85 13 0f b0 bf fd 7b 38 83 a8 b9 c0 bf
       -0.06273004542535958 -0.13066584021814256
000080 2c 6b 50 cd 61 2d a9 3f c7 86 a1 e3 2e 53 cd bf
       0.049174362480888995 -0.2291010486106215
000090 df e6 cb 3b d3 48 aa 3f e5 f6 0f 1c 2e bc d3 bf
       0.05133686165750161 -0.308360602764749
0000a0 7a 1e ec cc fe 83 de 3f 66 04 ea b3 0d 91 cd 3f
       0.4768063546366431 0.23098918232793436
0000b0 9c b5 19 fe c5 f3 d1 3f 0f 9a 0e a6 33 f2 c8 3f
       0.28050374807829725 0.1948914109063513
0000c0 5f 87 82 34 e4 4f ec bf 13 5f 5a d2 be 7c e4 3f
       -0.88475237136684 0.6402277096230783
0000d0 ce 7c 3b 6c 5b 0b da bf 7f dc 78 27 b4 22 b1 bf
       -0.40694318360870063 -0.0669357868545024
0000e0 e0 f9 ec b7 96 6b da 3f ed 20 be 0e d4 22 cc 3f
       0.4128166957997603 0.21981287689073473
0000f0 6d 78 f7 9d 49 e5 a9 bf f2 7c 7d d4 4a fc d2 3f
       -0.05057745030693259 0.29664870024676226
000100 b8 1f 14 5b e2 70 e1 3f 9f 87 b9 35 3c e7 d8 3f
       0.5450298098448831 0.3891134762435459
000110 1c 5e 54 77 c9 29 51 3f ac 5f a1 fa db 38 e1 3f
       0.0010475604479490757 0.5381908316730821
000120 72 7e d4 eb 0d a5 c1 3f a2 5d 50 78 23 84 e3 3f
       0.13784955992831588 0.6098801946526928
000130 1b b2 00 8c 4f 02 b4 bf f0 0c aa 09 7d d9 db bf
       -0.07816025894198513 -0.4351494402291811
000140 10 dd 74 8e 5c 10 d3 bf b5 fc e6 e5 7c 73 b8 bf
       -0.29787362968222997 -0.09551220524643862
000150 6f 71 f6 95 65 15 b8 bf 26 fe 62 71 80 bf c7 bf
       -0.09407648955533941 -0.18553166901072976
000160 c9 c1 25 ee 17 1e e5 3f 96 a1 ff 20 53 d2 c0 bf
       0.6599235202139023 -0.13141860114343434
000170 87 4f b7 78 b8 e5 c9 3f ea cf 7f e0 85 5a e0 3f
       0.20232301611269696 0.5110501656295103
000180 09 0e 22 3d f2 2e e5 3f 2b c1 8e 0b 6e 8e c2 bf
       0.6619807428364207 -0.14497161449754378
000190 c2 fe 5f a7 a9 0d aa 3f 77 16 af 87 33 15 b4 bf
       0.050885488206402055 -0.07844850599857432
0001a0 4d 6b 54 b7 d2 71 cb bf 87 3a 35 a2 8a cc c2 3f
       -0.21441110564850377 0.14686711235340885
0001b0 bc fa 70 85 84 b8 ae 3f 89 5f 3f 94 ba 09 e2 bf
       0.060001508034920076 -0.5636876006565085
0001c0 c4 43 fd 30 28 f2 98 3f 47 09 92 7f ab c2 d9 3f
       0.024361255636282456 0.4025067086987701
0001d0 9a 4b dd 2a ba 07 d2 3f b6 c3 7a 88 94 f4 89 3f
       0.2817216318700787 0.012673530974412244
0001e0 d8 97 a1 99 c1 bc e7 bf 63 f1 4b ca 3f 88 ce bf
       -0.7417915344819859 -0.2385329950119611
0001f0 04 23 d5 0e 30 f8 e0 bf 68 35 ba 7f 4e a1 e2 3f
       -0.5302963533114 0.5821907515216198
000200 46 21 87 58 df 09 e6 3f a3 3e d8 84 00 17 d4 3f
       0.6887051323947524 0.3139039323150234
000210 00 41 ad c1 63 cf e2 bf 52 e7 89 67 7a d2 d8 3f
       -0.587816122317264 0.38784656630706593
000220 1e 59 e8 31 4c db e5 3f 4c 55 d6 ff da b6 e2 bf
       0.6830197310216908 -0.5848212239094805
000230 1a dc c0 a8 63 1c de bf 48 64 56 19 4e ba d0 3f
       -0.47048274497814335 0.26137115930902555
000240 8a 97 e3 f3 fb cb e7 3f 54 3b de e7 59 5a ce 3f
       0.7436504138429296 0.2371322996300146
000250 6b df a7 ca 04 9a d5 bf 89 ba ec 7c f3 af d7 3f
       -0.3375255564746939 0.37011420440368475
000260 14 06 1c 07 80 6e c8 bf 6d f2 fb f7 00 fe e2 3f
       -0.1908721956934164 0.5935063212815074
000270 f8 4d ed 31 99 06 d0 bf e3 82 7e cb 08 7a d4 3f
       -0.2504027354782177 0.3199483859298608
000280 9d 4b db 7a eb b3 de 3f b4 1c fa 39 4d c7 c4 bf
       0.47973143575398486 -0.16233220415981509
000290 e1 b7 54 56 f1 0f c7 3f 83 7b a3 e2 0a d4 d6 bf
       0.1801740333116291 -0.35669204838443863
0002a0 a8 1a 01 ef 30 77 aa bf 05 01 34 ab 0d 3a e1 bf
       -0.051690606284457374 -0.5383365958987559
0002b0 1a 47 92 ae 1c e6 c7 3f a1 3c fd 26 94 22 69 bf
       0.18670996211999907 -0.0030682462310448054
0002c0 8b 51 10 29 e0 f5 e0 bf d9 1f aa af 42 da a1 3f
       -0.5300141145731215 0.03486832041113503
0002d0 50 e8 51 9a 7d a7 d7 bf a6 6d 80 a7 5e 28 e2 bf
       -0.36959781713779183 -0.56742794718905
0002e0 9d 53 26 4c 48 41 e3 bf 22 fd ec 71 cc ba db bf
       -0.6017190444277848 -0.4332762825542479
0002f0 e7 ee 35 9f 51 00 e8 bf ae ea eb 12 50 b5 cd 3f
       -0.750038920362809 0.23209572719482224

module.feat_mlp.0.bias f8 [32]
000000 92 65 16 da 6b 47 a6 3f 59 e8 e1 c7 bd 3a c8 3f
       0.04351365124893926 0.18929264316449482
000010 9f f5 94 e4 6a a7 dd bf 3b 02 ce 18 ad 22 d3 3f
       -0.4633433563465931 0.2989914648278817
000020 66 94 1a 1a f0 ca d0 bf 1b 36 75 b5 21 0d dd bf
       -0.26238634633256763 -0.45392649384015876
000030 12 f8 22 1b 45 ab a2 bf 07 79 4a 32 99 f0 be 3f
       -0.03646293598420426 0.1208587405949154
000040 a5 d3 f0 53 f9 88 b3 bf d5 d8 fc bf 73 76 df bf
       -0.07630880641302314 -0.49160474537656046
000050 1c 26 3c ad 40 81 db 3f 24 8c c0 be fa 48 d1 3f
       0.4297639552829382 0.270079313546548
000060 2b fa 75 ef 6a 02 df bf 9e 38 40 99 aa 75 c0 bf
       -0.4845225656971787 -0.1285908935828432
000070 50 00 05 2b 77 5d c8 3f 81 8c fe da 8b dd d8 3f
       0.19035234070361406 0.3885221136681097
000080 47 74 51 31 6d 4c c0 3f 6d cc de fc c5 9a d1 bf
       0.12733235271562846 -0.27507161802640817
000090 f9 07 70 b4 9d bf c4 3f f2 13 2d 33 c0 65 df bf
       0.16209765730314965 -0.4905853748098813
0000a0 42 6f 63 0c 56 7d d5 bf 34 5f 5a b1 dd 47 c5 3f
       -0.3357749100666646 0.16625567588629908
0000b0 7d cb 64 4e 3e f6 d2 bf d4 75 69 7f bf 91 d5 3f
       -0.29627950339925474 0.3370207542664876
0000c0 1e 86 58 b4 a8 10 a0 3f 11 37 6d 99 08 7d c0 3f
       0.03137709809767507 0.12881572238477948
0000d0 ef 12 07 ba 41 48 c5 bf 50 ac 0d 0d af 11 d4 3f
       -0.1662676008546877 0.3135793330645287
0000e0 b2 aa 09 86 89 9d c4 bf b7 53 d2 0c f9 9c e1 bf
       -0.16105765385448972 -0.5504117250844648
0000f0 5f 24 4a fc fb f7 d1 bf 30 aa 59 98 33 a9 d6 bf
       -0.2807607616201206 -0.35407724264101414

module.feat_mlp.2.weight f8 [32, 32]
000000 ca 68 89 ec 1d bb a4 bf b5 21 01 6e 95 10 af 3f
       -0.040490088581195474 0.06067339866473579
000010 0c 1f 46 e2 8a 90 bc 3f 4f a4 da c7 e1 03 cc bf
       0.1115805437494794 -0.21886846788882727
000020 91 10 fa 6b 3a b4 90 bf 7e 3a 48 49 09 8d c4 3f
       -0.016312516060239594 0.16055408552388778
000030 3b 5e e9 2d fc 3b b0 bf 88 97 66 af 12 de cc bf
       -0.0634152996147969 -0.2255271297883008
000040 e5 0d fa d1 2d 3e b1 bf 0e d3 14 d8 3b f4 83 bf
       -0.06735502601991745 -0.009743182689456311
000050 48 4b 9e b6 2e 87 cd bf 7e 59 7a a6 ac 07 a7 bf
       -0.23068794171248386 -0.044980426141751004
000060 df 1e 29 bf cf f6 a4 3f b3 dd cf 4a a2 af a2 3f
       0.0409455223894477 0.03649623072845589
000070 48 88 d6 f6 87 a2 c3 bf b0 5a 1c ce 23 91 b6 3f
       -0.1533975558532481 0.08815215856553027
000080 a2 c1 cb 22 51 93 b7 3f 2c e6 26 0d 08 fb ba bf
       0.09209162806997154 -0.1053929359540226
000090 ae 2f 75 c3 36 2b c5 3f 83 c6 31 59 1f a0 c4 bf
       0.1653812841781223 -0.16113654952237164
0000a0 f3 d1 2c 97 f7 1e c3 bf bf a9 68 84 b9 0d cb bf
       -0.14938254243465074 -0.21135634389186284
0000b0 50 0b 24 a4 5e c9 b7 3f 6b 75 54 0d 65 b9 c0 bf
       0.09291640765517895 -0.13065779829859578
0000c0 ec 28 63 39 f2 36 cd bf 26 2d 0b d9 ad 34 83 3f
       -0.22823932458988538 0.009377821146151332
0000d0 05 22 26 0c 1f 7b c3 bf af c6 16 29 c0 2c bd 3f
       -0.15219486325464984 0.11396409037731801
0000e0 21 71 79 46 ad f7 7c 3f 01 e9 6b 2a a4 bf bd 3f
       0.007072140556911217 0.11620546374971143
0000f0 6f 91 ce 02 31 f5 c5 3f 7c 40 bb 24 88 92 c7 bf
       0.17154514920288075 -0.18415929597404446
000100 68 1c 3a c6 2e cf b5 bf 1e a2 86 c6 d2 2b c0 3f
       -0.08519260730291622 0.12633738225601204
000110 a0 1f 37 d8 51 74 c5 3f 20 68 2f 23 c2 e1 bc bf
       0.1676122956980608 -0.11281979903233763
000120 00 d1 d2 56 69 8a b1 bf 79 d1 59 79 18 53 b0 3f
       -0.06851824159349817 0.06376793825785922
000130 43 fb 04 df e3 b5 c0 3f ea 62 92 1e 22 c6 7c bf
       0.13055084600088138 -0.0070248921193971445
000140 c3 16 9f 04 57 22 b6 3f 3a 5b 72 45 d5 6b b6 bf
       0.08646148550823356 -0.08758290238834557
000150 20 19 a6 17 33 f8 c5 bf 63 48 c7 5d d2 97 c7 bf
       -0.17163695006110746 -0.1843207319166736
000160 29 1a 88 35 89 10 c0 bf 8a dc c9 aa e3 60 be 3f
       -0.12550463785028512 0.11866591376916538
000170 5e fb 51 f9 b2 aa c2 bf d1 73 cc 6b 63 9a a0 bf
       -0.1458343236335748 -0.03242788973714251
000180 a9 1a 9c 48 4b 34 91 bf 57 6f e5 3b 33 65 be bf
       -0.016801048571347597 -0.11873169147787387
000190 43 54 43 0b 91 ad ba bf d1 1f 22 91 01 c6 c4 3f
       -0.10421091580367751 0.16229266726099792
0001a0 22 61 1b 8c 4c 24 b6 bf 05 38 56 69 80 49 c3 bf
       -0.08649137898044448 -0.1506805910434538
0001b0 87 fa 4f 3a 5a 07 dc bf f2 c5 1d ad 18 73 b0 bf
       -0.437948758073539 -0.06425623156044205
0001c0 58 70 17 8d 8c d6 bc bf f7 be e0 a1 08 74 bd 3f
       -0.11264875836008181 0.11505178405854709
0001d0 41 45 6b 70 af 5e b2 bf bd 19 12 d0 f2 b7 ae 3f
       -0.07175728315930475 0.059997165583854685
0001e0 fe 80 a5 19 55 41 bb bf 07 43 e7 ca dc 27 b5 bf
       -0.1064656436551594 -0.08263950303740951
0001f0 77 44 87 90 b3 8d d1 bf ea c5 35 04 c5 82 c5 bf
       -0.27427376855946 -0.16805327134674936
000200 f3 d3 fe dd 23 34 af 3f d7 92 3d 1f 60 6f 93 3f
       0.06094467244057702 0.018979551226396687
000210 d0 b4 26 37 4f 4d c0 3f 4f c7 b0 12 43 4c c4 bf
       0.12735929673127666 -0.15857733166336138
000220 c3 87 07 8c 5f 76 d3 bf 00 28 b1 aa 76 21 c3 3f
       -0.30409992861507024 0.14945872625895618
000230 2e a0 c9 de 70 41 a0 bf 9b bb 2e 30 69 ef 8b 3f
       -0.03174927444052887 0.013640233786501635
000240 ad d7 51 de e3 02 bc 3f 6d 53 e5 59 00 57 a4 bf
       0.10941909959532721 -0.03972626778946773
000250 1f fb 22 86 9f 14 a5 3f b9 d0 80 48 01 18 af bf
       0.04117296707544526 -0.060730018711553986
000260 e1 0c 6e 92 74 84 d1 3f 3a aa 73 02 a4 4c c8 bf
       0.27370943355363236 -0.18983888740270222
000270 3a 24 b2 8f f6 3a 8f 3f e5 16 c1 6a c9 fe 74 3f
       0.015249181995630069 0.005125796113196056
000280 c4 fd 1e 98 29 00 c7 bf 9f e0 ae b7 d0 e7 c1 3f
       -0.17969245841776005 0.13988694161321732
000290 0b 50 d7 3a bb 8e cd bf b0 8e e0 41 d1 16 89 3f
       -0.23091831563090212 0.01225055200854483
0002a0 4e 98 41 c4 08 f9 d6 bf 47 b6 54 c9 cd 7c cd bf
       -0.35894984403274044 -0.23037121134386693
0002b0 9e 12 70 11 04 82 c7 bf 53 69 97 8a fd 96 a0 3f
       -0.18365527011350918 0.03240196530141994
0002c0 4a 2f 45 6b 57 7e c3 bf ee a0 81 d6 6f 14 3d bf
       -0.15229313600354494 -0.000443723015001853
0002d0 c4 03 a1 61 75 d4 c6 bf 2d 53 8b 14 10 7b b7 3f
       -0.17835871951140636 0.09172153951233204
0002e0 86 cd 99 85 9f b5 c0 3f d6 90 4b 38 bd 05 bb 3f
       0.1305426981303805 0.10555632233041776
0002f0 72 f1 4d 9d 1c 30 d4 bf 84 b3 e8 3e 95 15 b4 bf
       -0.31543650972141457 -0.07845433030952448
000300 a6 ec 80 53 bb 41 c5 bf 4a aa d9 29 87 cb c8 bf
       -0.16606847359966997 -0.1937111811015078
000310 7b fb 4c c7 10 66 b4 3f c6 30 c6 86 31 2c bc 3f
       0.07968239656200453 0.11004933872590347
000320 89 35 e0 39 6b dc a5 bf 46 22 08 5d ec d1 c1 bf
       -0.04269728738300233 -0.13921885054175415
000330 73 4d 73 aa ba f5 bb bf 06 f3 18 fd 02 b0 c7 bf
       -0.10921827947031719 -0.18505895002626732
000340 55 4e 09 6c 76 2e bd bf 89 a3 78 f3 4c f1 ab 3f
       -0.11399021279913175 0.0545753524023161
000350 63 de 98 30 d5 4e c9 bf c4 a0 66 fc 40 4a a0 bf
       -0.19771828530223265 -0.03181651192727622
000360 54 ba 5a cd ff 0d cc bf 0f cc b2 94 76 77 b9 3f
       -0.21917722251005733 0.09947911386807128
000370 6c 2d f0 a9 7b 80 d4 bf 3c 62 92 5c 47 a6 c7 bf
       -0.320341983752505 -0.184761924935417
000380 83 37 db 10 3a 63 bf 3f 9e 7b 67 62 56 11 91 3f
       0.12260783111125133 0.016667699581258348
000390 f4 00 b9 04 d7 b1 c0 3f 80 5d 16 cc 9b 89 b8 bf
       0.13042724352454338 -0.09584974033929505
0003a0 f1 38 1c 7d 42 5b c5 bf 1a ee cc 3a e9 df b0 3f
       -0.16684752568148256 0.06591661153373032
0003b0 0a fb c5 1a 3d 1e be 3f e0 ff 66 85 81 6f a8 bf
       0.11764890578886536 -0.04772572282263332
0003c0 95 4b 59 04 6d 9e ca 3f c2 b3 f4 34 04 2d 97 3f
       0.20795977318138328 0.0226326615640351
0003d0 9e 64 87 47 90 ad b8 bf f9 18 0b 4f e5 86 a4 bf
       -0.0963983702307751 -0.04009167280087129
0003e0 bf 04 db a4 b5 8f 9f bf 8c 99 c1 ea fe ef c2 3f
       -0.0308216459150159 0.1479490896483181
0003f0 10 66 a2 03 05 a6 c5 3f 13 34 15 c1 da 83 b5 bf
       0.1691290157075831 -0.08404319013534715
000400 3d d1 2e 1e f2 6a b3 bf ff de 9c 2c ff 02 d2 bf
       -0.07585061299216007 -0.28143290859905784
000410 d5 f1 ce f4 ef af b8 bf 09 2f f3 f5 4c 9a ba bf
       -0.09643459059493094 -0.10391694073330994
000420 c7 82 21 32 f1 23 c1 bf be 13 a6 85 aa 92 c3 3f
       -0.13390936801717698 0.15291339422051736
000430 e8 a8 c1 a1 79 69 cd bf 84 02 8b fb 31 5f a1 3f
       -0.229781345350893 0.033929407077725876
000440 9f 29 4f 90 14 3a 95 3f 05 79 0e f8 79 05 b9 bf
       0.020729371364532786 -0.09773981386249282
000450 f1 6d a7 ec 5d 9e d0 bf 9d dd 03 f5 db 63 92 bf
       -0.2596659480165889 -0.017959057645354205
000460 72 95 b0 ee 00 06 aa bf 57 f8 22 2a 52 37 c0 bf
       -0.0508270541543351 -0.12668826158000243
000470 47 38 81 29 90 0d c7 bf 27 57 cd a7 2f d8 cd bf
       -0.1801014139804826 -0.23315997785055595
000480 06 90 4f 58 31 8a 9d bf 17 73 d4 f7 49 cb 84 bf
       -0.028847476019919348 -0.010153367877643356
000490 a9 a8 4a 2d 0e f8 9b bf ba bc 03 18 4e a0 b3 3f
       -0.027313443674451907 0.0766648110036269
0004a0 38 aa a5 9e e5 c7 df bf a7 0e 88 65 a6 69 c9 bf
       -0.4965757417000165 -0.19853668172446712
0004b0 de 49 94 ee fb ea c4 bf 59 1d e3 b5 65 cc c7 bf
       -0.16342114591004891 -0.18592521077355675
0004c0 16 8a 85 21 bf 62 c5 3f af 35 a4 5c a4 91 9f bf
       0.16707600724028343 -0.030829017786393183
0004d0 87 93 c2 d0 92 36 a8 bf 44 8f 9a 4c 6e ca ad 3f
       -0.04729136274662609 0.05818504986862519
0004e0 1f ab 3f 4d 2c 79 b4 bf 84 f8 6f bd 8e e6 bf 3f
       -0.07997395406679829 0.12461177945076157
0004f0 03 a2 dc 2b 9e 86 c4 bf d7 62 86 6d c2 c6 da bf
       -0.1603582109612632 -0.4183813161449001
000500 1f 94 d7 12 ae 08 c1 3f d5 a6 18 e4 18 41 c2 3f
       0.1330773918154202 0.14261160981668888
000510 98 78 6e 55 47 cc 8c bf 20 2e 53 cd cb 91 ad bf
       -0.014061505598700827 -0.05775296098144289
000520 91 1e e5 ee 7e ab cf 3f 8f 1d 81 18 5c ac b7 bf
       0.24742113747401054 -0.09247375105143461
000530 aa 02 da 70 1e e5 a3 3f b5 5c 6e d2 c1 a7 b5 bf
       0.03885741355498358 -0.0845910204646881
000540 d8 1c 0c b6 40 c1 d7 3f a0 62 e0 63 c7 b7 95 bf
       0.3711702134900867 -0.02120887324426468
000550 a9 a8 40 a6 4a ee ac bf af be 22 6e 1a d8 b3 bf
       -0.056505520624641044 -0.07751622380123523
000560 c3 e0 cb 10 f6 d8 b9 3f 81 61 6a 66 ba cf d4 3f
       0.10096681509083098 0.32517871858137687
000570 36 fd 55 a7 d6 79 cc 3f e6 e7 ab f8 a9 f7 ae 3f
       0.22246821566293712 0.060483275990875815
000580 39 c0 e6 98 81 d0 c5 3f 43 1a b8 d6 10 d4 c1 bf
       0.1704256054486011 -0.13928423389752895
000590 95 14 dc 2b cc 20 c7 3f 69 7c a4 e4 97 61 bb 3f
       0.18068840161882763 0.10695790607540946
0005a0 ad 71 0b f7 03 c2 b8 3f 3a 44 2e eb 63 ca c7 3f
       0.09671044141163661 0.18586396201547634
0005b0 d0 39 a7 ed a8 19 d9 3f db fb 7e 70 a2 e7 29 bf
       0.39219115455935327 -0.00019763811019221544
0005c0 fa 94 1d 45 59 78 d9 3f d4 d8 55 4c 81 f5 c0 3f
       0.39797050237241616 0.13249222018538964
0005d0 88 cf b5 6e bc 8c d3 3f cf c3 02 97 72 37 aa 3f
       0.30546484767477766 0.051204281743941864
0005e0 0c d5 c4 ab 23 b1 d9 3f 38 eb cb 0c 19 78 ce bf
       0.40143672727875024 -0.2380400955661004
0005f0 ee 69 91 87 2a e8 d8 3f 57 c9 e2 ab 0b a7 d0 3f
       0.3891702960878821 0.2601956537793248
000600 6d fd 47 5b e8 9a a7 3f c4 b8 be 12 a7 d3 cb bf
       0.04610372652313797 -0.21739662566455398
000610 5b a3 c7 af 66 28 c1 bf 61 ba a1 11 3b 8a 92 3f
       -0.13404544432639906 0.018105433417469622
000620 fb e2 94 2e a9 2f a9 3f 51 92 42 92 7a 84 bb bf
       0.04919174855826288 -0.10749021597673304
000630 e4 1e 60 e1 86 1d a3 bf 28 31 58 ff b4 9c bf 3f
       -0.03733464718976423 0.12348490938183387
000640 3a 9e 9c 98 da 94 d4 3f 46 e3 11 8f 07 bc ba bf
       0.3215853205060487 -0.10443160288731432
000650 61 d5 00 d2 f2 68 b6 3f 8e 67 eb 1a 2d 35 ae 3f
       0.08753888728172889 0.05899945214851164
000660 95 a1 73 53 10 a6 a1 bf bd de 17 08 c7 d8 bf 3f
       -0.03447009104440039 0.12440151164616516
000670 3a a3 fa 49 3b f5 b7 bf 67 3d a7 46 c9 fb bc bf
       -0.09358568721894481 -0.11321695303853617
000680 25 b4 d2 1f 8f 13 a8 3f a2 19 57 26 42 31 9c bf
       0.04702422393288711 -0.02753165587434981
000690 d5 2f 54 32 79 05 c0 3f 1b fe 7e ed 21 5f b8 bf
       0.12516703565086 -0.09520160721057673
0006a0 0b a4 b2 73 36 cf cc bf 71 ef d0 9c e9 2c 9a bf
       -0.2250736298495045 -0.02556195277814716
0006b0 97 2e 06 58 c6 88 d3 3f 56 c4 22 5f ce 9f c0 bf
       0.30522307010753863 -0.12987689633658545
0006c0 47 66 df 30 97 71 b3 3f 3b d1 b8 48 aa 2d 36 3f
       0.07595200484447516 0.00033841521573953524
0006d0 34 f6 af 62 3c 52 98 3f cd 59 65 87 1e 44 c7 bf
       0.023751204989812716 -0.1817663346398163
0006e0 46 ca 2c bd 9e 7e c2 3f ac f1 ec 10 79 6c a6 bf
       0.1444891380029551 -0.04379633266077873
0006f0 7b e9 09 39 3e 77 d0 bf 69 29 16 6e 4c cc d1 3f
       -0.2572780186671008 0.27809439421311893
000700 a0 b0 fe ba 58 2c bc bf 5f ff a7 c3 92 89 a4 3f
       -0.1100516754656291 0.04011210096723405
000710 cd 59 7d fb c6 12 bf 3f 5d 43 b0 fa 7c e3 c0 3f
       0.12138026847728796 0.1319423889222219
000720 50 ec 86 03 74 da bf bf 43 10 61 ca 23 af c3 bf
       -0.12442708097562272 -0.15378234273714683
000730 d7 5e 82 67 58 f4 ab bf 16 4c ed 7c 14 f6 c5 bf
       -0.05459858192005889 -0.17157226657818175
000740 4a b5 6c e3 c5 26 b5 bf 00 f8 d5 d2 9e 61 bf 3f
       -0.08262287905082136 0.12258331916197562
000750 d3 e7 3d ca d0 27 c7 bf ea 15 c5 49 06 0f a1 bf
       -0.18090257525528716 -0.033317753319845725
000760 63 ba 4a 92 dd 63 93 bf db 08 4f 33 52 bd 92 3f
       -0.018935644201230405 0.018300327664982113
000770 86 76 ab b2 a9 f4 95 3f 4b 8e 48 86 5c 00 b6 bf
       0.02144112732900407 -0.08594301489261473
000780 4d 63 5d de fa 1e ae bf dd 96 d0 23 94 39 c2 bf
       -0.05883010830320377 -0.14238216160554532
000790 98 cb 94 e9 7a 70 b3 3f 6e e9 41 89 11 03 ba 3f
       0.0759350605265311 0.10160932160389333
0007a0 b8 a1 21 0b b7 bc 6b 3f 3c b6 1d dd f9 cb 94 3f
       0.0033858847682959013 0.020309356804707898
0007b0 0f db 6c f4 46 06 c3 bf 47 72 21 67 74 00 c3 bf
       -0.14862906393838002 -0.14845137630153912
0007c0 0b d8 e7 7e 44 12 b2 bf 96 13 af 0e f2 cc c0 3f
       -0.07059124086649164 0.13125444142329162
0007d0 f5 77 78 23 33 05 c1 3f 04 a8 23 d3 55 f8 b0 3f
       0.13297118408166822 0.06628929524200095
0007e0 36 42 fa 0a 2c 78 c2 3f c1 47 ca 41 45 32 c9 bf
       0.14429235969557092 -0.19684663498315838
0007f0 ce af 21 e4 c6 96 a2 bf 35 3c 75 29 c2 cf bf bf
       -0.036306586597532595 -0.1242638922897051

module.feat_mlp.2.bias f8 [32]
000000 cc 75 c8 7b 0f 0b b0 bf ca 7b 72 02 4c 6d 1e bf
       -0.06266876956984574 -0.00011606956887753799
000010 13 23 a5 5b 22 1f b9 3f 22 7e 5c e7 59 09 b2 bf
       0.09813132035663967 -0.07045518778294782
000020 4a f1 5b 87 26 70 9f 3f 7c c5 21 51 9e 09 b1 bf
       0.0307012577168149 -0.06655301552543408
000030 2c 07 a0 aa 66 92 bb 3f 0b 88 bf b6 a6 22 b9 bf
       0.10770265260364614 -0.09818498574853167
000040 b5 66 d0 9c 87 eb ba 3f 18 c5 51 94 2e b9 ad bf
       0.10515639856785237 -0.05805345116176336
000050 5e 81 92 36 76 6b b8 3f 09 e6 89 db 51 06 af bf
       0.09538973648387158 -0.060595090912965395
000060 ec d3 2d 49 4f 90 99 bf c0 10 7f 9f ec 1a b0 bf
       -0.0249645603575636 -0.06291083234742967
000070 99 1f 03 bf 95 05 b3 3f 21 c1 e6 e1 1d 95 a2 bf
       0.07430396951087771 -0.03629392035088786
000080 80 d1 f0 97 48 ea b5 bf 21 a2 d6 fe c9 0f c0 bf
       -0.08560613355149904 -0.1254818434074574
000090 72 4d 8f 18 82 92 84 3f 08 9c 84 6a 56 ef b6 3f
       0.010045067190651766 0.08958950138604405
0000a0 55 13 48 b5 27 e7 c2 bf 25 d3 17 28 62 31 c5 bf
       -0.14767929412496508 -0.1655695625082895
0000b0 bc 8e 3a 2d aa 89 be bf 53 01 4f bd 96 d9 8c bf
       -0.11928809742181107 -0.014086892750015656
0000c0 99 87 b7 21 c8 01 96 3f ef c9 ab 92 d7 55 c6 bf
       0.021491171892087022 -0.17449469243690838
0000d0 a5 7c d7 fd d9 7e bc 3f 2f 88 a4 1c 68 aa ba bf
       0.11131060073192829 -0.10416269969258062
0000e0 f8 74 b0 c0 13 ee bf bf 07 90 09 8e 70 b5 b2 bf
       -0.12472651914909594 -0.07308104961117588
0000f0 a6 ca 9c ca 67 f0 71 bf 3a fc f9 a0 93 4e c2 bf
       -0.004379659114237688 -0.14302296981984047

module.feat_mlp.4.weight f8 [32, 32]
000000 e7 0d 38 26 83 3c cf 3f 46 4c 40 d1 a8 11 b1 bf
       0.24403418890152226 -0.06667571171446793
000010 7c 5a 28 3e 11 f1 b5 bf 58 82 c6 cd 7a 49 bf 3f
       -0.08570964591522484 0.12221496127905007
000020 92 f6 44 7f f1 cf a2 bf dd 21 52 c3 d8 87 d5 3f
       -0.03674273184377087 0.3364164264135335
000030 7e 17 89 51 dc 99 b8 bf 54 34 d4 a7 9a 60 b2 bf
       -0.09609772673237946 -0.07178656194101168
000040 b3 0c dd 2d c6 4b ce 3f f6 ae 8f f5 b4 48 b3 3f
       0.23668744315555088 0.0753281688227466
000050 4f 1a 6d 43 c8 dd b0 3f 37 e9 ff 67 95 6f af 3f
       0.06588412901064909 0.06139819044615751
000060 35 7f 3d e2 87 bc c7 3f 5f e1 3f aa 5d 1a c2 bf
       0.1854410032929025 -0.14142962277379476
000070 7f b5 8f 02 72 07 aa bf 9b 9e c2 f2 0a d0 c6 3f
       -0.050838053524652864 0.17822396138693794
000080 c3 8d ee 9d 93 ce bb bf a1 d0 fe 15 0f 58 9e bf
       -0.10862085920103141 -0.029632793157092
000090 e0 03 99 c7 f4 5e bf bf 05 60 27 10 a9 73 c2 bf
       -0.12254266617766474 -0.14415467537651253
0000a0 da 4d 5a 7f 38 f5 b7 bf ab 89 b1 73 2a 25 c1 3f
       -0.09358552083204277 0.1339467110547735
0000b0 a3 90 f2 94 62 6a c6 3f 09 15 7e 6c e5 d0 b7 3f
       0.17512161515071964 0.09303125284903414
0000c0 73 34 f6 c2 8f db 95 bf 4e f8 00 1d 73 df 82 bf
       -0.02134537341548932 -0.009215258906007186
0000d0 ad 9c 2d 19 f9 a7 d2 3f ad c6 f1 56 c4 f9 b8 bf
       0.2915022607689462 -0.09756114123026789
0000e0 f1 bf b0 8e 14 a9 c2 3f 4e 95 70 43 78 3a c1 bf
       0.14578492133432477 -0.13459685605009003
0000f0 6e 5d 04 60 2a 6d b0 bf ce 84 ea cc 71 17 94 3f
       -0.06416573375860476 0.0196206837960105
000100 94 9b 3d 88 03 d7 87 bf c5 a1 d9 2d 85 36 b5 3f
       -0.011640575022921408 0.08286316270244416
000110 7d c2 3c 03 22 40 b0 3f 8b 34 a8 2b 45 3c b0 bf
       0.06347858981167494 -0.06341965022893896
000120 93 92 4c 4c 52 23 9d 3f ba e7 c0 9d 79 f3 9f 3f
       0.028455053240707583 0.031202221158515654
000130 2d 63 14 8c 16 1b 96 3f 26 5c 13 5d b9 25 b6 bf
       0.021587707805426227 -0.08651312372545358
000140 3c ac 70 9e e9 c5 b0 3f dd 43 e3 85 92 2d c1 bf
       0.06551990621726217 -0.13420325791824342
000150 98 b5 32 3b 78 ff c1 bf b8 43 01 c8 3b 4c b4 3f
       -0.14060881510287682 0.07928823121007056
000160 f1 ec 5c 18 e2 ea b2 bf 05 75 8b 68 57 9a b8 bf
       -0.07389653296279498 -0.0961050634609429
000170 3a ae 10 d6 a9 fa b1 3f 3b bb 3f 00 39 f0 68 3f
       0.07023107029152068 0.0030442345905536106
000180 6b 43 43 3b 4a 97 93 3f 43 20 9c 71 94 64 a5 bf
       0.01913181292258363 -0.04178298842276764
000190 ff 52 32 69 6f 51 c8 3f 16 70 e4 e0 3e be bb bf
       0.1899852050452395 -0.10837166777167825
0001a0 02 20 db fd 35 95 6a 3f f8 f4 3e b2 18 6e 5f bf
       0.003244977428810359 -0.0019183388876478618
0001b0 99 a2 bb e3 7b 9b ba bf 89 b2 48 33 c7 db c8 3f
       -0.10393499669920415 0.19420709613895706
0001c0 10 56 f9 c7 bf 9d 93 bf 96 0f db 33 b7 e5 b1 bf
       -0.019156452732508156 -0.06991143241890393
0001d0 c0 03 46 db ca 27 c7 3f c9 57 28 d4 91 21 b8 3f
       0.18090186793054208 0.09426223210934305
0001e0 77 24 2e 94 6d 3a 77 3f b7 0a fa fa 88 4d b6 bf
       0.005670955698300443 -0.08712059142457461
0001f0 fe a9 f9 c8 f4 56 a5 bf 67 14 6c 30 30 a0 99 bf
       -0.04167904809294852 -0.025025132136779506
000200 0f 32 dd b2 5e 21 be bf e5 7e 73 67 71 86 ad 3f
       -0.11769668452070213 0.05766634357291681
000210 d9 82 8b 99 b0 3a b0 3f 75 ae c8 6e e9 0f c5 bf
       0.06339553593307858 -0.1645480910241194
000220 cd c1 56 14 b8 cf 8f bf 36 05 a7 b8 84 08 8e bf
       -0.015532911415761763 -0.014664685139794114
000230 8d 73 99 9c 8a 9a a8 3f 77 87 4e c1 5d 57 c3 3f
       0.04805405770887381 0.15110370577627538
000240 aa 09 ee 20 e3 9b ab bf 1b 50 6c 34 de f5 c4 3f
       -0.05392370011306309 0.16375329551431225
000250 17 1f e7 e8 56 f1 c7 bf 52 54 0f d4 9f 16 b4 bf
       -0.18705259678085248 -0.07847021987193273
000260 3c f3 ad 37 f7 ac bb bf 5c f6 fa 39 5f 49 a9 bf
       -0.10810799702990165 -0.049387908771205885
000270 ad 65 2c e2 17 13 be 3f 58 6e 51 16 24 ed b9 3f
       0.11747884055912179 0.10127473397135967
000280 93 14 eb a8 35 5e c4 3f e2 a2 29 35 1a a2 bc 3f
       0.15912504909480116 0.11184848592678123
000290 75 22 f7 96 e5 d1 76 bf 80 ec 64 aa e4 0a a1 bf
       -0.005571266970442514 -0.03328623371131645
0002a0 1f 62 75 d2 94 25 b6 3f 5a ad 35 72 7d 2b c9 bf
       0.0865109456839339 -0.19663971020359378
0002b0 59 a5 cc ba 7e 20 c4 bf 0b 7a bf db 59 9c b6 bf
       -0.15724166985573154 -0.08832322707119304
0002c0 1d 4d c7 e0 39 e4 9b 3f 94 b8 54 01 e5 60 c0 3f
       0.027237800926582446 0.12795698704707503
0002d0 b3 85 21 eb 66 60 aa 3f bb 23 f5 34 b4 00 ab 3f
       0.051516739084728334 0.05273974558310309
0002e0 ad 6c 3b 69 2a 7b b0 3f e7 9a 78 b5 0b e6 bd bf
       0.06437935895103193 -0.11679146938750372
0002f0 56 69 83 19 55 bb b9 bf 39 c6 69 9c 05 a6 d1 3f
       -0.10051471588977753 0.27575817370152184
000300 99 f5 b4 4e 93 c9 ad bf 2e 22 f4 36 52 a3 a8 3f
       -0.058178523404858136 0.04812104149647599
000310 5b e6 ae dd 4e b7 73 3f fe 37 ff 84 aa 6e ac 3f
       0.004813488073460793 0.055531815276125926
000320 6e 31 a2 89 97 79 b3 bf 49 29 e8 5c cc 81 b9 bf
       -0.07607409582323552 -0.09963681476816534
000330 39 67 2e ae 3b 85 b0 bf bd 0f 99 27 24 44 c1 bf
       -0.06453297617408972 -0.13489200528613124
000340 7c d1 77 fc a4 c7 ab 3f 70 c3 60 70 b0 7e 9a 3f
       0.054257541483738486 0.025873906001098346
000350 0b ed 35 d3 d8 0e 92 bf eb d1 97 66 10 35 c3 bf
       -0.017634761706614415 -0.15005688676286807
000360 dc 40 08 2b b8 67 81 3f 01 08 31 7e b7 c7 a6 bf
       0.00849861031841253 -0.044492468027343086
000370 b9 cd 8a 60 98 54 a4 3f a9 96 de 75 41 a6 7d bf
       0.039707910332619396 -0.0072386319206196115
000380 8d 86 21 23 82 73 9b 3f 98 55 97 4b f7 65 a8 3f
       0.026807816881393044 0.04765293882125404
000390 17 f1 5c 12 62 64 b6 bf 64 ce 05 45 8b 73 be 3f
       -0.08746922443691961 0.11895056185840641
0003a0 f2 36 42 16 43 61 aa bf f5 26 a6 17 ca 8f 70 bf
       -0.05152330061637923 -0.004043378280025091
0003b0 35 6d 91 7b 4a 6a a3 3f a8 63 07 e5 23 1f c1 3f
       0.03792031057738613 0.1337628238968851
0003c0 06 bc 8e 96 d9 8a ae bf 6e bc c5 e6 91 b3 c4 bf
       -0.059653091076477024 -0.16173003929313573
0003d0 3d 61 c1 26 4c 71 80 bf 31 3a 60 77 30 a2 c0 3f
       -0.008028597767563478 0.12994962529087808
0003e0 66 33 ce 4c 88 aa b7 bf 9a de 6f 48 53 a9 bb 3f
       -0.09244586825498188 0.10805244940262995
0003f0 b7 91 ae 98 72 ff 70 3f 64 1e e6 af eb ac ba bf
       0.004149863855591843 -0.1042010597649266
000400 31 f0 90 88 5e 9d b1 bf 30 41 25 e5 a8 a4 c2 bf
       -0.06880751451620949 -0.14565001667734512
000410 e2 5d 54 18 24 84 b7 3f 6e 2c 87 f4 31 86 be 3f
       0.09186006158812846 0.11923515529558568
000420 1d db 8f e8 4e 72 c4 bf 19 e0 2f 45 e0 c6 bb bf
       -0.159738410525926 -0.1085033577836615
000430 aa ae 8c 58 55 c4 ac bf 12 53 4e fd b5 3a c5 3f
       -0.05618540483405117 0.1658542143674358
000440 af 93 6c 32 18 cb c6 bf 2a 21 3e c4 ac 66 c0 bf
       -0.1780729528628888 -0.12813338834917803
000450 51 c5 dd 13 63 5d aa 3f 90 06 8a ad c4 dd 9c bf
       0.051493736434063415 -0.028189728824605853
000460 15 aa fd 8b e1 8b c2 bf 42 a2 b9 91 9f dc aa 3f
       -0.1448938306378557 0.052464472330772796
000470 04 9f e9 b6 89 4c 96 3f 76 54 09 09 bc 12 d3 bf
       0.021776344098184644 -0.29801846392121634
000480 1b 94 c0 11 99 a8 b6 bf 7e 4e 2c dd de 03 bd bf
       -0.08851010020642074 -0.11334031009419651
000490 a3 7f fc c1 c9 1c c4 bf 5b 24 1e 52 c0 b2 c4 bf
       -0.1571285435866204 -0.1617050553288973
0004a0 9e 82 6d 04 71 fe 97 bf 30 d8 b8 67 33 55 bc bf
       -0.02343155469441404 -0.11067506105686742
0004b0 55 b9 88 dc 37 ef b3 3f 27 0f 19 c6 8c 5c ba bf
       0.07786893018849146 -0.1029746993672772
0004c0 02 ef 66 e2 f1 48 b5 3f a2 0d 08 da 48 04 a2 bf
       0.08314430024523392 -0.03518893872753927
0004d0 45 b4 f4 9f bc cc c6 bf 8b e8 03 a9 57 c9 c3 3f
       -0.17812307176919454 0.15458198311518276
0004e0 cd 56 cf 49 46 23 a7 bf ce bc 2f 02 8b df ad 3f
       -0.04519099856376627 0.05834612275781979
0004f0 70 a0 59 24 fa f8 bf 3f 2d 8c e3 e6 db 41 73 bf
       0.12489283931211204 -0.004701479904016853
000500 6f 03 2e e7 a7 02 b6 bf 57 d9 37 4e ed b7 aa 3f
       -0.08597802537953013 0.052184501455416914
000510 a5 52 5a 85 18 35 bc 3f 74 c4 4b e8 af f0 c2 3f
       0.11018517738041085 0.14797018854691013
000520 bf f9 e8 32 bc c7 69 bf 19 fd 93 4f 31 14 c1 bf
       -0.003146998954689922 -0.1334287298741195
000530 43 6b 07 59 6f cb a2 bf 20 70 9c 2e 42 22 c0 3f
       -0.03670833551196619 0.1260454871743386
000540 0d d0 cb e9 61 5e bb 3f c0 f7 34 51 5d c8 b6 bf
       0.10690891225732475 -0.08899481995192016
000550 27 1a 4f 97 40 e4 d7 3f da 37 57 e4 41 70 b0 bf
       0.37330641533154324 -0.06421291184162162
000560 1c 04 30 53 55 74 b5 bf be bf 3f af 76 62 c6 bf
       -0.08380635529466968 -0.174879870959101
000570 fd ab a6 2e cd 4c c5 3f f8 6c ca 30 17 e7 9c bf
       0.16640629556545142 -0.028225290635060823
000580 2c 51 8e ff 53 fd c1 bf 96 1b f5 33 92 91 c4 bf
       -0.14054346063915923 -0.16069247757897348
000590 76 ce 9b 38 67 92 b5 3f ed 14 61 0f 0b e9 cc 3f
       0.08426518566175809 0.22586191416682003
0005a0 f7 68 19 a5 06 0f c3 bf 3b d6 c1 bd 9c 7c b3 3f
       -0.14889605580794527 0.07612018234962019
0005b0 cf 84 d0 36 c6 49 c2 3f 76 a2 2f e8 5b 03 b5 bf
       0.14287641216745903 -0.08208250444989482
0005c0 18 fc 73 10 36 4f a5 3f e7 83 8b 87 80 2b b3 bf
       0.04161995840876659 -0.07488253888324402
0005d0 f3 86 aa fb 5b f0 bd 3f 7f 99 78 97 6a 04 62 bf
       0.11694884199325965 -0.0021993715161158773
0005e0 1c f2 6c 75 91 6c c4 bf e0 58 5a 39 12 45 c9 bf
       -0.15956323846502662 -0.19742038536487083
0005f0 4d 39 a0 7f 47 cc c6 bf 9b e7 ed e9 b2 23 a2 bf
       -0.17810910922748704 -0.03542861085493528
000600 23 80 6f fe 32 74 ab 3f 19 b9 cd 00 c3 31 bf bf
       0.0536209045019407 -0.12185305375689771
000610 7c de ec 8b 80 bd 68 bf f5 c8 a7 6c cc 44 c7 bf
       -0.0030200491595698247 -0.1817870646041865
000620 05 c7 98 4b f0 bd 6e bf 54 82 c6 17 c2 08 c9 bf
       -0.0037526791827752226 -0.1955797782984684
000630 72 e3 cc 4c 0e 28 a1 bf e4 a7 29 8a 71 36 bc bf
       -0.03350872695450037 -0.1102057421027492
000640 43 75 aa 65 c7 b6 9f bf 05 25 f3 90 40 5a ca bf
       -0.030970683651152752 -0.2058792789232841
000650 10 d8 f6 f6 bd bc c3 bf f6 40 e7 2c 43 15 c7 3f
       -0.15419745024490839 0.18033637707276967
000660 c9 8b f9 b8 22 c4 c8 bf fb ea b9 88 09 3c 9e bf
       -0.19348558456394319 -0.029525898904902963
000670 86 11 a6 b1 07 be b9 bf 8a e8 22 38 4b dd a6 bf
       -0.10055587851645073 -0.04465708790071783
000680 40 33 ea 22 78 cc 90 3f 16 5f ae 56 f1 a6 bc 3f
       0.016404988413842192 0.11192234388579111
000690 9a 38 3d cd dc 9c b8 bf dd e5 c0 5e c0 45 c0 bf
       -0.0961435319015628 -0.127128645197259
0006a0 1e 9b 35 44 9b a3 b0 bf fe 90 b2 53 89 df c7 3f
       -0.06499643721836576 0.18650929056924065
0006b0 5e 00 ea e9 94 7f 9b 3f b1 13 de 16 15 6d ba 3f
       0.026853873040181823 0.10322696502960473
0006c0 e3 c8 12 93 3b 04 bf 3f 3f ed 7f ae 3c 79 bf bf
       0.12115833607348096 -0.12294368038412971
0006d0 53 66 57 5a 0c fd c9 3f 9f 83 14 50 f8 b7 c5 3f
       0.2030349198455946 0.1696768179909016
0006e0 cd cd 82 6d af 2e 97 3f fb e5 72 bc f2 da a2 3f
       0.02263902765180408 0.03682669210816055
0006f0 f4 0d b8 4f ce 00 91 bf a7 93 e6 13 a2 1f 9e 3f
       -0.016604636779460294 0.029417545761720423
000700 02 8b eb 63 5e f8 bf bf 86 5e 74 b4 81 66 c7 bf
       -0.12488355578856772 -0.18281575499780817
000710 b9 75 25 6a 76 08 c9 bf 5b 9d f9 78 fe 1e ca bf
       -0.19557075674940252 -0.20407086283669681
000720 09 78 34 ac a0 1e 69 bf f5 05 cd 65 5f cd 9c bf
       -0.003066362203425936 -0.028127184475357187
000730 23 7e 19 54 7a 33 a7 3f 57 19 4c e6 b0 01 aa 3f
       0.04531461979490483 0.050794151413401316
000740 68 0f 6b 61 b8 b5 a3 3f 3c c1 72 d6 25 8b a7 bf
       0.03849579037844714 -0.04598348849083542
000750 fb f0 b1 11 fe fd 96 3f 24 97 87 17 0d 53 a9 3f
       0.022453279333135772 0.049461754915496564
000760 52 f1 11 85 fa 8f c8 bf d8 2b cd 3e 95 e3 a9 3f
       -0.1918938779598514 0.05056444541568056
000770 7f a3 81 7c 49 4f c5 bf 24 64 41 c1 66 76 c4 bf
       -0.16648214892782318 -0.15986332355785848
000780 80 6e 88 0f 4e 4d a9 bf bd c9 a1 8b 20 ed c4 bf
       -0.049417914768324245 -0.1634865457341003
000790 4c 83 23 e0 4e e7 76 3f 5b 96 e3 5b ad b0 a3 3f
       0.005591686351380808 0.03845731493656209
0007a0 62 bb 6e 79 00 61 a0 3f 8d dc a2 e6 9a 4d b0 3f
       0.03199006540614026 0.06368415957227765
0007b0 9d a3 67 85 ed 6c b0 3f c2 45 cf 5a 8c e9 91 bf
       0.0641621065802966 -0.017492478411275554
0007c0 3a 0d b2 0d 55 96 a5 3f 2f 32 e2 15 eb 97 ba bf
       0.04216256897145816 -0.10388058933512732
0007d0 56 e3 fa 9f d5 9d b0 3f e4 6f 5a 90 2b 10 c3 bf
       0.06490836292040333 -0.14893097446918013
0007e0 c3 36 0b 80 6e da bd 3f 64 d5 61 48 a6 5f b0 3f
       0.11661425233907168 0.06395949618475566
0007f0 24 b9 7c 38 a4 36 b6 bf 5b 0a bc dc 1c 84 8e bf
       -0.0867712629230693 -0.014900422560008389

module.feat_mlp.4.bias f8 [32]
000000 63 0a 7e 53 cc 21 c0 bf 49 d9 36 13 90 f4 45 bf
       -0.12603143765234667 -0.0006700232974512856
000010 7e 9e 08 bd 78 c5 60 3f 5f 70 de f2 2c 51 90 bf
       0.0020472868129848823 -0.015934660266438857
000020 d7 2b 01 d7 6c b2 bc 3f b6 ed c4 3f f6 aa a1 bf
       0.11209755181441437 -0.03450746086533789
000030 7d 5d 60 9e 8c 0c b6 3f 76 5c cb 30 60 3b 9d 3f
       0.08612898699390388 0.028546812990353186
000040 d4 6f 13 f2 1f 55 a3 3f 92 87 5d 8b b3 49 7f bf
       0.037758825588497 -0.007638646455093838
000050 f3 fb e5 b6 8a de af 3f 45 72 97 ff 57 06 a2 3f
       0.06224473459860027 0.03520464892401213
000060 f7 9b f9 33 b2 1e 87 3f 13 78 c2 0f fe 6b 9e bf
       0.011289016925003266 -0.029708833419697166
000070 a4 bd ea 05 c1 a4 a0 bf e4 56 d1 6d ff 31 9b bf
       -0.032506973240170184 -0.02655791385435337
000080 42 41 3a 7a db ff c0 bf 52 18 a9 ad 3c 98 a9 3f
       -0.13280814617292874 0.04998960132483944
000090 75 34 8c 06 89 89 86 3f 74 c1 52 4d 08 65 95 3f
       0.011004515182799527 0.02089322063392403
0000a0 4a f7 2b 87 5d 4b 8b 3f 7e 66 2a bd 6d 01 98 3f
       0.013327341735471916 0.023442949934724393
0000b0 49 7f 68 d2 c7 eb 93 3f a7 f5 25 b1 f9 1d a4 bf
       0.019454118935868157 -0.03929119384245477
0000c0 ab c3 1a ae 43 5c b2 bf 09 20 81 b7 12 5b a7 3f
       -0.07172034264182396 0.04561670770686994
0000d0 ea 4e 93 78 66 80 65 3f 0c fe 1e 32 e6 0c a7 3f
       0.0026247025858568878 0.04502028810338396
0000e0 c5 a9 0d ba 42 14 91 bf 86 13 a5 b3 e7 a0 9e bf
       -0.016678850751682867 -0.02991067918744108
0000f0 cd ec 9c b6 ce 84 a8 bf 80 4c 34 cd 8d 5e b3 3f
       -0.04788824061548667 0.07566152820463579

module.transformer.to_qkv.weight f8 [96, 32]
000000 f4 14 82 51 51 d7 c1 3f d6 9a 6a c0 8a a0 bd bf
       0.1393834732045104 -0.11573092649141911
000010 d1 b8 ee d3 8b 79 77 3f ee dd 64 3c 0d 3e b3 bf
       0.005731149866660527 -0.07516558384383362
000020 cd 5a 56 15 95 ea c3 bf 88 a6 30 62 6f 49 60 bf
       -0.15559638540135837 -0.0019881415805869697
000030 68 9f 55 d6 a0 34 a1 bf 72 dd 7f 06 42 09 b9 bf
       -0.03360464683902259 -0.0977975145213941
000040 63 72 2c ec 3d 4c ba bf 66 cf 05 4b 44 76 c0 bf
       -0.10272585884053735 -0.1286092153856046
000050 b0 54 c4 e5 b5 f0 b8 bf 1e 8a 4c 0f 5c 94 9c bf
       -0.09742295131248357 -0.02790969699266032
000060 0c 83 57 6e f9 38 c8 bf 56 bb 29 3b e8 c7 cb 3f
       -0.18923871887002297 0.2170381821519764
000070 7a 22 a7 da c2 61 d1 3f 2c 8c 41 fe 0b 92 96 bf
       0.27159186699694937 -0.02204149951320404
000080 54 83 09 34 63 8c c5 3f eb ac 45 16 1d f7 b5 bf
       0.16834678688885651 -0.08580190461877961
000090 03 45 2c 1a f9 70 b9 3f 92 1b c8 31 6e 4d 93 3f
       0.09938008202540875 0.018850061214859055
0000a0 b9 a6 5b 1d d1 8c bd 3f 97 b3 72 19 e4 cc aa bf
       0.11542994467495306 -0.052344444376422654
0000b0 d6 93 5e fd 34 15 aa bf 3d ee ca 3c 7c 42 d0 3f
       -0.05094304650200569 0.25405794083392036
0000c0 4d a3 1f 0e a9 30 9e 3f f4 ee 85 f6 b7 07 aa bf
       0.029482499587092637 -0.05084013828579073
0000d0 61 eb d5 29 b7 fc bc bf 13 c7 18 a7 34 07 99 3f
       -0.11323113223435889 0.02444154996755461
0000e0 5d 2f 37 92 97 22 ab 3f dc bc 1b 49 31 82 ce 3f
       0.05299829158647527 0.2383481604551666
0000f0 72 78 b2 38 ac 57 98 bf 63 3b 78 c0 e6 21 ca bf
       -0.02377194496204322 -0.20415958784038954
000100 a9 99 a5 ff f7 4f c8 bf 17 74 d2 fb 6d 9d aa 3f
       -0.18994045241124738 0.05198234271049545
000110 ce b2 28 42 73 30 98 bf 78 4b 1c e6 7b 41 d1 bf
       -0.02362232295324667 -0.26962182494860754
000120 92 02 5d 46 f3 ca cc 3f 6d dd 9d 6c 9a 94 ba bf
       0.22494355140408523 -0.10383000518583226
000130 67 05 fb 46 e9 e5 d5 3f 79 64 64 66 21 9f d7 3f
       0.34215766841597034 0.36908755301698865
000140 64 7e 0c c6 d1 6f c8 3f 08 bf 98 b8 55 96 b3 3f
       0.19091245813705193 0.07651267773394121
000150 f4 ce eb 7a c9 21 a0 bf d7 64 41 81 d1 a4 89 3f
       -0.03150777459623369 0.012521397358954562
000160 a7 10 3c 72 ed 78 b7 bf 75 a5 e7 94 28 08 d2 bf
       -0.09168895758563399 -0.2817479566716295
000170 e8 d1 d2 fe 77 e7 b3 3f 3c ca 8d c3 55 41 a8 bf
       0.07775068255688888 -0.04737346660740058
000180 98 eb 91 4a df 0a b3 bf 02 02 89 1b 25 a2 c0 3f
       -0.07438464708859127 0.12994827122203395
000190 64 0c e6 af b9 17 d0 3f 23 26 59 6d 06 f3 dc 3f
       0.25144807984924555 0.4523330753187073
0001a0 61 ec 44 b4 46 80 9a 3f c0 12 0e e3 fa b8 b8 3f
       0.02587995982433389 0.0965725712140495
0001b0 3b 2a 50 26 c5 ad b3 3f 5d 73 c6 5f b1 4a b4 bf
       0.07687027154330732 -0.0792647227121512
0001c0 d2 c5 0a 94 bf 39 d1 3f 17 06 36 6c 15 fb ae 3f
       0.2691496797297904 0.060509366473535824
0001d0 22 49 e4 6e ea 54 b7 bf e0 14 eb db 4d c7 bf 3f
       -0.09113946158712286 0.12413488978480158
0001e0 53 27 e6 a3 7d 8c c8 3f ca 15 b4 49 76 6f 8c bf
       0.19178743842013066 -0.013884472011805555
0001f0 0e f2 75 c0 e8 bf ce bf 65 4e 05 1b fa 59 be 3f
       -0.2402316035985596 0.11856043967900971
000200 5b d9 9e db 5e 9a c2 3f a6 85 3b 6a 8a 76 ba bf
       0.14533601497323442 -0.10337128728453723
000210 5c f7 1a dd 5d 0e a7 3f 4c 83 db 76 95 44 ca 3f
       0.04503148387946851 0.20521801284396657
000220 4c 80 22 8b 9e 5e b6 3f b4 55 86 b5 93 60 b0 bf
       0.0873812761005876 -0.06397364789730525
000230 f3 e8 a4 0a 9f d8 bd 3f f9 56 92 0d 4b 5d cd bf
       0.11658662805431046 -0.22940958178212847
000240 0d 9a 43 5a b1 46 8e bf 72 4b 5c 52 f2 37 d1 bf
       -0.014783273284092702 -0.2690397075941099
000250 1c ae 66 9c f6 46 ba 3f da 8c 8d 30 8a a4 a6 3f
       0.10264531439195718 0.04422408907591953
000260 d0 1b 45 52 75 1b bb 3f c6 74 e5 1a 75 88 ce 3f
       0.10588773020309294 0.2385393506364492
000270 95 21 f0 95 e6 48 c5 bf 31 df 5d a3 6e 24 bb 3f
       -0.16628725358192456 0.10602466095394615
000280 33 cf 77 2c 60 6c b4 bf 71 97 5c 0e 42 51 ba 3f
       -0.07977868161816275 0.10280239916445823
000290 79 22 4c 4b 7c 6d c3 bf 6e d2 7c 77 9e 56 a9 bf
       -0.15177873303061398 -0.04948897560681052
0002a0 bd 4a 8b eb 66 eb a9 3f 39 46 e9 ae ab 9e aa bf
       0.05062409997267057 -0.05199181089541267
0002b0 d3 5b 6c fa 03 4a cf 3f 9b 71 12 9c 5d 52 9a bf
       0.24444627502154379 -0.02570482506836101
0002c0 4c 01 70 99 1f 22 c8 bf e0 44 e8 59 a0 9d aa bf
       -0.18854136459413906 -0.051983843779575656
0002d0 c1 a5 5d 42 4d d8 ba bf 7c a6 76 78 30 ec a9 bf
       -0.10486300344714207 -0.05063010664464415
0002e0 16 c7 94 a0 9d 52 cc bf 21 41 1e a0 f9 0f d4 bf
       -0.22127123204114046 -0.31347504269162313
0002f0 ad a5 ad 81 d0 01 c3 bf c6 c8 dd a3 c1 4d c3 3f
       -0.14849287349652 0.15081043721472137
000300 44 2a 5e fc c5 8e ae 3f 46 a9 ab 44 6c 77 c8 3f
       0.059683024460430306 0.19114449837736397
000310 50 36 dc e5 f8 5a ce bf b3 fa 63 d2 51 b2 d1 bf
       -0.23715125297205697 -0.27650876565887045
000320 8a a0 33 85 61 13 c8 3f 73 48 43 23 16 54 c7 bf
       0.1880914593123218 -0.18225361558740225
000330 93 d4 fc 91 6d 51 c9 3f 78 21 e1 15 bd a2 c8 3f
       0.19779748562146846 0.19246638840037256
000340 bd 12 ee 94 2b fc ab 3f 2a b5 eb 2f 53 51 b4 3f
       0.05465828125946846 0.07936592025699399
000350 0b 01 ca 5f 92 fc c9 bf ea ef be df 0c 88 c0 bf
       -0.20302037884903998 -0.12915192532625436
000360 7c 71 3e 6e 58 db d1 bf 9e 55 71 e0 22 1e b4 bf
       -0.27901278272636154 -0.07858484248693862
000370 de f2 c6 f6 70 58 d8 3f 11 41 c6 d4 c1 79 92 bf
       0.3803980264599839 -0.01804259167835293
000380 82 75 1f ae 00 e2 cf bf f8 1a 88 26 f5 14 d8 bf
       -0.2490845537385376 -0.3762791515622861
000390 a6 64 35 d2 30 2f a8 bf 09 37 bb 6b e0 86 a2 3f
       -0.04723503652594134 0.036185277128977296
0003a0 88 e3 b1 75 c0 be dc bf d5 0e d8 ab 68 06 a4 bf
       -0.4491425656665844 -0.03911139581398763
0003b0 15 38 8a d6 29 6e d3 bf bf 68 c5 7a 44 87 c0 3f
       -0.3035988421551122 0.12912803644832668
0003c0 68 62 9c 54 db c2 c5 3f 1c c0 9b a2 33 68 a9 3f
       0.17000905639067132 0.049623120879801
0003d0 f9 e4 ef b7 aa b8 c2 bf c7 b2 95 67 94 7d bb 3f
       -0.14626058560660463 0.10738494423794541
0003e0 00 35 a4 1b fd 49 ca 3f 0a a2 d0 19 49 4b cf 3f
       0.20538295602492695 0.24448503265854554
0003f0 23 7e 87 36 68 32 c1 3f 21 18 ab be 04 c1 de bf
       0.13435080206453262 -0.48053091640429285
000400 ce 8d d3 7a 1e 8c bc 3f 49 15 93 f2 43 80 c7 3f
       0.11151304720583896 0.1836018499799741
000410 e4 69 30 81 21 c2 c1 bf e0 5c 8d b7 12 6e cc bf
       -0.13873690422117513 -0.2221091648341149
000420 05 ae f0 50 66 bc d1 3f ba c3 43 3f b0 97 cb bf
       0.2771240034514622 -0.21556666459176005
000430 71 41 31 75 47 8e db 3f d8 34 b4 34 e7 eb b2 bf
       0.4305590290505484 -0.07391209637372087
000440 08 b2 4f 86 92 fa 82 3f c5 ff 19 1e e2 d5 92 3f
       0.009266991351943879 0.018394024932149273
000450 93 33 54 15 ec 53 c1 3f 03 ff 5d 2d c3 03 c2 3f
       0.13537360230875758 0.1407398196715733
000460 88 8c a4 30 49 c1 97 bf 3e c6 b0 70 42 e6 ce bf
       -0.0231982646884146 -0.24140196325747526
000470 75 67 f4 da 75 30 b8 3f 48 bc ce e6 dc 60 d0 bf
       0.0944894465978033 -0.2559120420436938
000480 ca a6 e3 6c e4 b7 bb bf 52 cf 1d 47 50 8f a3 bf
       -0.10827472361020365 -0.03820277088280356
000490 cb bc 23 f9 e1 71 bb bf 6a 82 ca 84 c7 34 d7 3f
       -0.10720646221647027 0.3625963970935461
0004a0 a0 72 44 16 38 bb c2 bf c7 47 e4 bd f7 78 c3 3f
       -0.1463384731986439 0.15212914249474194
0004b0 94 2a 6d 4e c0 8b 7a 3f 9b dc 01 c3 bb 67 d0 bf
       0.006480933376972548 -0.256331386982717
0004c0 80 18 0c 1b 63 8c c9 3f 07 fc d2 28 eb a6 c5 3f
       0.19959677525202224 0.16915645116202446
0004d0 39 c9 73 8c b1 5a c0 3f b0 68 ca ba 9d d4 c2 3f
       0.12776774747869427 0.14711352940213862
0004e0 6e 65 2e 03 cb 88 9f 3f 57 45 cc d5 35 69 b3 3f
       0.03079526144901961 0.07582413167644596
0004f0 ea 1d b0 f3 c5 3f 9b bf 35 e4 88 2a 9c d0 bc 3f
       -0.0266104631409955 0.11255813635297403
000500 b9 99 f9 47 0b 1d ca 3f bd 28 45 3e a1 41 c2 bf
       0.20401135458378208 -0.14262786427054222
000510 9b 47 d6 41 29 1c a0 bf 03 d4 64 4d e4 51 c9 bf
       -0.031464852606531944 -0.19781163958546708
000520 0d 0e 1c cf 77 48 7c 3f 8f 09 77 70 bc d5 c9 3f
       0.006905048374167955 0.20183520785765238
000530 ba a5 dc 49 30 5e c2 bf 18 fe 88 bd cb 22 8a bf
       -0.14349940878427764 -0.012761680337575007
000540 9c 6c 62 0c 8c fd a6 bf 76 00 61 06 e8 a1 88 3f
       -0.04490316058328256 0.01202756185023211
000550 53 6c 49 37 f7 e6 c0 3f 88 16 af 4e d9 41 a4 3f
       0.13204851340819576 0.03956488690850529
000560 21 e8 03 e4 41 b5 ce 3f 7a 3b ea bc bf d1 bf 3f
       0.23990653642232565 0.12429426538640867
000570 3f f7 c4 a2 3e f8 ad 3f ed e0 dc c7 9c 6a b8 bf
       0.05853458153658985 -0.09537677649939598
000580 5a 74 82 32 df dd a1 3f d5 97 c7 13 3c 41 bb bf
       0.034895872989388635 -0.10646415217306011
000590 ae 2d c2 6f 47 da c4 3f 50 f0 4a d3 36 7b c6 bf
       0.16291134793241951 -0.1756351978018551
0005a0 2d 0a 30 75 19 94 a3 bf db 24 a3 b6 d2 b1 c8 bf
       -0.038239284091123295 -0.1929267303260421
0005b0 24 7c 54 a4 be f4 b8 3f 95 b1 3c 58 4e 48 c3 bf
       0.09748450767482147 -0.1506441050381794
0005c0 b7 1e 9f 3d 70 eb b2 bf 70 35 6b 23 08 57 a1 bf
       -0.07390500549729039 -0.033867124866087006
0005d0 05 5a dd 7d 1e 55 4b bf 72 4d 75 0b f5 6b a8 3f
       -0.0008341215977719091 0.047698648117740286
0005e0 7c 27 a3 d3 c8 99 87 3f 5b 37 57 05 7d e2 d2 bf
       0.011523789366396413 -0.2950737526087914
0005f0 b2 d6 95 db f7 42 ad 3f 77 9b d5 c3 18 26 c5 3f
       0.05715155177578647 0.16522512018419963
000600 2b 72 39 a9 9b 4b 7b 3f 65 29 37 ae 72 96 a3 3f
       0.006663902331265829 0.03825720192579033
000610 a0 2b 68 0e de 21 c8 3f 16 4e 02 16 7e 2a b5 3f
       0.18853355124914817 0.08267963445023727
000620 a1 d9 89 8f f4 7c ab bf 9f 90 cd 98 c9 73 a9 bf
       -0.05368770839861559 -0.0497115134265027
000630 09 74 23 39 4b e5 c5 3f c0 bf 22 5a 26 f5 9e bf
       0.1710599926945238 -0.030232047320793987
000640 98 d0 d7 3d c6 c1 a2 bf 8d c0 6b c2 4c 71 c4 bf
       -0.03663463120383986 -0.15970763676842062
000650 32 0e b7 29 a3 6f c3 3f cf 2b 3a 5d 6b b3 a1 bf
       0.15184440171116048 -0.03457198632266733
000660 74 25 48 7b bb 93 a0 bf 6b 3d 80 e1 6c b4 a3 3f
       -0.03237710838227317 0.03848591091820704
000670 e5 fc 2b 81 1b 3d ca bf 05 a7 bc 4e 75 81 89 3f
       -0.2049898510667624 0.012453953233108725
000680 44 93 e6 63 e7 d2 b8 bf df b7 db ce 47 e7 bf bf
       -0.09696813763600881 -0.12462281036616173
000690 70 ea 31 3f bf 7a b5 bf 53 15 6b eb cd 5c b5 3f
       -0.08390422146650578 0.0834473323585219
0006a0 5d 8a 47 15 e1 ad ac 3f 55 ff df ea 8c 3f c6 bf
       0.056014093253698084 -0.17381440609460222
0006b0 c4 1d e3 34 a0 0b d0 3f c3 53 7c e2 fb 3c b5 3f
       0.2507095829464243 0.08296179084238901
0006c0 1b 1e 59 45 9e 61 cf 3f c1 a1 df 2a 64 92 c6 3f
       0.24516657243860682 0.1763425072997631
0006d0 b0 56 eb 0b 76 3d 8a 3f 2d ee 0e 7e 2f 73 b9 3f
       0.012812540282009038 0.09941384151073214
0006e0 ce 06 34 68 6b cb ad bf d2 4b 4f 19 25 4d d3 bf
       -0.05819259306919165 -0.3015835520902189
0006f0 66 d2 82 29 b1 58 ca bf 8e b6 da c7 32 61 8f 3f
       -0.20583166624932686 0.01532210991293972
000700 ec 39 ed c1 cc 31 b4 3f 6f 96 97 f2 2d ce c4 3f
       0.07888488516366693 0.1625420984775476
000710 3f 43 0e 10 e2 d9 84 bf d7 57 55 49 e8 b6 c5 bf
       -0.010181203951817984 -0.169644389922438
000720 27 5b 3b 41 2a 2e a6 3f 01 63 d6 d5 55 9a 93 bf
       0.043320961439965715 -0.0191434299245854
000730 81 f3 df a9 9d b9 b5 bf 80 ed 26 41 2b 08 b2 3f
       -0.08486352345785343 0.07043714848162175
000740 7d f6 04 3a f1 2a 7b bf 8e 59 aa a2 6b f7 cb 3f
       -0.00663274983554418 0.21848817293785
000750 10 af c4 64 8c f8 cd bf 60 d1 cd 8b 88 bc d2 bf
       -0.23414759559943166 -0.29275716450435674
000760 f9 cc 04 ad 24 09 86 bf ac 5e 9b 0c a8 0d b2 3f
       -0.010759626894105244 0.07052088077341051
000770 d1 23 35 b2 d3 3a c2 3f aa 50 97 32 22 72 7f 3f
       0.14242025567571528 0.007677205643137489
000780 2b 70 05 9e ad 01 a1 bf 4a d2 2c 9b 39 f2 b2 bf
       -0.03321592859239816 -0.07400856054739183
000790 f8 fc 83 7d 7b 5d ca bf a0 1e d3 52 05 87 b7 3f
       -0.20597785595598572 0.09190400383078634
0007a0 ff 5c df 55 4b 58 bd bf e3 d9 38 96 df 97 b0 3f
       -0.11462851377961057 0.06481740396052475
0007b0 62 91 79 cd 77 96 a7 bf 84 6d bd 36 6b 7c a2 bf
       -0.04606985457647529 -0.03610549014293965
0007c0 2b 6f e6 47 16 18 b3 3f 96 69 45 2a bd 52 73 3f
       0.07458628898023949 0.004717577863937802
0007d0 c7 93 50 aa 0d 0e c0 bf c0 73 1c 96 b2 fb ad bf
       -0.12542887512350218 -0.05856092531596557
0007e0 31 c7 15 e3 ef 1e c0 3f 38 d6 8a 29 64 0d 8f bf
       0.12594412410867897 -0.01516226054932722
0007f0 b2 a6 8e 0a 94 d5 cb 3f 95 96 ae 79 dc f9 ca bf
       0.21745539203157233 -0.21075015965941604
