models/puray_supervised.pt (torch, 326573 bytes, 41 tensors)

module.feat_mlp.0.weight f8 [32, 3]
000000 06 7a 0c 05 72 2f d5 3f 13 e6 3e 7d 21 e0 e5 3f
       0.33102083676377025 0.6836097189145128
000010 85 7b e5 f7 90 73 d9 3f 67 0a 0a e6 47 fc e1 bf
       0.397678606115669 -0.562046002669672
000020 19 8b 5a b0 6e 8c ab 3f ce db b5 a0 fb 9b d4 3f
       0.05380578902010864 0.3220204419553142
000030 87 07 b3 1a 0f 0d b0 3f 8a 6b 01 8d a4 86 b5 3f
       0.06269926454390716 0.08408573572653047
000040 e6 c6 fd d4 43 60 db 3f ca 29 36 94 0d 19 96 bf
       0.4277505474084208 -0.021579944773785255
000050 3f 6a 56 41 67 d3 dc 3f 34 be bd 70 59 a7 cf bf
       0.45040303593274084 -0.24729459767284967
000060 11 80 8c d3 4a 94 e4 bf ba 6d 6d 99 bc a4 e2 3f
       -0.6431020862401075 0.582609462416648
000070 c8 64 b3 cb c1 94 b9 bf 19 77 be 1a e0 08 b4 bf
       -0.09992610190546991 -0.07826042797975354
000080 98 36 fa c9 66 82 80 3f 3b 3a 67 00 ad 2a c4 bf
       0.008061221159802387 -0.15755236167611195
000090 b8 78 d6 4d 97 d5 df bf df 17 f9 64 69 85 dc bf
       -0.49741156197877556 -0.4456428037705091
0000a0 28 0e c5 24 0b 76 c3 3f 86 44 ed 4c 6d d9 d2 3f
       0.1520399026431829 0.2945206881750625
0000b0 09 42 38 49 d3 51 ea 3f 46 aa 60 2d 80 e2 d0 3f
       0.8224884443353072 0.26382450515180655
0000c0 de af 63 a5 90 27 e1 bf 53 ca a3 56 23 d0 e7 3f
       -0.5360797148000491 0.7441574756797514
0000d0 61 29 b3 88 1d 9c d7 bf f9 91 94 23 db 05 a5 bf
       -0.36890352582545033 -0.04106030282335733
0000e0 0a df c2 15 64 87 d8 3f 85 d8 e3 90 ef 76 cb 3f
       0.3832636082183717 0.21456713270862707
0000f0 98 b4 6c 6e 6b 5c c3 bf 7f c9 c7 ad ad ce d2 3f
       -0.1512579240019576 0.2938646504473112
000100 16 f5 76 a6 c4 be de 3f eb ac af 4a ee fc da 3f
       0.4803935647613157 0.4216876725538003
000110 2f f3 44 f7 32 8d c9 bf 92 73 b4 9a 6a 7d e7 3f
       -0.1996215541238597 0.7340596219615796
000120 cb e9 35 a7 63 01 d7 3f 23 8d 32 8b 4b e2 eb 3f
       0.3594597943225863 0.8713739126873502
000130 db be 9d 1b c7 75 bf 3f b6 e3 0f dd 63 17 df bf
       0.1228908960745189 -0.4858026179131757
000140 7d b3 1f c3 93 c2 b6 bf 7f f1 6e f3 b2 b8 d5 bf
       -0.0889065123917145 -0.33939813397207524
000150 8b 5c 24 54 b6 d4 d2 bf 99 5b 3b 8a c6 cf df bf
       -0.2942329236697751 -0.49705661296086984
000160 4f e3 e5 8c 3c 1f e5 3f 8c 9a 79 5d d4 43 e5 bf
       0.6600630523599679 -0.6645299745258213
000170 41 0b 74 3a cb ab e7 3f 0d 26 75 78 de 0a ec 3f
       0.7397209302583648 0.8763267853439075
000180 bd c4 36 9e e6 48 f2 3f 44 f5 b7 6f ee 1b d0 bf
       1.1427980594856273 -0.2517047968866175
000190 ce 39 1f a8 72 4d b0 3f 0e ab 45 92 ab 8b c7 bf
       0.06368176083126473 -0.18394989626116182
0001a0 af be a3 bd ad 26 cd bf fb bf ec a8 36 e9 dc 3f
       -0.22774287948367575 0.4517342233330052
0001b0 e0 74 14 da 0b a7 dc 3f 44 a3 41 cb 0b d2 e8 bf
       0.44769569680086185 -0.7756403894282831
0001c0 4e 64 6c 28 35 8d c9 3f 41 e1 97 fe 3b cc e5 3f
       0.19962181543158625 0.6811809513592736
0001d0 3b 39 13 75 73 fa e1 3f e5 42 01 bf 02 15 db bf
       0.5618226324675456 -0.42315739300560856
0001e0 03 e7 95 95 ad 62 e4 bf ca c8 b2 c2 c1 f2 c6 bf
       -0.6370456620781798 -0.17928335196262984
0001f0 c4 d7 69 52 eb b4 e4 bf 3a 88 50 38 ab 03 df 3f
       -0.647084866489188 0.48459892749281475
000200 fb 6d 08 d4 4a 34 cf 3f c2 44 df 53 25 05 e7 3f
       0.24378333428545304 0.7193781507613937
000210 d1 2b 89 04 87 4e d5 bf 55 06 16 45 e0 e7 e1 3f
       -0.3329179329199948 0.5595551823937038
000220 4d 77 2a 28 3c 9a e3 3f 67 0b fc 13 fd 2b e0 bf
       0.6125775131692791 -0.5053697004626486
000230 7d 44 c6 80 78 39 d2 bf 87 f4 cd 1a 54 7f d8 3f
       -0.2847577340663248 0.38277151696804207
000240 28 b4 2e 26 ca bb e1 3f e3 a6 ad ea ee ee a8 bf
       0.5541735406637871 -0.04869791617131882
000250 9b f4 b5 b5 23 98 dd bf 91 a1 d0 8b 05 dd c4 3f
       -0.4624108576316048 0.16299504591848948
000260 7e c9 5a a3 2c 37 cd bf 91 0b cb f2 8b 1b ef 3f
       -0.2282462880735458 0.9721126310399645
000270 be 1e 0c 81 82 af cf bf 23 d0 49 81 65 5b db 3f
       -0.24754363347186897 0.42745339990438164
000280 99 e2 28 b1 8e bb e0 3f e5 94 37 bc ab a4 c0 bf
       0.5228951892996349 -0.13002535524643757
000290 8a c0 79 e7 53 3d af 3f c3 95 48 4e 60 fe e5 bf
       0.06101476860647022 -0.6873017815566346
0002a0 3d dc 4d 5d 8b dd b4 bf 63 41 ec 24 d1 c4 e0 bf
       -0.08150549915249967 -0.5240255089902742
0002b0 b2 b9 c2 7c 92 5a 83 bf 17 50 70 72 5e 79 d4 bf
       -0.009450096542732964 -0.3199077718320508
0002c0 cc c4 6b 29 6e 10 ea bf 76 5c 72 53 9b 28 c9 bf
       -0.8145056542399742 -0.19655171942278898
0002d0 59 9e 69 cf 1c f6 d6 bf a1 37 95 e8 f2 99 d7 bf
       -0.3587715173257258 -0.36877129281207927
0002e0 d7 37 ae 87 8a fb e6 bf ef 6f 15 66 bb dd e4 bf
       -0.7182057046900309 -0.6520668977568657
0002f0 2f ee 0a 83 a5 b0 e2 bf 97 fd 22 c3 63 80 db 3f
       -0.5840632972171472 0.4297112851745281

module.feat_mlp.0.bias f8 [32]
000000 bd 54 9e ed 56 79 a9 bf 0d e0 80 a6 71 0b d6 3f
       -0.04975387240043847 0.3444484830865811
000010 1c 59 a2 ce 0f 89 dc bf 93 7a 7b ee 55 90 df 3f
       -0.4458655851280058 0.49318455018320967
000020 a5 8e eb 22 ea 03 c1 bf 8e e4 06 16 e7 83 e0 bf
       -0.1329319639690897 -0.5161014013493899
000030 cc 01 4b 60 f1 76 44 bf a8 a8 5b 77 46 6d c5 3f
       -0.000624530658193173 0.16739731624631315
000040 a3 26 11 ea 93 d3 73 bf 1e be f1 47 2a 57 e0 bf
       -0.004840448179558673 -0.5106402783548594
000050 9d 5a 86 2e 35 f4 df 3f df aa ae 54 2c d3 d4 3f
       0.49928025763930767 0.3253889872527633
000060 0e 33 a9 c1 55 47 bf bf a9 ed ca bc a5 08 74 3f
       -0.12218223550844362 0.004891059314725701
000070 7b 8e 30 06 16 75 b9 3f 72 c4 ad b4 ee 14 d4 3f
       0.09944284106364336 0.3137776150170516
000080 37 22 a5 93 ec cb c2 3f 2e c3 1c fa f8 9a b8 bf
       0.14684827050429458 -0.09611469370134948
000090 8b 02 70 26 d3 3a c0 3f d1 1f 0d 39 be 51 b8 bf
       0.12679519059021901 -0.09499730007985298
0000a0 69 9b a5 4e fa 58 d2 bf 5f 74 3b c3 1b 84 a8 3f
       -0.2866807716404112 0.047882907468854034
0000b0 2e d2 5b de cc 5f d0 bf 8d 0f db 91 81 21 e1 3f
       -0.2558471843215412 0.5353401039833315
0000c0 08 27 64 37 ae 1f 63 bf 4f 58 da a6 e1 87 d0 3f
       -0.002334442392684436 0.25829354566792956
0000d0 71 0d 54 e3 c6 a9 9b bf 8b 78 cf 16 bf b2 e0 3f
       -0.02701483500005736 0.5218196340099593
0000e0 28 d0 45 b2 9b ff 88 bf 6a a1 a5 a4 9e 75 c4 bf
       -0.012206283929778364 -0.1598394683781053
0000f0 ff 9a a7 f2 ed f1 a7 bf d9 7f 53 7a 0a 07 cc bf
       -0.04676765048116315 -0.2189648721023321

module.feat_mlp.2.weight f8 [32, 32]
000000 d4 a9 d7 43 e9 25 e2 bf 0a aa b0 0e a5 91 b1 3f
       -0.567127830986744 0.06862861260075462
000010 0c 1f 46 e2 8a 90 bc 3f 22 e6 84 4e ac 63 b5 bf
       0.1115805437494794 -0.08355214039774997
000020 1a 4c b3 fe 4f 8b d2 3f 33 ba 51 ab 2f bb c4 3f
       0.28975295899471265 0.16196246972272518
000030 04 b9 74 eb fb f6 de bf 55 1b b9 4d 56 ce ba bf
       -0.4838247107862943 -0.10471095464263887
000040 d9 bb 72 7b f1 5e c7 3f b8 b3 3b 96 a3 c2 a6 3f
       0.1825849392675696 0.04445372780705931
000050 96 13 3e 6b ac a2 d1 bf 60 46 08 d9 a3 7a 99 3f
       -0.27555380318545397 0.02488189708862476
000060 5f b5 d9 57 8e 0c bd 3f 56 37 ae 08 bd a5 c2 3f
       0.11347283978257881 0.14568293498853774
000070 ff f3 10 fe e8 0c b5 bf cd c1 6f 76 1f b8 c3 3f
       -0.08222824290074014 0.15405648501429284
000080 ba 23 15 e0 f7 32 cf 3f e3 02 8d f4 f2 c6 ab bf
       0.24374292794735003 -0.05425223574866835
000090 86 69 f9 d3 74 c9 c7 3f a4 40 ca 4f 81 51 b2 3f
       0.18583546018892266 0.07155616949080695
0000a0 29 a5 da 70 63 06 95 bf f7 be 65 ce 37 17 d5 bf
       -0.020532182467524116 -0.3295421138382006
0000b0 eb 38 7d fc a4 a6 d7 3f 27 04 af ce b7 69 ce bf
       0.36954617173331766 -0.23760125724769063
0000c0 e5 d0 60 5e e3 05 c1 3f e0 37 62 6f 36 e4 b3 3f
       0.1329921923476213 0.0777009984905983
0000d0 f1 dd d7 15 3c 99 88 3f 2d ef d8 9d bd e8 cc 3f
       0.0120110220113778 0.22585268218414836
0000e0 9f 0c 67 54 f4 9b d0 bf 05 e9 79 e9 ab 94 ad 3f
       -0.2595187019580382 0.05777489876796164
0000f0 10 7a 2c a3 a8 d0 c3 3f dd 6e 1a b6 b3 48 90 bf
       0.1548052593943372 -0.015902336110783167
000100 0b 0b 51 57 98 ce d2 bf fd 1b 53 4f 12 39 cb 3f
       -0.29385956313142064 0.2126791846587536
000110 a0 1f 37 d8 51 74 c5 3f 7d ba 78 27 49 84 a6 3f
       0.1676122956980608 0.043978010242757805
000120 34 76 f3 60 cc c8 b0 bf eb 6a c5 13 86 92 b0 3f
       -0.06556393973320312 0.06473577482885744
000130 29 aa 8b b8 3d b1 b5 3f e9 c1 44 5e 18 d5 c3 3f
       0.08473573451525653 0.15494064906080432
000140 38 70 fb a0 73 f4 d2 3f b4 1e b8 4a e6 3b ae bf
       0.296170146187936 -0.05905074750995479
000150 c7 d0 b5 2e e0 2a bd bf 58 67 6d 2f ee 8c c9 bf
       -0.11393548145662456 -0.19961335483349774
000160 2c c1 60 d6 4b 9c cc bf 60 38 e1 fe 92 87 cf 3f
       -0.22351978271172734 0.24632489629078957
000170 84 15 2c 6c 1b 34 c7 bf 26 c3 aa e5 a6 58 b2 3f
       -0.1812776830849253 0.07166522128205752
000180 60 33 f1 c9 c6 fc be bf ed 92 94 2a 7d a2 d9 3f
       -0.12104456358174565 0.40054253729094463
000190 9b cf b0 0c c1 0c c9 bf e0 71 08 2b 40 a2 cf 3f
       -0.195701724239936 0.24713899708957765
0001a0 a7 07 3e f1 e6 ac a2 3f 27 e0 30 9d cf fd a3 3f
       0.03647538847782466 0.03904579919657208
0001b0 f8 1c 5a 62 db cd db bf e5 3a 00 01 77 f5 b2 bf
       -0.4344395122975153 -0.07405799650608065
0001c0 a2 ff 67 7c 81 23 b6 3f 44 ee 7f a5 10 80 8a bf
       0.08647927558194948 -0.012939577150965616
0001d0 c8 d6 06 58 23 44 a6 3f 6b 24 0f 21 1f 4a ca 3f
       0.0434886021570669 0.20538701166359216
0001e0 f7 de b9 c0 bb e5 99 bf 80 76 ea 6c 22 01 b4 bf
       -0.025290425909104432 -0.07814231070593713
0001f0 51 25 75 77 ec cc c8 bf 01 9c 6b 02 c9 c2 c4 bf
       -0.19375377495661408 -0.16219437235051262
000200 8c 18 ba 0a 39 91 9c 3f 91 89 41 c6 fa 6b ae 3f
       0.02789773109409359 0.05941756887547734
000210 0c 6e 7d 2b e3 5a b5 3f 97 5d 1d 40 3f 0f b8 bf
       0.0834180813957845 -0.09398265185642739
000220 1a 7b 25 ed 5d 04 d5 bf a2 ca b9 52 8b 03 c3 3f
       -0.3283915344126612 0.14854566134780095
000230 b8 77 c6 86 ee f9 d0 bf c1 4e 3a b0 0d 46 ae 3f
       -0.2652546230473223 0.05912821556299042
000240 73 e4 74 d2 7a 89 b5 bf 48 eb 63 78 55 f8 a4 bf
       -0.08412902486897327 -0.040957137056429505
000250 48 33 9f f6 ee 15 c1 3f f0 59 2f b8 c1 61 9b 3f
       0.13348185579379845 0.02674009977985209
000260 37 d1 16 17 a3 c5 cb bf 94 f9 1b e4 a1 90 cc bf
       -0.2169689047565357 -0.22316383016727726
000270 d7 a3 73 d2 09 1b a1 3f 0c 42 f0 72 5f fb a8 3f
       0.033409411373049806 0.048792822628573956
000280 26 b6 eb 41 4d 8a c2 bf f3 f4 61 9b 78 46 c9 bf
       -0.14484563559328584 -0.19746310793917807
000290 69 f1 10 77 54 b4 c4 bf 72 2a f6 62 8a 3f 87 bf
       -0.1617532330873346 -0.01135166277415076
0002a0 a3 ba 5b 0c dc 89 b3 3f c3 0e ea 40 f2 70 c2 bf
       0.0763223200008079 -0.14407184762614209
0002b0 7d 3b 24 4b a2 06 c0 bf 04 fe b0 f4 38 b7 c2 3f
       -0.12520245236416008 0.14621650646039097
0002c0 4b 90 3a 62 cd de b0 bf 5c 6d 8e be 43 a4 b8 3f
       -0.06589969299472036 0.09625647928480902
0002d0 ef ad 28 3f 3b ca cf bf 5d 99 40 17 3f c8 c2 3f
       -0.24835911353999005 0.14673603663795634
0002e0 76 d7 bf 79 64 d8 65 bf be 81 1b c6 ff 14 b0 bf
       -0.002666660539030137 -0.06282042109115246
0002f0 ad c0 d2 6c ec 94 ae 3f 05 4b d5 6f 9b 3b c5 bf
       0.05972994640740246 -0.16588156662563605
000300 a7 7a 5e c9 78 d2 68 bf d4 23 5a 59 c5 95 c6 bf
       -0.0030300482857933022 -0.1764456449784847
000310 e1 e8 44 54 1f f4 b8 3f b8 01 b5 ac db ff b4 bf
       0.0974750118956851 -0.08202908483963867
000320 b8 69 97 da 51 20 ae bf 46 22 08 5d ec d1 c1 bf
       -0.058840330060508206 -0.13921885054175415
000330 9a 6e 70 de 27 69 b0 3f af e9 74 66 f8 6b bc bf
       0.06410454922336797 -0.11102249623664905
000340 94 7c c3 9f c7 75 b9 3f 89 03 fa cc 79 d4 b1 3f
       0.0994534268424892 0.06964837316810536
000350 81 e4 c5 2a 47 fd bb bf 6a 59 78 15 42 7b bc 3f
       -0.10933346552146085 0.11125576996014322
000360 7d 51 a6 5d 96 43 da bf 23 56 22 40 6b 70 d4 3f
       -0.4103752054736772 0.319361508017524
000370 51 3c e8 b2 94 a3 b2 bf 32 67 26 7d 74 8b b3 bf
       -0.07280854575968589 -0.07634666495723932
000380 10 92 2c 38 26 e7 d0 3f 53 5d 3e e7 6d 49 d4 3f
       0.2641082333159668 0.3169817693937677
000390 da 26 2c 51 ac db cc 3f c5 da 31 8c 60 05 b4 bf
       0.2254538914060536 -0.07820704863284351
0003a0 6b 7c 3f b5 b6 41 d5 3f bf 1f c7 b8 36 e7 ca 3f
       0.33213584613799324 0.21018108389239207
0003b0 4d 03 51 d5 d9 60 b0 bf 96 86 e6 87 a8 c7 9f bf
       -0.06397782762452416 -0.031035073561389646
0003c0 d6 90 8f 85 ab ee b8 3f 51 ff d5 fb 93 c3 c5 3f
       0.0973918152881795 0.17003106877018095
0003d0 a7 39 09 50 f9 23 c0 3f 27 0a 3a f4 52 65 cb bf
       0.12609783561715668 -0.2140296642792958
0003e0 8e 7f 4d 45 93 e7 9d 3f 6f ab d8 29 f9 2f d2 3f
       0.029203702073004538 0.2841780575424115
0003f0 38 2f 77 ed c2 c1 a7 3f d6 94 c7 a0 64 c4 c9 3f
       0.04640015743970455 0.20130594111029748
000400 4c f4 5e b3 d1 de a0 bf 2e 06 a7 02 ff b5 cd bf
       -0.032949975152839345 -0.23211658124459816
000410 5c 9f 21 1b 40 f1 b2 bf 57 0e de 2e ab ba a3 bf
       -0.07399368917833499 -0.038533544036024985
000420 b1 d9 a8 cf d2 91 db 3f 41 80 12 5d 55 d6 c3 3f
       0.4307753589559083 0.15497843784851464
000430 3c 00 16 f4 a9 6c cf bf bf 8f 57 b6 97 65 c0 3f
       -0.24550365846880762 0.1281003609029749
000440 ed 19 9e 50 c2 aa d9 3f 64 2a 1a d9 9d 59 a3 bf
       0.40104730484782075 -0.03779309535191969
000450 e1 f6 d4 3e 26 aa c0 bf e5 0a 87 62 5d 40 bd 3f
       -0.13019254749263268 0.11426337867218768
000460 36 f4 1e 64 5d 05 c9 3f 1e bc 8b 08 35 91 c5 3f
       0.19547622097698686 0.16849387089993767
000470 66 15 45 72 7c d6 a1 3f 1c 16 2e 22 00 1c bc bf
       0.03483952422042584 -0.10980225405190719
000480 97 23 22 76 0d bc c7 3f 54 25 5a 59 91 7e ca 3f
       0.18542640941839458 0.2069875417985637
000490 0a de 83 ea 7f 83 c0 3f bc 56 42 01 8c 59 d1 3f
       0.12901305151875447 0.27109050867998596
0004a0 3d 65 f3 b9 98 2d a1 3f 06 25 79 05 8d 1d bf bf
       0.03355099935442716 -0.12154466041205944
0004b0 3b ad da 37 37 8b 86 bf 8c f6 5b 4e f7 d2 c5 bf
       -0.011007720367465104 -0.1705006725896293
0004c0 5c a5 d1 70 e2 17 d0 3f c4 55 a6 5c 52 61 b3 3f
       0.2514577962634428 0.07570376169163412
0004d0 a4 91 3e f0 9e 37 c7 3f ea e3 cf ab 5a c7 c0 3f
       0.18138491373714516 0.13108380688916493
0004e0 39 87 26 74 9f 6b b1 bf ba e2 e0 59 b8 a3 ca 3f
       -0.06804844461160266 0.20812134159657153
0004f0 13 d7 68 72 ea 64 aa 3f 49 82 80 b5 fb 83 b8 3f
       0.05155117651558618 0.09576390439225081
000500 ab 9a fc 4c 15 3f c8 3f ce e0 d6 fe 79 08 c6 3f
       0.1894251466666977 0.1721336836178637
000510 c8 e2 f0 59 48 6d 9a 3f 83 cb 85 55 f9 11 bb bf
       0.025807505120812008 -0.1057430108829021
000520 ad c3 6f 52 63 5c c0 3f ed c3 79 80 e2 33 b7 bf
       0.12781945729468927 -0.09063544880497405
000530 28 f6 16 44 bb c3 bf 3f 51 73 54 2e 54 0e c4 bf
       0.12408037578912767 -0.15668728124810596
000540 bd 5b 05 c9 f3 fc af 3f 5a b8 2f 50 5e 37 89 3f
       0.062476747788131594 0.012312638113112385
000550 6b a6 b2 6c 37 c4 b3 bf a7 20 8a 50 62 2f 75 bf
       -0.07721277621990345 -0.005172142068325203
000560 da 4e 38 cc 58 f4 c1 3f 81 70 dd 4f f0 bf d4 3f
       0.14026937457730676 0.32421500968280986
000570 30 bb 87 06 e1 aa d5 3f 32 38 67 ac be 6a bd 3f
       0.33855462682452053 0.11491004666388063
000580 be 48 08 b2 91 76 c0 3f 70 ed 23 65 de de b8 3f
       0.12861844246851278 0.09715070695158601
000590 f4 31 7f 18 2b 56 cc 3f 40 90 4b 75 b7 13 c8 3f
       0.22137964912543817 0.18810170390418257
0005a0 47 d8 13 d5 a0 0d c0 3f f9 2e ff 65 54 cd bd 3f
       0.12541590122390486 0.11641433229595667
0005b0 52 30 ab 78 e5 54 c7 3f 75 50 ab d7 c3 36 a5 bf
       0.18227833168055213 -0.04143344886475201
0005c0 f7 06 88 27 e2 10 d1 3f 31 2b a6 89 fe f2 c8 3f
       0.26665548191532146 0.1949155971636514
0005d0 d2 23 7c be db 8a d0 3f fe 0d b1 56 c4 a0 7f bf
       0.25847524263423083 -0.0077216786840526
0005e0 31 12 2c 4f e0 85 d7 3f 81 c2 67 0a fd 27 b2 3f
       0.3675461552777817 0.07092267517124108
0005f0 9d f0 45 5c 18 2c d2 3f 54 33 e0 77 1d dd c8 3f
       0.28394135485701516 0.1942478976565335
000600 23 d4 8a 59 b2 2e c2 3f d3 40 d3 77 46 97 c5 bf
       0.14205006954367247 -0.1686790547451041
000610 c0 60 8f f0 30 15 b6 bf 80 83 d4 ef 6f 04 71 3f
       -0.08626085160301766 0.0041546223194764975
000620 e1 c5 86 75 5e 00 c3 bf 51 92 42 92 7a 84 bb bf
       -0.14844876040073898 -0.10749021597673304
000630 94 39 ef 39 60 f9 b1 3f f5 32 b1 ea 47 a5 ce 3f
       0.07021142401138142 0.23941897353724753
000640 a6 89 36 c1 7a 36 ac bf 63 54 91 70 d5 68 b2 bf
       -0.05510314568097678 -0.07191213606104578
000650 08 94 14 df 64 b8 c2 3f e4 e4 73 02 db 68 c3 3f
       0.14625225918385376 0.15163743610154434
000660 eb c0 28 24 42 62 b0 3f a9 44 e8 fd 7d a2 b0 3f
       0.06399930365364852 0.06497943352612147
000670 f7 ed 85 b0 49 ce 2a bf 37 5b 91 2c e8 60 a9 bf
       -0.00020451211481629903 -0.0495674662021685
000680 22 59 b5 31 8e e3 b8 3f 22 b1 85 47 6b e5 8a bf
       0.09722222055038235 -0.013132894630608908
000690 bb 97 d1 f1 d5 84 b5 3f f9 d7 e5 bc 99 60 cc 3f
       0.08405816224839573 0.22169801448370643
0006a0 be 85 4e 53 58 25 d1 3f 7a 01 0b c4 27 86 a7 3f
       0.26790435920164757 0.04594539898016854
0006b0 75 6f 53 b4 f6 5f b4 3f 12 5b cb 0c f0 c5 bd bf
       0.07958928968895214 -0.11630153953897729
0006c0 da 12 0b 8f 5e da a6 3f 0b 09 57 33 92 f9 b4 3f
       0.04463477607854367 0.0819331527082207
0006d0 70 8d ed 3e 7c 68 a6 bf 69 c1 5c f3 af b9 cd bf
       -0.04376590984500239 -0.2322292269032105
0006e0 3e fa 23 97 a7 6a c9 3f 94 40 bb de 83 4b c7 3f
       0.19856734161290207 0.1819920384937218
0006f0 d4 dc 12 41 81 a3 cd bf 12 29 10 1e 7b b9 da 3f
       -0.2315522735350216 0.41757085738994804
000700 47 ad ca c6 84 7f cd bf 2e 79 a9 23 77 a8 bf 3f
       -0.23045406061769766 0.12366432781843592
000710 2b 46 0f 1a 37 67 c1 3f 02 0b fd e2 08 57 cb 3f
       0.13596237919277718 0.21359358867092487
000720 57 a8 40 d0 38 ef c8 3f c1 66 34 4d 3a a2 c3 bf
       0.19480047386724905 -0.15338829774628063
000730 a7 00 1a 53 86 bb b9 3f 15 76 2b ca f1 49 d6 bf
       0.10051764992568 -0.3482632135690847
000740 ba 8a d8 4d 08 81 c5 3f 66 c8 fb 76 87 7f ca 3f
       0.16800025750224795 0.20701688108198651
000750 45 0f ea a2 7e 3e d1 bf a4 74 94 12 e7 3b ad bf
       -0.2694393721542279 -0.057097645776800904
000760 e9 e1 f6 5a 25 42 dc 3f ab 33 6b 4f 74 3d c1 3f
       0.44153722651711164 0.13468793752545358
000770 c2 41 09 94 21 d3 d1 3f b5 34 a9 db cc 2c 8f bf
       0.2785114236512777 -0.015222168401260875
000780 ef 85 19 0e fc 6a b5 bf f3 9a be b7 68 d2 da bf
       -0.0836637052939506 -0.41909234947017565
000790 dc fc 82 24 c1 19 d2 3f 87 ef 3e 75 32 1f d3 3f
       0.2828219276961599 0.2987791199664049
0007a0 00 4f ac 5b 42 f4 b6 bf 06 70 c2 8f 3e ec da bf
       -0.0896645997821075 -0.4206692127133923
0007b0 31 de f8 7d 9b 6d cd 3f 74 74 97 27 68 8f b2 bf
       0.22990745211585442 -0.07250071493713667
0007c0 95 90 6d 50 ad c1 b6 3f 5e 23 d7 fe 72 03 ac 3f
       0.08889277661870872 0.054713815315671196
0007d0 86 51 ce 79 ff 8f c8 3f 38 84 0d 0d 34 c7 ca 3f
       0.1918944687610173 0.2092042030081147
0007e0 4e 65 ac 06 2e 9c d6 3f b9 32 2d 92 f7 16 d1 bf
       0.3532824578447461 -0.26702679896406384
0007f0 f1 b6 45 af ac 30 b1 bf e3 37 15 a2 a4 c2 e2 bf
       -0.06714896468266908 -0.586260143821843

module.feat_mlp.2.bias f8 [32]
000000 02 0f fb 1b 2f 4b a6 bf 13 68 41 8e 8d 5a ab 3f
       -0.043542358556377905 0.053425239195988315
000010 ac f8 2e bc 7c 16 cc 3f b2 f9 94 0b a6 5d bc bf
       0.21943625630041674 -0.1108039644504746
000020 ca e0 3b 49 8c c3 b7 3f cf 73 50 d3 75 c0 b7 bf
       0.09282757556855184 -0.09278046044387554
000030 f4 69 ed 8c f5 1a be 3f 62 1b 8b fa 39 87 ae bf
       0.11759886446581175 -0.05962544616118383
000040 c3 f0 62 31 d6 12 bb 3f cc 5d 2d 39 94 d3 90 bf
       0.10575617509579431 -0.01643210982305536
000050 4e 38 2f 10 83 a6 c7 3f 1a da 55 e1 1e e8 af bf
       0.18476904192215432 -0.06231781483340999
000060 68 58 e0 5f e6 b9 91 3f 2f 7f 2a 3e 8b fa b1 bf
       0.01731071434195322 -0.07022924678539931
000070 c2 42 6e 7c 94 98 b0 3f f9 24 9e 08 8b 0f ae bf
       0.06482818639620816 -0.05871233444401897
000080 de 46 0c e7 b0 c3 b0 bf 38 fa 60 8f 2b 5b c0 bf
       -0.06548600807971236 -0.12778229237479066
000090 9d 88 05 88 65 ea 8b 3f e0 95 91 ae ff ff b0 3f
       0.013630669797468459 0.06640623104029642
0000a0 26 56 70 b1 35 38 d0 bf f9 3f e0 17 59 17 c5 bf
       -0.25343077018746596 -0.1647750250417628
0000b0 2e 56 73 4c 8e 63 bc bf 2a 13 db 3f 38 7b b6 3f
       -0.11089410177677259 0.0878176837823729
0000c0 4e 3c 95 3c c4 57 b4 3f 54 f1 81 2b 49 3f c5 bf
       0.07946421126438105 -0.16599382995981193
0000d0 c2 16 5b a5 51 4d c4 3f 2f 88 a4 1c 68 aa ba bf
       0.15860958646788076 -0.10416269969258062
0000e0 f8 74 b0 c0 13 ee bf bf a6 d3 90 d9 58 59 b3 bf
       -0.12472651914909594 -0.07558207809127157
0000f0 da 7d 22 12 df 3b a2 3f cb 23 a3 39 94 95 aa bf
       0.035613032306396966 -0.05192244723873037

module.feat_mlp.4.weight f8 [32, 32]
000000 e4 c8 16 32 b8 c9 c0 3f 3e 7b 76 16 59 8a a5 3f
       0.1311559910369119 0.042071136467021195
000010 65 ba e8 34 e4 7e 98 bf 8d 39 31 6b 55 3f cc 3f
       -0.02392155239993556 0.22068279012678396
000020 8c 45 71 63 46 b8 c7 bf f1 39 8c ff 5a ee c4 3f
       -0.18531112533177596 0.16352403142850805
000030 07 fc 0c 4c cd 50 cb bf 3e 6a 94 b3 72 88 ae 3f
       -0.21340337956823438 0.059634766026836136
000040 16 24 47 5b 38 81 c6 3f 6a 38 9e 2b 62 c0 a7 bf
       0.17581848580292164 -0.046389644455403126
000050 4c b4 01 cf 46 34 c0 3f 46 51 8c a9 fc 44 ae 3f
       0.1265953551077551 0.05912007875136509
000060 29 b7 8b 36 44 9f b2 3f 20 9f 5e f0 97 6c b3 bf
       0.07274271327670746 -0.07587575548552339
000070 26 e7 0c c0 70 f9 a6 3f 4d 1f c7 07 00 cc b0 bf
       0.04487182945599803 -0.06561279477966515
000080 85 1b d9 5b c2 fe ad bf 9e be da 2b fe 73 c1 bf
       -0.05858428355400406 -0.13635232106525036
000090 22 96 91 b2 15 6e c3 bf 84 8b d0 bf 14 2a 8c bf
       -0.15179702014135993 -0.0137521382367305
0000a0 c9 b0 cb 35 26 f7 ad bf 64 be 31 14 84 fe c0 3f
       -0.058526224200109285 0.13276720987367974
0000b0 ed 35 3a 04 f2 37 c1 3f 57 24 35 7d 2b 37 cf 3f
       0.134519817413476 0.24387115110065125
0000c0 44 78 94 da 06 05 ae bf 43 81 8f d7 26 f0 a9 3f
       -0.05863210123264698 0.05066033727030341
0000d0 bb 8f 2a b4 36 e5 90 3f ad c6 f1 56 c4 f9 b8 bf
       0.01649938082358891 -0.09756114123026789
0000e0 f1 bf b0 8e 14 a9 c2 3f af d6 f9 5c 12 fe c0 bf
       0.14578492133432477 -0.13275365390625413
0000f0 e3 42 c4 fe d5 6f c0 bf 51 77 0c 82 06 32 74 3f
       -0.12841296138551347 0.0049305204600196975
000100 f8 eb 66 ef fe 91 aa bf f5 7a c1 71 f7 04 ba 3f
       -0.051895109866983036 0.10163828398934156
000110 10 81 27 6e 2d 33 98 3f b0 3f eb aa dd 92 c3 3f
       0.023632726524625502 0.1529194912495746
000120 11 67 8f a4 20 0b b5 3f b5 93 88 a2 d0 05 cc 3f
       0.08220104234296978 0.2189274591084122
000130 db 37 9a 64 38 fd 99 3f 2a 3a 66 ac 3f b6 9f 3f
       0.025380021229061227 0.030968661210460414
000140 e5 25 71 50 64 c8 ad 3f 37 da 4f 12 fb 7f bc bf
       0.05816949350316828 -0.11132783124035305
000150 de 1b 89 72 96 cd c4 bf ae 67 23 85 b3 20 b4 3f
       -0.16252403824384393 0.07862398148009106
000160 30 6c 4c 9c d9 37 c1 bf ef 20 33 08 89 52 79 bf
       -0.13451690799488025 -0.006182227403037851
000170 d4 51 9f 6a 91 22 c0 3f ef 7f 6e 6b 41 f0 a8 bf
       0.12605493265313206 -0.0487080043451441
000180 d5 2a 44 a8 7f a6 99 3f 89 9c 5c a4 5c d4 a1 3f
       0.025049204487951855 0.034823317588512266
000190 2a a2 a1 58 c7 86 c7 3f cc da aa 3f 77 9a a6 bf
       0.18380061938957343 -0.04414723064603762
0001a0 7b e6 d6 8a 46 a4 b6 bf a5 1b da 49 f6 97 5d bf
       -0.0884441460574638 -0.0018062501107196452
0001b0 2b 4a b9 d7 c1 e1 a1 3f 33 82 00 96 cf b5 cf 3f
       0.03492551573130628 0.24773592781368023
0001c0 ac d9 00 11 9f bf b3 3f f6 6a 6e 18 57 22 a8 bf
       0.07714265980835106 -0.04713699506029016
0001d0 00 06 79 5a db 7d c3 3f c9 57 28 d4 91 21 b8 3f
       0.15227834622969283 0.09426223210934305
0001e0 77 24 2e 94 6d 3a 77 3f a0 fb 52 88 66 4f b6 bf
       0.005670955698300443 -0.08714905575014464
0001f0 d0 2b 26 f7 83 f1 b2 bf 4c f0 80 14 6e 20 c6 bf
       -0.07399773391641351 -0.1728646850696144
000200 cd c5 eb 5d 17 f7 67 3f f3 8f a5 b6 c1 ed c7 3f
       0.0029254394897797243 0.18694325846001866
000210 19 42 5c 67 37 0e 99 bf 88 11 54 ca 19 ae aa 3f
       -0.02446829384195057 0.05210953326062212
000220 3e cb 34 c9 11 2d c2 3f fe 4c db ca 20 b9 ce 3f
       0.14200041126749768 0.2400246611128764
000230 25 68 7c 7e e4 cb ae 3f 6e 0a 07 83 ff a5 c7 3f
       0.060149326744252364 0.18475335977389612
000240 da 64 8d a2 b5 4c 77 bf 67 07 89 14 31 c5 c1 3f
       -0.005688390266038479 0.13883031370829288
000250 06 84 ea 15 9a 43 d0 bf dd 51 16 63 43 db b2 bf
       -0.2541260923408689 -0.0736581913864209
000260 f4 9c 34 56 77 11 93 3f 31 7b 68 56 e8 88 a4 3f
       0.018621315609519365 0.04010702185427418
000270 d5 cd cb 98 0b eb c3 3f 3e e8 4d a0 86 46 c8 3f
       0.1556105133127931 0.18965227916106814
000280 37 c1 2c fa 72 18 d3 3f b1 1b 9e 83 f1 84 d4 3f
       0.29836725646147805 0.3206142220810149
000290 1e a1 85 6e d4 c0 94 3f 88 87 a2 b0 c5 dd b3 bf
       0.020266837354399596 -0.07760272562384618
0002a0 b1 81 fe c1 75 d3 a4 bf b1 ef 98 29 47 1c c9 bf
       -0.04067581170170643 -0.19617547541736038
0002b0 48 b8 3f e4 56 38 d1 3f 9c df 78 37 3a 59 d0 bf
       0.2690636853211612 -0.25544600884631463
0002c0 ab 3d d0 36 f6 78 bd 3f ce a3 20 36 da 9f c4 3f
       0.11512698019236349 0.16112830775207815
0002d0 e7 87 49 7b 05 6f b2 3f bb 23 f5 34 b4 00 ab 3f
       0.07200655231420648 0.05273974558310309
0002e0 ad 6c 3b 69 2a 7b b0 3f 42 15 4a 88 3e 45 bd bf
       0.06437935895103193 -0.11433783366563424
0002f0 90 f4 59 d4 67 8a ba bf 42 81 10 ed f6 b3 c5 3f
       -0.10367440161094721 0.16955458236135185
000300 bb 09 aa b0 72 47 bd 3f 31 4e ff ce 3c e8 82 3f
       0.11437146008578385 0.009232020442062257
000310 66 dd 47 3c 51 0a a3 3f e3 b3 34 59 c5 d8 66 3f
       0.03718808995102556 0.0027889112913244015
000320 1d 0f 29 02 8d 87 68 3f e9 b4 29 fc 80 33 b3 bf
       0.0029943231650423467 -0.07500463634797296
000330 2a 4c 54 d8 44 d7 c6 bf 72 70 a0 39 9b 13 a9 3f
       -0.1784444862647388 0.048977709564696506
000340 0e 47 08 66 71 6e ba 3f 70 5c e4 db 68 65 57 bf
       0.10324772587798867 -0.0014279865277495828
000350 ef 3d 1d e7 23 25 7e bf 95 76 a7 6d a9 2b c3 bf
       -0.007359638448022106 -0.1497699532910032
000360 09 73 4b 3d b0 75 b3 3f 89 d7 42 34 44 91 c0 bf
       0.07601453300908302 -0.12943317939578616
000370 0e 99 4c 96 a2 e9 67 bf a2 32 0d 2d 7f 6b a3 3f
       -0.002919023087446188 0.03792951035447813
000380 0f 4a ba b5 a5 18 82 bf 0f 02 6b af 48 3a ad bf
       -0.008836073501957946 -0.05708529607136736
000390 a2 99 6f 2b 31 93 b6 bf 61 78 ff a3 32 87 97 3f
       -0.0881834727329989 0.022976676234855
0003a0 b0 a4 43 0f 19 49 96 3f f5 4b d8 12 a6 c6 6d bf
       0.021763221317915693 -0.0036347621560337503
0003b0 78 d5 ef 02 41 c6 a8 bf 7b 0e 47 54 36 88 ca 3f
       -0.04838755761003716 0.207281867171435
0003c0 f0 55 81 b5 3e 9d a5 bf 42 97 aa 15 ad e1 c5 bf
       -0.0422153088153826 -0.17094958837440727
0003d0 a6 4c 8c cb 1d 74 a8 bf 31 3a 60 77 30 a2 c0 3f
       -0.04776089772908536 0.12994962529087808
0003e0 66 33 ce 4c 88 aa b7 bf 0e a2 5e 09 43 a2 bb 3f
       -0.09244586825498188 0.10794466952086898
0003f0 0e 93 78 17 1d b6 a3 3f 5a d6 26 c6 e1 a3 96 bf
       0.03849879180442005 -0.022109534949512934
000400 83 6d 29 a3 2f 3f c7 bf 62 1c ee ec 4f f1 d5 bf
       -0.1816157862366304 -0.34285352838236893
000410 35 61 bf 05 ef 8a c7 3f ac 69 7b 8e d9 5a 77 bf
       0.18392741947787675 -0.0057018755248584956
000420 9c 12 3f 80 1d 61 d0 bf 79 bc fd d8 e8 ea c3 bf
       -0.2559274437337906 -0.15560637088080734
000430 20 7a e3 61 15 3a b2 bf 46 27 3d 42 89 e8 a9 3f
       -0.07119878425462689 0.05060223516063771
000440 ca 28 e2 17 d1 dd c4 bf 3f 6c ae 9e 90 d2 9f bf
       -0.16301931062873215 -0.03107667892946275
000450 3b 44 1e 9f 76 80 c3 3f 7f 16 e3 8a 13 d2 9e bf
       0.15235789079136616 -0.030098252632134944
000460 cf fd 8f a4 7f f8 b5 bf a6 46 51 9d 35 21 a1 bf
       -0.08582303779257149 -0.03345649285678336
000470 8d c8 54 ba 7b ca 92 3f af c9 25 15 03 88 c6 bf
       0.018350537536385537 -0.17602575810049134
000480 fd 13 72 dd ab bb c7 bf 05 ca ac 61 a9 1b c6 bf
       -0.1854147750165395 -0.17271916646275556
000490 b0 e5 af c1 8f 59 ca bf 33 a5 25 5b d0 14 ca bf
       -0.20585820157411439 -0.20376018953838013
0004a0 39 68 ce 8e 95 e4 a6 3f 6a 06 08 ce 96 f0 bc bf
       0.04471270912399956 -0.11304609804212765
0004b0 51 a1 fc f2 4c 98 b5 bf bd af 69 ee f5 6b 88 bf
       -0.08435517246528447 -0.011924668634683994
0004c0 f0 23 be 7a 19 42 90 bf 80 ae 87 69 4b 01 a7 bf
       -0.015877149693128645 -0.044931751854019986
0004d0 33 f2 00 33 d1 9e c2 bf 8b e8 03 a9 57 c9 c3 3f
       -0.1454717158357127 0.15458198311518276
0004e0 cd 56 cf 49 46 23 a7 bf 96 0b 2d d5 b7 bd ae 3f
       -0.04519099856376627 0.06004118420835096
0004f0 cf 1d c3 d4 85 af bb 3f b9 33 60 41 47 fe a6 3f
       0.10814701504124645 0.04490873978657057
000500 b1 57 63 3e e8 08 cc bf f6 37 ae 3a aa 0d c0 bf
       -0.21902182623187863 -0.12541702142010508
000510 c6 37 2f 62 69 37 be 3f 42 88 2c f5 32 2f a7 3f
       0.11803301474648639 0.04528197520109291
000520 23 5e ae e9 2a ba d2 bf 9d 01 ac 29 1e ff c6 bf
       -0.2926127702753282 -0.17966057810555194
000530 d3 e1 b4 4a 38 84 a2 bf e6 18 10 bf 72 93 b2 bf
       -0.036165007705168194 -0.0725623814069852
000540 f8 91 2b 29 f3 c6 ba 3f 65 c8 73 aa 8b 99 b1 bf
       0.10459823374873867 -0.06874916945869954
000550 65 a9 c9 e0 7c b3 d0 3f 0d 5a b2 59 ff 59 b1 bf
       0.2609550662224563 -0.06777950229511749
000560 f0 4b 57 e3 3a 1c 9b bf 44 86 f8 5e b5 e7 c3 bf
       -0.026474876523774726 -0.15550868165250809
000570 de d1 a9 53 9e f6 c1 3f ef 3a 5e 87 4e 15 c8 bf
       0.14033869824528628 -0.1881502305008875
000580 2f f1 a7 fa 0f ee a9 bf b3 9b 2e 64 25 9a c8 bf
       -0.05064439711347501 -0.19220416442587193
000590 d7 27 48 b6 03 be b3 3f 36 e0 32 b2 82 f0 c8 3f
       0.07711814117661163 0.19483979893789333
0005a0 b5 b2 a7 c9 51 72 bb bf 51 f9 fe 31 fc 04 b3 3f
       -0.10721312688083169 0.07429481716733234
0005b0 f8 d9 d2 8b 24 e3 cf 3f 9b 8a 70 8f cc e1 94 3f
       0.2491193468792543 0.02039260507093364
0005c0 91 dd 4c 1a c2 d4 c5 bf 57 8c c3 c2 8d 4a bd bf
       -0.17055536541168384 -0.11441884999253325
0005d0 6b f0 ba 37 37 11 cc bf 7f 99 78 97 6a 04 62 bf
       -0.2192753812904614 -0.0021993715161158773
0005e0 1c f2 6c 75 91 6c c4 bf 42 a1 be 98 e7 1f c9 bf
       -0.15956323846502662 -0.1962861533950307
0005f0 fb be e3 92 3f 0c c9 bf 86 69 21 84 3e d2 b1 3f
       -0.19568628952355724 0.06961432195513426
000600 78 8f e8 22 3a 55 88 bf e7 75 b6 54 d4 6d b4 bf
       -0.011881307783432979 -0.07980086391622586
000610 51 ca b9 d1 5e f2 b2 3f 50 77 cd 1c e0 0d cf bf
       0.0740107786203137 -0.242610944808741
000620 97 2e fa 60 8b c6 a6 3f 1e a9 a0 1a 9c a0 d0 bf
       0.04448352392963988 -0.2598028430972067
000630 82 6f d3 85 9a e8 a8 bf 93 fb ed 7d 8a 31 cb bf
       -0.04864962466828528 -0.21244937085063195
000640 1c 11 78 5a 94 db 97 bf 6d 05 b7 cb c5 8d c2 bf
       -0.023298566839018084 -0.14495155760782144
000650 c4 d2 c2 02 c2 2f 73 3f 2d b2 24 a3 58 0c c7 3f
       0.0046842173143672484 0.18006427732451993
000660 29 14 c4 3f e9 94 be bf 42 c1 14 7e 86 c2 b9 bf
       -0.1194597035101458 -0.10062447145606249
000670 1c 3f 3e 45 a2 21 c4 bf df 03 e5 66 24 a2 b9 bf
       -0.1572764242268868 -0.1001303435523506
000680 18 24 79 42 19 f0 bc bf 7d a1 7d 3b 76 fc 82 bf
       -0.11303861496811896 -0.009270595255387754
000690 ae 7f 6f 32 6e ff bb bf d9 68 95 97 a8 fe cc bf
       -0.1093663094648025 -0.22652156259102332
0006a0 51 5a 1f c4 82 4d be 3f 61 bb 1e 83 4c bd c7 3f
       0.11837022102495466 0.18546444322916059
0006b0 76 5e 64 74 4b 4f 9a bf 9a a1 ca 0e 2a 0f b9 3f
       -0.025693110445983845 0.09788763867493913
0006c0 c9 fd 61 f4 cd 80 a0 bf 77 59 a8 a0 7e d3 c3 bf
       -0.03223270042598931 -0.15489180416689027
0006d0 46 92 09 62 fc 48 c0 3f 9f 83 14 50 f8 b7 c5 3f
       0.1272273520181832 0.1696768179909016
0006e0 cd cd 82 6d af 2e 97 3f 25 13 82 f1 f0 35 a3 3f
       0.02263902765180408 0.03752091358277302
0006f0 6c ab 3c a8 78 1b 9e bf 9a bc ef 7e 38 69 b3 3f
       -0.029401669758196844 0.0758242902663703
000700 96 e3 33 b1 9c 3d 9a bf bc ef 9f 0d 90 08 cf bf
       -0.02562565642890354 -0.24244881310721478
000710 da 8e 30 cc 7e 82 c6 bf b7 27 37 3d 52 da c7 bf
       -0.17585740060996252 -0.1863501356986583
000720 75 ff c4 3c ea 3e c0 3f d1 fc 91 57 ea 28 bd 3f
       0.12692001311551918 0.11390556943841836
000730 8b 2b 78 9a e9 62 c5 3f a6 20 20 b6 b9 24 c9 3f
       0.1670810703511417 0.19643327133986083
000740 d0 31 88 4c e7 1f b8 3f 92 d9 61 62 e9 35 aa bf
       0.09423680895287778 -0.0511925633044711
000750 c1 a0 4b 06 3d ba a9 3f e3 50 8b db 96 07 ab 3f
       0.05024901105736169 0.05279227666838595
000760 33 ae 1d 2c a6 e9 bf bf ef e8 eb 00 29 54 ab 3f
       -0.12465895249413776 0.053376466143122296
000770 aa 96 38 b3 e0 f4 c3 bf 17 2b 08 bd 2e e1 cc bf
       -0.15591057539966374 -0.22562202673028572
000780 4e 19 4d f5 00 a2 b8 bf 06 3c 96 0e f9 f8 b7 bf
       -0.09622198094175369 -0.09364277464031553
000790 d6 09 f0 08 91 7a a5 3f f8 59 7c d7 a7 19 be 3f
       0.04195073351003813 0.11757897387392535
0007a0 3b 8f 6f 5a ed 66 ac bf 29 35 49 c3 fc 7e b1 3f
       -0.05547277192070373 0.06834392326091589
0007b0 7c bb 3d ff 04 5d b7 bf 2a 31 44 e9 ab a2 a7 3f
       -0.09126311522935099 0.046162960266970934
0007c0 01 41 dc f0 e3 6c b0 3f e9 74 4c 6f 4e ef b5 bf
       0.06416153555278827 -0.08568277566196837
0007d0 38 2f b6 cf 03 3e a5 3f e4 6f 5a 90 2b 10 c3 bf
       0.041488761048724176 -0.14893097446918013
0007e0 c3 36 0b 80 6e da bd 3f a6 7a de 76 7b 13 ae 3f
       0.11661425233907168 0.05874238801992719
0007f0 29 fe 5c dd 95 a9 ae bf 8d 0b 5b 3b c0 70 a5 bf
       -0.059887583991891376 -0.04187584614330495

module.feat_mlp.4.bias f8 [32]
000000 38 93 34 fb b3 ef b5 bf 1e 1c c9 90 06 f9 bc bf
       -0.0856888283056606 -0.11317482981495217
000010 75 0e 29 b0 fb db bc bf 08 4b 15 3e 4d 2a 68 3f
       -0.11273167658606005 0.00294985853603558
000020 f0 b0 c5 b6 52 5e c9 3f 24 85 53 6c 3c 6c b6 bf
       0.19819101261544558 -0.08758905071910711
000030 8e 91 f3 43 6a ee cd 3f e6 ad 7d 4c 0f fd a0 3f
       0.23383835142079729 0.03318069275595885
000040 c4 7e 62 97 7d cf c6 3f b2 dc 70 31 cf 92 b6 bf
       0.17820711032708492 -0.08817763287594252
000050 d5 a2 19 cf cd 2e b9 3f 49 5f 1f 16 2a c6 c6 3f
       0.09837042146831305 0.17792249756052517
000060 1d b5 8d 53 f0 f4 ad 3f cc 6f 4b 95 ea a3 b0 bf
       0.05850935954991086 -0.06500116486444013
000070 fb f2 02 eb ed 4a a6 3f 30 14 59 c0 2f 79 b5 bf
       0.04354041570466013 -0.08388040967936727
000080 e6 74 ec 35 1d 4d c0 bf 21 8c b7 4e f6 8a c1 3f
       -0.1273533356951823 0.13705328792193064
000090 6c 74 a7 1f a1 27 82 3f a4 22 cf 98 42 12 bd 3f
       0.00886464956141194 0.11355987768832648
0000a0 98 bb b7 25 72 b7 a0 3f 88 ae dc a4 22 3a c8 3f
       0.032649581054889854 0.18927414941696363
0000b0 33 f8 bb 85 90 61 a1 3f 3f 37 a3 e9 9e 53 b6 bf
       0.033947483372671526 -0.08721345142404589
0000c0 c4 7a 52 e9 3f 01 a1 bf d3 4f a5 31 fa bf c7 3f
       -0.03321265910311902 0.1855461828623662
0000d0 dc 55 8e 6c aa 19 be bf a8 19 25 b1 f7 c8 a0 3f
       -0.11757912779133711 0.03278326070226295
0000e0 33 02 fe f2 f5 14 b8 bf 1f 08 85 01 3d 60 ac bf
       -0.0940698354952552 -0.055421739993576795
0000f0 d5 68 29 08 9d 9a b9 bf 25 ff cf 44 04 93 b5 3f
       -0.1000154633451616 0.08427454643242223

module.transformer.to_qkv.weight f8 [96, 32]
000000 c6 80 23 16 5a 2f af 3f 95 63 0a f7 15 e6 cd bf
       0.06090814132926563 -0.233584161401066
000010 f8 e1 e0 cf bb c3 b6 bf 6e 50 17 d4 da 46 aa bf
       -0.08892415833623335 -0.051321829214118306
000020 1b a0 24 d5 d4 d2 a3 3f 23 a4 22 50 ce 14 ae 3f
       0.03871789075702755 0.05875248649801559
000030 fe e2 09 05 89 b0 cc 3f 0b 53 e1 83 1d 34 1d bf
       0.22413742776895867 -0.00011140279909345131
000040 19 41 7a 61 1a f3 d0 3f 78 b9 43 8d ac 90 c8 bf
       0.2648378326348549 -0.19191510102923437
000050 8a f6 78 01 52 ad c2 3f eb a8 cd 7c f9 82 c1 3f
       0.14591431686305995 0.13680952638544083
000060 7d cc 86 76 65 76 99 bf 34 01 1b 58 cb f6 cc 3f
       -0.02486570869377801 0.22628156473184335
000070 44 30 59 70 cd 4e d9 3f 14 f9 ad 4b c8 69 a3 bf
       0.3954347226288102 -0.03791643070052167
000080 74 85 b7 f0 28 e8 b0 3f 3b ec 4f 5a c6 b2 c2 3f
       0.06604247929455714 0.1460807744004756
000090 de 10 48 42 96 64 b4 3f 29 e5 43 3c 3d a4 c4 3f
       0.07965983503533233 0.1612621826423404
0000a0 a1 fc 0d 95 ab a8 c9 3f a1 76 7a fa 0d ae c6 3f
       0.2004599073224869 0.1771867249525956
0000b0 b1 c7 7c 5a 20 e1 c1 3f 5e b9 91 9e 2d ad a8 3f
       0.13968281191188006 0.04819624481830219
0000c0 c7 70 e3 b1 88 ed 9a bf 16 3d 98 f5 1f 81 a7 3f
       -0.02629674516434546 0.045907019357509224
0000d0 36 9a 9f b6 d6 b5 c0 bf f1 ae c0 c1 e5 f3 c1 3f
       -0.1305492774692582 0.14025566063479958
0000e0 3b 25 65 bb 62 83 b7 bf 4f 5e af 31 11 33 b4 3f
       -0.09184853625369709 0.07890422308934684
0000f0 5b f5 04 f3 b3 16 c7 bf 89 d1 4d 19 49 43 b1 3f
       -0.18038033834629172 0.0674329458977977
000100 0a 34 93 9b 43 57 b7 3f d6 a1 5f cb da 15 c8 bf
       0.09117529438226782 -0.1881669514689423
000110 b2 e5 b4 e4 6e fa a4 bf 6a 11 5f 72 5a 67 b6 bf
       -0.04097315351323107 -0.08751454632062453
000120 17 25 77 59 9c d6 b5 3f 8d c1 46 89 e3 59 d0 3f
       0.08530595001424889 0.2554863777723078
000130 55 d2 68 7d a1 5a b2 bf ce 47 12 af 9a d0 b7 3f
       -0.071695416562599 0.09302679800228406
000140 aa 01 d5 2f 26 01 c3 bf 70 87 1b 9f 96 04 b5 bf
       -0.148472569804665 -0.08210126289807618
000150 d5 21 1a 45 c8 69 b1 bf 37 e6 8a a7 68 09 be 3f
       -0.06802035986959905 0.11733106699366479
000160 21 56 02 a9 e1 56 ad 3f 42 83 c1 50 93 07 a1 3f
       0.05730347812747661 0.03326092110433489
000170 3c 14 ef 72 4a b8 b4 bf e5 23 c5 06 ba ee bb 3f
       -0.08093705469134788 0.10911142983708506
000180 81 ad 2c 13 87 35 ca 3f 63 5f 8d ba 47 a1 b4 3f
       0.20475853382354717 0.08058594040391891
000190 7e 12 27 91 91 54 da 3f 28 98 c5 17 d2 4e b6 3f
       0.411411659002887 0.08714020805709366
0001a0 2c c9 79 03 8b 5e d0 3f 17 88 6b 4d 9d 7c 93 bf
       0.2557704481070171 -0.01903005394968468
0001b0 67 bf 8b 9d 78 0b c6 3f f6 02 a0 13 81 52 c0 3f
       0.17222507183714272 0.12751782854322585
0001c0 a4 d4 51 98 6a 73 d6 3f d0 4f 7a bc 48 5a cb bf
       0.3507944571968642 -0.21369275286690348
0001d0 82 14 62 75 33 4a d0 bf 94 a8 29 bb c5 80 b2 bf
       -0.25452887023158877 -0.07227741069223931
0001e0 d4 b3 52 33 6e e9 b2 3f b5 93 67 d8 a6 42 c3 bf
       0.07387436631206806 -0.15047154966955892
0001f0 a1 73 b4 67 2a 3a d8 bf 3c b7 5b 06 dc 19 a4 3f
       -0.3785501492255268 0.03925979211440597
000200 b3 3f e4 62 ec fa b7 3f 2d f6 b0 73 75 5e ae bf
       0.09367253698678617 -0.0593144134258917
000210 1c 68 20 fd 32 a7 c3 bf b9 e5 9e 19 36 84 bd 3f
       -0.15354001388260563 0.11529863477235026
000220 11 d6 39 85 fb 71 d4 3f 6e 4f 34 04 0f 31 cc bf
       0.3194569397959138 -0.22024715142526524
000230 c8 79 2a 6a 16 07 d2 3f 1d 58 ba 47 56 cd be bf
       0.28168259017720887 -0.12032069445771794
000240 0f cf 73 9b 52 0f b1 3f b8 70 42 33 1c 11 c9 bf
       0.06664005561088636 -0.1958346605578123
000250 8f ef fa 7e f3 eb b4 3f d6 7d bc 1d a3 fe 90 bf
       0.08172532892325378 -0.01659636372562353
000260 06 c3 15 c2 b2 e7 80 3f 56 f4 ec 4e 04 33 b7 3f
       0.00825442938614308 0.09062220503706561
000270 5d 20 81 96 dc 5b 80 3f db 84 4c 7f 39 62 b5 3f
       0.007987712233571804 0.08353003843196254
000280 bf 6b cd 0f 4a 3f d2 bf 5b 92 bb 0a 4d ce c2 3f
       -0.28511287253575895 0.14692080520684922
000290 50 fe 96 b9 77 83 b1 bf 25 20 4d 11 4d 3d c8 3f
       -0.06841228753091255 0.18937075943745288
0002a0 f2 23 72 65 df 91 b7 bf 66 f5 f0 4a 54 61 ca 3f
       -0.09206958986955252 0.20609525355568364
0002b0 a5 48 a9 6b 5d 17 ab 3f 10 12 33 3f b3 d0 a1 bf
       0.052912635223621586 -0.03479538103559687
0002c0 8e 81 55 36 ad ee c5 bf b2 ac c8 8d 77 ad c1 3f
       -0.17134633210208644 0.138106292944348
0002d0 82 81 b8 b1 7b 88 b6 bf 37 39 03 8f 3d c1 b0 3f
       -0.08802006806263843 0.0654486154701076
0002e0 31 ff e6 ce ec 99 9e bf f8 cf 7b 06 e0 01 c0 bf
       -0.029884052398983122 -0.1250572234781655
0002f0 65 68 2f e7 38 91 b0 bf 01 0c 96 34 55 d1 b8 bf
       -0.06471591610116574 -0.09694416555252873
000300 47 f0 a9 3e e7 87 ba 3f 94 2b f3 2f dc 07 a3 bf
       0.10363621978643876 -0.037169342854745185
000310 73 21 e1 c5 24 98 c3 bf 4f 2a b9 ff fc 6a c5 bf
       -0.15308055555420771 -0.16732752310265872
000320 6c 0a af ec 15 34 85 3f 99 ad 91 7e be 98 c7 3f
       0.010353251729502598 0.1843488805783238
000330 a4 74 ff ee 05 4d c7 3f 5f 1e f6 0a d6 d7 c6 3f
       0.1820380608541302 0.17846179518913893
000340 50 c8 24 fb 3f 72 a6 bf 69 4e 89 e4 66 34 96 bf
       -0.043840407759845434 -0.021684272478820796
000350 62 cb c3 e2 d1 4b 91 bf 53 66 d7 7d 29 a6 bd 3f
       -0.016890792337061263 0.11581668207454614
000360 74 fa 0b 4c 38 0e 94 3f 09 0d 91 bc 76 4f af 3f
       0.019585494653251392 0.06115313579405252
000370 a4 6a d9 17 6c 7e b2 3f ef cb fa e0 42 0c a2 3f
       0.07224155027635476 0.035249795878733774
000380 e6 0b 85 7c 0a df c3 bf 65 3d 3f 4d 88 37 d3 bf
       -0.15524416999878027 -0.3002644304624112
000390 b3 96 ad 6c 2c b9 a6 bf 30 68 31 b0 d7 07 b7 bf
       -0.04438151194226005 -0.08996341754519288
0003a0 90 26 69 bc 8b 86 b8 bf dc 5e da 53 6b 92 cf bf
       -0.09580300664779373 -0.2466558608473325
0003b0 0a 52 e8 eb 2f 05 a0 3f 67 82 ce 84 9e 7f c3 3f
       0.03128957514505622 0.15233212933255233
0003c0 08 aa 1a 73 e4 5e bb 3f c0 ad 8c d6 09 83 c6 bf
       0.10691669283065874 -0.17587397552538953
0003d0 eb ad 7d 02 95 45 c5 bf 5a f4 71 2d fe 9e c2 3f
       -0.16618597623470008 0.14547707766533585
0003e0 e5 ef f5 46 b7 2a b7 3f 61 e4 cf 0b 6a fe c0 bf
       0.09049554331244243 -0.13276410652887008
0003f0 e2 3a 7f 67 1d db a1 bf 5d 25 e1 a7 74 83 d1 bf
       -0.03487483871832865 -0.27364841837387194
000400 73 94 ca 92 41 8b ce 3f 76 ff c0 02 60 a8 c8 3f
       0.2386247603182344 0.19263839849918057
000410 5e 8b 16 9a b2 35 b6 bf e9 4a 72 07 8b 3b c2 bf
       -0.08675686132350566 -0.14244211066814863
000420 9b 88 68 ee 25 d9 7e bf 5a b3 a6 c3 a8 77 b7 bf
       -0.007531307381699072 -0.09166960503234858
000430 22 b0 99 41 55 68 ac bf ce 32 cd 89 75 cd c2 bf
       -0.05548349786553809 -0.14689511517135262
000440 da 6d 3e 5d 17 51 d0 bf 81 2b 91 d2 a7 de be 3f
       -0.25494941812368455 0.12058495417401895
000450 45 98 80 36 32 cd 8c bf ff 62 f8 5e 77 58 9d bf
       -0.01406325558498279 -0.02865778462555379
000460 4b e7 41 08 da d1 be bf 32 1a 6e ff 7b 44 a6 bf
       -0.12038958264920756 -0.04349124424975449
000470 ab 6f 26 1c cd 98 81 bf 10 e6 5e 69 30 99 bd bf
       -0.008592226430486813 -0.11561873028303915
000480 ae 17 ad 5c c7 eb c5 3f a3 b2 3b 12 bf 99 ca bf
       0.17125789666368746 -0.20781696691792204
000490 ac d0 07 19 bf 35 b4 bf 91 0f 58 6a 6d f5 a3 3f
       -0.0789451061353385 0.03898183749336604
0004a0 7b 05 18 b0 a2 40 bf bf 48 e1 65 f5 3b fe c5 bf
       -0.12208000945249424 -0.17182111246416754
0004b0 8a 4b 2b b1 d0 a1 bf bf 2a 04 89 b6 fa 39 b1 3f
       -0.12356285405557635 0.06729094463754906
0004c0 0a 88 b9 33 3e cc d6 3f 32 3b c7 48 6c 23 cf bf
       0.3562160019993149 -0.24326852372765867
0004d0 24 50 c6 35 7a ec c1 3f 37 84 e4 5f c0 45 b6 bf
       0.14002921701160276 -0.08700182286385504
0004e0 08 ca 90 0c 5f 43 ab bf 3d e7 d6 72 b0 73 c5 3f
       -0.05324837711704694 0.16759305579562947
0004f0 f3 f5 d9 66 27 05 a7 3f 88 71 62 55 9b df 90 bf
       0.044961196236709265 -0.016477992140254055
000500 9f 72 3b 50 fd cc d0 3f b4 d7 0e 67 db 59 b7 bf
       0.2625115664975883 -0.09121485963882386
000510 31 3a d4 fd 51 9a 84 3f 43 c1 f6 94 ff d7 af bf
       0.010059967573878033 -0.06219481175810639
000520 d1 bb 64 6a ad 41 b3 bf 3c b7 25 a6 cb 4d b9 3f
       -0.0752209076642736 0.09884331518489103
000530 02 6e b0 5e 0d f8 d0 bf 43 5e 46 4b 15 87 ae 3f
       -0.2651399063776979 0.059624352873637786
000540 22 b2 20 83 5a d8 d3 bf 7a b6 24 51 24 55 c3 bf
       -0.31008017354432316 -0.1510358234603933
000550 db 14 43 23 6a b6 b8 bf 3c c1 a0 62 d9 11 c6 bf
       -0.09653342591180396 -0.172419713171175
000560 66 02 fd d6 d7 31 a5 bf e4 8f 52 88 ab 8d 98 bf
       -0.041395897859278816 -0.0239779283480316
000570 f6 69 37 69 38 a8 b5 bf b2 68 7f 5e 19 55 b7 bf
       -0.08459808892022366 -0.09114225918839017
000580 89 51 df 43 24 f4 c9 3f 86 d4 fe c0 72 45 cf bf
       0.20276311220244406 -0.24430689262013433
000590 ec c6 16 f3 48 07 d0 3f 15 be af 69 9b 2b 91 bf
       0.2504446386256933 -0.016767910314170537
0005a0 4e 87 e3 6f 58 9e b2 bf ea 33 d4 76 c6 cb d3 bf
       -0.07272865993175268 -0.30931245426546516
0005b0 d6 ed c9 62 5a cf bc bf a5 f3 99 b9 c1 79 ac 3f
       -0.11253895675502376 0.05561643019334576
0005c0 2e 1f 51 bc 38 f2 bb 3f dc ee a6 01 ba 18 c3 bf
       0.10916475865917327 -0.14919209557216717
0005d0 de c2 f3 2e 28 6d a9 bf 23 4e 8b 36 f0 fb c1 bf
       -0.04966092656275632 -0.14050104773797142
0005e0 1c e5 f6 69 e4 74 a2 3f 18 d6 f9 a0 e9 f9 c5 bf
       0.036048067031013015 -0.1716892276778459
0005f0 50 19 e5 65 ab f5 b1 bf 6f 84 bb 72 11 fe c1 bf
       -0.07015486943882832 -0.14056604482815113
000600 3b ea f5 7d 67 37 b3 3f 08 1e b5 f5 c3 d3 c7 3f
       0.07506415200433818 0.18615006921230326
000610 a6 2c e9 38 9f 41 c3 3f 5c 83 c8 ff b3 9e a4 bf
       0.15044012335633744 -0.040273308728734775
000620 3e f7 ae a6 d7 9e c1 bf 7a bc 11 fd cc 30 c6 bf
       -0.13765998495903803 -0.17336428028963607
000630 f8 a1 ab 53 a2 3f b3 bf 12 ab 32 65 7c 8c a5 3f
       -0.07518972914443356 0.04208744750333983
000640 22 8c 66 de a2 8f d5 bf 6b c1 32 0b f4 2c 85 3f
       -0.33689185828024126 0.010339647857421771
000650 55 53 ca 36 9b 8c 94 3f 19 c7 95 27 e7 df d2 bf
       0.020067620486389732 -0.29491595140199106
000660 4d ab 2c 58 e5 35 ca bf 62 b9 7a 2f 3b 5c bf bf
       -0.2047697716273781 -0.12250108632244897
000670 05 7b f2 59 c7 dc d8 bf 88 c5 a7 20 1b 72 92 bf
       -0.38847526344208944 -0.01801340472042548
000680 42 33 79 e3 6d 07 c6 bf ca 3c 6c 72 a2 43 dc bf
       -0.17210172278501018 -0.44162808584310353
000690 ef 6b 17 4b 82 48 bf bf dd ab 54 7c 76 1d d0 3f
       -0.12220014889992091 0.2517982687156158
0006a0 a5 bb 40 8f f2 08 a4 bf fa 91 65 e5 95 a0 d1 bf
       -0.039130763995096 -0.27542636301066603
0006b0 d3 80 8a 49 6a 8a b2 bf 83 fd 3a ab ca f5 cc 3f
       -0.07242454810557612 0.22625096665249708
0006c0 69 8b f1 54 0d 15 da 3f 1d fb 54 0d 8e ac a5 3f
       0.4075349168326086 0.04233211434119808
0006d0 db 84 87 a5 43 59 be 3f 09 e6 fd 28 72 11 b0 bf
       0.11854956427807244 -0.06276620388771205
0006e0 7d 7c f0 7b f9 8e c1 3f 5f 2f 7d 11 86 ac b9 bf
       0.13717573692062848 -0.10028875281312598
0006f0 6c 89 e0 f6 cc 41 c0 bf 0b bf 2d 7c 97 b4 c8 bf
       -0.1270080762343001 -0.19301122249043376
000700 10 8b ef 84 ce 3c c5 3f 09 38 0c 5a 1f c7 87 3f
       0.16591817370416395 0.01161026471666206
000710 f2 21 64 6f fb f2 a6 bf 0f 6a 07 9e 01 61 80 3f
       -0.04482255682711757 0.007997524867211529
000720 e5 aa 09 37 67 71 cb 3f 6a bf 49 8d 03 a0 c0 3f
       0.21439829051390472 0.12988323592025647
000730 60 3f 8e 3e b8 b5 c6 3f 46 07 27 f4 28 7b 91 bf
       0.17742064527964896 -0.017071380521662925
000740 89 bb 89 93 7b fe bd 3f 7b cd da 2a 5a 7d 89 bf
       0.11716434814455402 -0.012446121628591147
000750 af 86 96 e0 74 2e 64 3f 6d 45 44 3a 19 66 b3 bf
       0.0024635584602073694 -0.075776650166764
000760 04 36 38 e6 18 57 cf 3f 62 16 0f 9c 14 2a b2 3f
       0.2448454975241675 0.07095459756882286
000770 7e 26 80 28 e0 44 c8 bf 46 84 57 d5 8c 27 a8 3f
       -0.18960191705291501 0.04717674354811456
000780 0c 66 fe 00 17 1e 5f 3f dc 2e 4a 52 c7 92 a1 3f
       0.0018992638251574849 0.034322956843508584
000790 f4 1d 2d 55 9d 11 a5 bf e3 23 30 0d af 4c cb 3f
       -0.04115001358746531 0.2132777037043346
0007a0 40 17 7e fc 1d f2 be 3f ec 5d ff aa f9 40 be 3f
       0.12088191427582462 0.11817894387001332
0007b0 ec 3f 96 91 91 c6 cc 3f 8c 66 e6 a0 2a 98 c3 bf
       0.22480983360992413 -0.1530812535900633
0007c0 c0 72 87 79 86 0b d8 3f 63 e1 07 e4 f6 46 b8 bf
       0.375703447991139 -0.0948328310695437
0007d0 31 5a 17 da af a0 cb bf 5b ff 50 9e c5 47 b0 bf
       -0.21584127568230962 -0.06359515299936673
0007e0 ad 64 f4 be 82 73 b6 bf 58 73 e4 36 a2 f0 d2 bf
       -0.08770005380610497 -0.2959371124323318
0007f0 4b 10 5e 02 e7 5b c0 3f b8 c4 0a 4b 3b 31 a8 3f
       0.12780463805768458 0.04725060740509818
