models/puray_complex2test.pt (torch, 326659 bytes, 41 tensors)

module.feat_mlp.0.weight f8 [32, 3]
0.13695406996432397 0.8068401146092407 0.14509054149898498 -0.58574709698655 0.02292248364609085 -0.049934689956579355 0.06033572888231283 0.04371953659222747
0.4091866780276386 0.3091347091084291 0.7520581305013763 -0.7402100354791596 -0.5878699091487084 0.6971263196269177 -0.725835492364863 -0.13066584021814256
0.049174362480888995 -0.2291010486106215 -0.15622930214460376 -0.3581947074811494 0.30190079458920493 0.41697139473903333 0.4768779544643078 0.5054213016827112
-0.6606452580960086 0.9212913441170312 -0.4548934313978759 -0.06389925170619158 0.40853735208279 0.2143652995659954 0.11261267982674515 0.4649697979270317
0.6363555467807839 0.6776246575333414 -0.17550556655496558 0.5235767015809538 0.1384713250196154 0.49969342126813004 -0.030257981059742894 -0.37885458286750967
-0.2785169753390401 -0.3846094633290355 -0.5348021126122886 -0.5251256049974146 0.34615428048417585 -0.5562055099699588 0.011562098847164536 0.369588576656498
0.8127005951010802 0.21299141099756227 0.33205239335747927 -0.060013214101906374 -0.4300021666373923 0.24866386652591146 0.042493260540061056 -0.1783187624296478
-0.12609358469252227 0.5919627424633147 0.25127611198139754 -0.31869897276937076 -0.5036729725810749 0.05613748063195459 -0.8720737697832482 0.6457972649731893
0.9496362670005006 -0.11628810430243298 -0.18326275624557448 0.1751706612790906 0.4198547589448057 -0.802411093801116 -0.9377361530447936 0.5663041457090099
0.6187526823757946 0.10771594499234748 -0.4511928329662626 0.1448733669198349 -0.25126107517894725 0.5109830309950645 -0.507025814945698 0.4441138048937183
0.25362975623526707 -0.47708955511365203 0.08957260081642462 -0.6003580488490562 -0.45261833044324995 -0.4850009911777811 0.1394455599641961 0.1050521606276625
-0.7680412610721868 0.4544753585169646 -0.3654928854127861 -0.4142908264325387 -0.7508483658582951 -0.454833159906805 -0.5044533619811301 0.43129091665009023
00000000: d282 c601 b687 c13f 611f 2b5c a2d1 e93f
00000010: a239 59ad 5392 c23f f117 29b2 70be e2bf
00000020: 4387 69d6 fd78 973f 014c 9928 0a91 a9bf
00000030: ebe2 a81c 53e4 ae3f cd43 b837 6862 a63f
00000040: 119b 0552 1d30 da3f a077 6bf2 dcc8 d33f
00000050: cc37 6636 dc10 e83f 4aba d1f4 ccaf e7bf
00000060: 0514 438e d4cf e2bf 804f ffda db4e e63f
00000070: eb75 bf5a 0b3a e7bf fd7b 3883 a8b9 c0bf
00000080: 2c6b 50cd 612d a93f c786 a1e3 2e53 cdbf
00000090: 31a9 b15f 52ff c3bf 31d6 8e7e a9ec d6bf
000000a0: 4069 d9b5 5752 d33f ca62 f1c9 a8af da3f
000000b0: 94e2 a61c 2b85 de3f 52ba 2d4b 692c e03f
000000c0: 6bf4 3886 0124 e5bf ca41 22fc 377b ed3f
000000d0: e138 c156 f91c ddbf 9f24 518c b35b b0bf
000000e0: 19f6 98d9 7925 da3f ad3f 8477 5270 cb3f
000000f0: a785 f840 2fd4 bc3f 6b5b eeae 10c2 dd3f
00000100: 3da7 c14e 065d e43f 7134 e2e7 19af e53f
00000110: b64c 4f66 f776 c6bf a29b 47ed 23c1 e03f
00000120: f64e 32aa 6db9 c13f bbde 971d fafa df3f
00000130: 68da 60bc f2fb 9ebf 65c3 d64a 273f d8bf
00000140: aa91 1ddd 38d3 d1bf 8bbd ae02 719d d8bf
00000150: 320c f051 191d e1bf 0d32 7836 d4cd e0bf
00000160: 5232 8348 6427 d63f 96a1 657f 6fcc e1bf
00000170: 869f 5fa3 dead 873f 12c0 6dd8 56a7 d73f
00000180: 9ac3 acad a401 ea3f 4d1e 4874 4d43 cb3f
00000190: 84d9 81ae 5840 d53f 6b83 ca4f 0dba aebf
000001a0: e8ab bace 2785 dbbf 4d7d 36b3 37d4 cf3f
000001b0: 0cd3 a338 adc1 a53f 0f03 7332 26d3 c6bf
000001c0: 6bb1 3ea7 d523 c0bf b292 6ad9 5bf1 e23f
000001d0: 0479 ce66 e814 d03f 280c 5460 9065 d4bf
000001e0: 9eac 23c8 161e e0bf a4c4 c946 0dbe ac3f
000001f0: 3964 1d40 07e8 ebbf bafe 9c06 5faa e43f
00000200: 079b bb98 6b63 ee3f a98d e4a4 0ec5 bdbf
00000210: da24 536c 2775 c7bf 1ec9 b402 fe6b c63f
00000220: d139 af7e e6de da3f 2459 ba07 5aad e9bf
00000230: ee55 b33f ef01 eebf f019 2ddf 291f e23f
00000240: d7b8 e36c d2cc e33f 4ff7 ffac 4593 bb3f
00000250: 6be6 71e7 57e0 dcbf 6db5 7de2 358b c23f
00000260: 24b0 2955 a914 d0bf 86e9 dd15 f959 e03f
00000270: b76c ad33 8e39 e0bf 0c1f ee4e 5c6c dc3f
00000280: caaa 144d 783b d03f 1c7c 1ea1 a288 debf
00000290: 02cc 1fdf 3aee b63f 5f4e 3615 2236 e3bf
000002a0: 72ba b4df b2f7 dcbf c1b6 e898 410a dfbf
000002b0: 3e2f cf23 5ad9 c13f 651b 45ca b2e4 ba3f
000002c0: 9513 4944 cb93 e8bf 69c4 6ad0 1f16 dd3f
000002d0: 9b30 7145 3c64 d7bf 50e0 a3ab bd83 dabf
000002e0: b7b9 f326 f306 e8bf 81e8 bb8a fc1b ddbf
000002f0: 571e 8260 7b24 e0bf 68bc 8437 459a db3f

module.feat_mlp.0.bias f8 [32]
0.06625823006319574 0.18768410894892984 -0.47103816378307667 0.3058515233510905 -0.0050947203405431706 -0.45392649384015876 -0.07583667071220353 0.14365014833864526
-0.10674176622708223 -0.49601596366323036 0.27392245104290647 0.27082342659855696 -0.5303000051748707 -0.016193008022217577 0.15654996605274038 0.2972080838947859
0.18284440715282035 -0.10425352491754036 -0.056094661391110474 -0.41697914850703693 -0.21662477424236784 0.22254546338253695 -0.5112401484690763 0.3189680816083242
0.18099198142543735 0.16929215501849812 -0.10981017006841026 0.2669088645813522 0.048075493859449425 -0.44461078485360706 -0.1403019022249232 -0.3216228760600786
00000000: 4f57 36a3 4cf6 b03f 2010 f56a 0806 c83f
00000010: eb6f 2741 7d25 debf b761 8e44 1293 d33f
00000020: 1c1b eb93 33de 74bf 1b36 75b5 210d ddbf
00000030: 2de3 8b34 086a b3bf 3a0b 97c8 2063 c23f
00000040: 4206 10ab 6d53 bbbf 578f 8ebd b9be dfbf
00000050: faa4 3708 f287 d13f 38d0 0ec8 2b55 d13f
00000060: 306e 69b7 37f8 e0bf a264 845f e694 90bf
00000070: 8b76 314c d409 c43f e4d5 1b0e 7505 d33f
00000080: e82a 7d0e 7267 c73f 7878 03e8 5bb0 babf
00000090: e95d 4f80 70b8 acbf d9e7 7c4f c9af dabf
000000a0: cdea 6f50 5cba cbbf def2 8ca7 5e7c cc3f
000000b0: b275 c24c 145c e0bf 6b70 be19 f969 d43f
000000c0: 3bbe 87c8 be2a c73f 430c a386 5dab c53f
000000d0: f446 36f1 841c bcbf f0eb 18eb 0815 d13f
000000e0: a013 bbe3 599d a83f e249 19cb 8074 dcbf
000000f0: 7fb2 cfa8 69f5 c1bf 35b4 941d 7895 d4bf

module.feat_mlp.2.weight f8 [32, 32]
-0.06383556392019842 0.07207711063503422 0.1115805437494794 -0.18051201131354142 -0.019974232543946247 0.16055408552388778 -0.047687936773656334 -0.14639598545234692
0.007872286690014059 -0.009743182689456311 -0.1736792625013379 -0.021956296834427402 0.16609717248037245 -0.0030195330870174254 -0.11914918751690894 0.11864687080089012
0.09540446114617739 -0.07582536602324826 0.1359799117090913 -0.12146881330645669 -0.14411834141497204 -0.19925996544345606 0.09291640765517895 -0.1486249034518309
-0.1381843511751139 0.020298595236071016 -0.17218561146302921 0.14045928341163963 -0.10527830929019463 0.0978477053695974 0.08745715974088426 -0.10437662018594257
-0.04831720680845111 0.07756639539991397 0.1676122956980608 -0.07454538758102033 -0.08094295251956538 0.06376793825785922 0.02781084040499497 -0.0887608981426218
0.1132822191903518 -0.09087849650858715 -0.21068591158216463 -0.2809973014298634 -0.10813866902009794 0.1258399292527552 -0.24362811611424626 -0.10810664158971459
-0.08292017020873034 -0.592563518520211 -0.14076999052005115 0.28353682261212937 0.07508562409202628 -0.2807506313338594 -0.13582068443878953 -0.13299121697420763
-0.06935309250907391 0.036809390745387374 -0.4033287557332241 0.08161740155837309 -0.12315461522645989 -0.21135460949810947 -0.11322813268578603 -0.3229077770130068
-0.002787431938556393 0.014555195312792596 0.053771847342734234 -0.32050739851538484 -0.6252513421694845 0.14945872625895618 -0.0833278749914264 0.05254594405244275
-0.20412732877000356 -0.0646058900232418 0.10724105353797822 0.02212302409342996 -0.05089240843418883 -0.22375227774949638 0.17468697111648174 0.03626789102717257
-0.11694983768157319 -0.020851498503379345 -0.08899982901933307 -0.10990469296756317 -0.15495651818708053 -0.3286174344842689 -0.05872693013028392 0.16175440029388197
-0.25356740225312896 0.12353830445642887 -0.15369812441148553 -0.009793185075608205 0.22159555936544534 -0.5304588733984461 -0.3022282540652704 -0.44629641600234
-0.20925004254903828 -0.1324334620677308 0.041732221898192604 0.04253726526532605 -0.06988156422471616 -0.13921885054175415 -0.0944425158282675 -0.16836448769226509
-0.18019918666172277 0.058569449534160115 -0.04617151703259577 0.012878925998664147 -0.1599118107813204 0.10501444758350734 -0.21674805892864346 -0.062243929681258296
0.04694383358651697 -0.16664875714978575 0.10583248794587559 0.09546195810272154 -0.0538375158770922 0.10217005812111361 0.13118814238713353 -0.00758049569235913
-0.019156021732962845 0.08757841983219272 -0.19505767234424956 -0.10598123963288482 -0.15621844928397985 0.23492227990613596 -0.1023390651594701 0.05055956942217078
-0.19350151191618323 -0.28448246645829145 -0.08940889923389779 -0.1683751179053259 -0.24959259446862248 0.15291339422051736 0.00817377497399467 -0.03803287413872837
-0.03339992123481839 -0.09773981386249282 -0.13613906148005775 -0.003878109097669049 0.11083726467719945 0.030789155672748647 -0.07849749289705052 -0.19283428587652676
-0.05800944673040664 0.21199370257871322 0.039932938190821506 0.07222873524739803 -0.0981046998058983 -0.26849896507696486 -0.16342114591004891 -0.11604833661425888
0.021430305628224965 0.005366162889006786 -0.0019188447756593287 -0.010182253275988764 -0.00896605922461945 0.4367543609713489 -0.019940685292343104 0.04984482379866341
0.05438426781795582 0.11820061854226899 0.04843400258642169 -0.06394695194858759 0.013133675558889694 -0.09247375105143461 -0.20546582420363108 -0.15614998543308709
0.07082757366699668 -0.024027158560847726 -0.06064655274356504 -0.13722502871005196 -0.04806644917434379 0.10366781522458599 0.060976820078212604 0.037869441806921006
-0.004713911043360101 -0.5219516052702203 0.05536945015063824 0.12093479056888211 -0.16813970373710718 0.003201612984254938 0.06360390647986752 -0.11826867804283801
0.0675405189083222 0.05190795795498064 0.16826662286142166 -0.00844592827096846 0.09724419591904566 -0.34618277524981933 0.07513667095932725 -0.14615326510436066
0.10106730720086134 -0.25078773233523316 -0.074689455149488 -0.05302873165769645 0.029397198078214868 -0.10749021597673304 -0.004015381969348388 0.14579106685551452
0.07818809608308912 -0.07979659817174603 0.13458094838987533 0.07279243065924516 0.006280558513172472 0.14238060022619037 -0.1461063465800034 -0.10034211957452802
-0.0015961768144608969 -0.1292531410484655 0.03335836100547836 0.2724870120280719 0.6048995742351798 0.024876624437436833 0.056821796704088455 -0.21001881071545708
0.01996087982423965 0.01555789132743522 0.14803751287782455 -0.2682775539617809 -0.0891810555687042 -0.30689917814767326 0.3105703143161354 0.24037760483504617
-0.1242590853980285 0.03384870954711328 0.13549375918844184 0.1309518530768428 -0.14663688990098225 -0.15378234273714683 -0.0705745933133853 -0.17355784312298245
-0.09012058534282738 0.09669926386147415 -0.18519697485271303 -0.03602524646992215 -0.06388218202675329 -0.002531776438007457 0.016805727676088403 -0.09216557131373165
-0.061008876039558325 -0.15483138646484348 0.07007928935328774 0.07397064782470296 -0.004894650885767376 0.01999604277314399 -0.14862906393838002 -0.15474148968551207
-0.0691472207950442 0.12884374452278885 0.12094224603188602 0.06453920007725258 0.131969937912358 -0.21769571670708224 -0.03753391077703632 -0.14873835765024845
00000000: 71e5 5b0b 8757 b0bf a2b7 f740 a573 b23f
00000010: 0c1f 46e2 8a90 bc3f 5f3c 9080 041b c7bf
00000020: fde1 270e 2074 94bf 7e3a 4849 098d c43f
00000030: 4e90 b6a1 8d6a a8bf 714a e488 1abd c2bf
00000040: 84da 066f 581f 803f 0ed3 14d8 3bf4 83bf
00000050: ffe3 3740 1f3b c6bf d06a 6123 b67b 96bf
00000060: 5371 e111 ac42 c53f 1f29 747b 6bbc 68bf
00000070: 87e7 baa7 8f80 bebf c2d0 dc2d a45f be3f
00000080: f7ec 8340 6d6c b83f c5ee 468b 4a69 b3bf
00000090: c40c da2c ca67 c13f eb99 a284 9418 bfbf
000000a0: d0c6 9045 7872 c2bf 75a9 7dbd 5981 c9bf
000000b0: 500b 24a4 5ec9 b73f cd2f d90d 2406 c3bf
000000c0: 26dc 8e5a 06b0 c1bf 7d50 c6aa 27c9 943f
000000d0: 1ba9 0999 2d0a c6bf 5917 56de 91fa c13f
000000e0: c62a 61ef 84f3 babf 8f12 8d16 8c0c b93f
000000f0: 855d e3a8 9763 b63f 2c67 2a1a 6db8 babf
00000100: 7419 276e 08bd a8bf 52e0 822b 64db b33f
00000110: a01f 37d8 5174 c53f 8666 ba11 6815 b3bf
00000120: 66c8 e965 adb8 b4bf 79d1 5979 1853 b03f
00000130: ec0e 0ee8 717a 9c3f 61a7 afc2 08b9 b6bf
00000140: b30f a442 1000 bd3f 00fe 692a d043 b7bf
00000150: 8f96 fc85 c1f7 cabf fff3 f91a dcfb d1bf
00000160: 68d1 dfce f9ae bbbf eff4 55d6 851b c03f
00000170: 3b63 8cc3 342f cfbf 26b4 1b7a e0ac bbbf
00000180: 01aa 399b 413a b5bf 991a 9bc4 47f6 e2bf
00000190: 555b c544 c004 c2bf a12c 15a1 7725 d23f
000001a0: 2b00 e0bb cf38 b33f 0342 fa7e d1f7 d1bf
000001b0: d278 e47a 9262 c1bf 729c c72f db05 c1bf
000001c0: 8df3 33d0 1fc1 b1bf b2ce df32 aed8 a23f
000001d0: c746 da69 23d0 d9bf 534b 7ac6 e0e4 b43f
000001e0: 99c5 bf94 0f87 bfbf 149d d3f7 aa0d cbbf
000001f0: b162 dfd6 84fc bcbf 7346 7961 85aa d4bf
00000200: 6276 8220 abd5 66bf c3ba d73e 1dcf 8d3f
00000210: 23aa 90cb fb87 ab3f b9f9 af76 3183 d4bf
00000220: c2bc 4c1a 0f02 e4bf 0028 b1aa 7621 c33f
00000230: 33f0 eec1 f954 b5bf 8341 7c4e 4de7 aa3f
00000240: 96bc a424 d820 cabf 305f c7f8 028a b0bf
00000250: a2f4 bb51 2674 bb3f eb2d e103 6ba7 963f
00000260: fdd4 addb 910e aabf dd77 ab25 eaa3 ccbf
00000270: 5ec5 fd85 245c c63f 0594 b67b b491 a23f
00000280: d067 1db0 6cf0 bdbf eb13 9460 185a 95bf
00000290: 24d5 fc5a b1c8 b6bf a4fc f8c5 b622 bcbf
000002a0: 6b30 f57c 9dd5 c3bf c757 806b 1108 d5bf
000002b0: faab 9bc8 7411 aebf 4787 9f41 5eb4 c43f
000002c0: 4191 00c5 723a d0bf 3f93 71d1 34a0 bf3f
000002d0: 33e5 e650 61ac c3bf b5bf fc0c 730e 84bf
000002e0: c2ea 3448 3e5d cc3f 8ed1 23e3 84f9 e0bf
000002f0: 0dcd c82c b557 d3bf f954 c3d7 1e90 dcbf
00000300: 2aa5 b794 b4c8 cabf 090d 3d66 94f3 c0bf
00000310: 62fb 7b00 ed5d a53f 4b09 5ac6 71c7 a53f
00000320: 3140 f018 c2e3 b1bf 4622 085d ecd1 c1bf
00000330: 5b99 d57c 622d b8bf ec18 39b0 f78c c5bf
00000340: c92b bd56 c410 c7bf 527f 969c d0fc ad3f
00000350: 1acb 5207 cba3 a7bf 0662 c62f 4460 8a3f
00000360: 7f63 c67e fd77 c4bf 228a fa11 3ae2 ba3f
00000370: e8f5 4880 66be cbbf c707 b6b4 6fde afbf
00000380: 8d83 01ac 0509 a83f db4d f018 bf54 c5bf
00000390: 1df4 9482 d617 bb3f 2a35 10e4 3170 b83f
000003a0: 33e0 fa43 9790 abbf d3b6 4222 d127 ba3f
000003b0: 517e 96e6 c5ca c03f 3ae0 60d1 b90c 7fbf
000003c0: 264a 75db a29d 93bf 80be 0311 8a6b b63f
000003d0: 35b6 c659 a6f7 c8bf b578 3626 9621 bbbf
000003e0: 836f 5a55 f7fe c3bf ea38 a6ea ee11 ce3f
000003f0: 2790 f699 e432 babf a20c 56a2 f1e2 a93f
00000400: 330a b454 a8c4 c8bf 6452 6ef2 f534 d2bf
00000410: c552 2e6a 80e3 b6bf c887 6edc 508d c5bf
00000420: dc83 486f a6f2 cfbf be13 a685 aa92 c33f
00000430: 57da 9581 69bd 803f c28b 327d 0b79 a3bf
00000440: 81f8 c862 cb19 a1bf 0579 0ef8 7905 b9bf
00000450: e9ea 6138 016d c1bf eb78 d5f7 fbc4 6fbf
00000460: 8877 f7ba d45f bc3f c05e be42 3187 9f3f
00000470: 2e92 cf64 6918 b4bf ad8f b13b cbae c8bf
00000480: 7fde 2109 6ab3 adbf 854a c411 9c22 cb3f
00000490: 1923 200f 1772 a43f 8011 b817 957d b23f
000004a0: 1f0f 40bd 631d b9bf 7bfc 8048 162f d1bf
000004b0: de49 94ee fbea c4bf e370 8302 58b5 bdbf
000004c0: 731b 4477 d3f1 953f 590c d061 d4fa 753f
000004d0: b404 afe3 3770 5fbf 8147 8fe6 6eda 84bf
000004e0: fa60 2619 cc5c 82bf f877 3090 c8f3 db3f
000004f0: 2f03 c3bc 546b 94bf 1227 2ec0 4285 a93f
00000500: 63da 6337 41d8 ab3f 4c8a 014f 6542 be3f
00000510: cc01 3f72 57cc a83f 214e 4cd3 d35e b0bf
00000520: 4f7e 0318 d4e5 8a3f 8f1d 8118 5cac b7bf
00000530: 663c b341 b44c cabf bb5d 5a04 b9fc c3bf
00000540: 2a06 8e80 c121 b23f 6947 f050 939a 98bf
00000550: 1529 4ca1 100d afbf 7d4c 40f9 9690 c1bf
00000560: b230 7a66 2a9c a8bf ee90 0954 f989 ba3f
00000570: 8299 1990 5a38 af3f 4431 289c 9f63 a33f
00000580: 389e 47dc e44e 73bf 995e 57da d3b3 e0bf
00000590: 7461 3073 6259 ac3f 2724 711a 95f5 be3f
000005a0: 6ce1 5a10 9a85 c5bf 2976 fae1 443a 6a3f
000005b0: 7497 3a7a 5848 b03f e7cb 5528 db46 bebf
000005c0: 9db9 dddf 554a b13f c637 a30b ae93 aa3f
000005d0: b35d 19bd c289 c53f bf55 aa4d 194c 81bf
000005e0: d9b7 32e1 fee4 b83f 4abc 88cc db27 d6bf
000005f0: dc28 8028 283c b33f 20d6 e972 26b5 c2bf
00000600: 295b 1f0b 8cdf b93f 7f8a 27fd e70c d0bf
00000610: b81d 391f d91e b3bf 78b3 6ff8 9426 abbf
00000620: 4920 5c91 4c1a 9e3f 5192 4292 7a84 bbbf
00000630: 9c2b d4e3 6e72 70bf d2c0 181c 48a9 c23f
00000640: 0b06 9d93 2204 b43f cacd 7ac3 8c6d b4bf
00000650: 14e5 ffd1 f239 c13f 13eb 1355 86a2 b23f
00000660: 2492 a296 a4b9 793f 1436 c70a 8739 c23f
00000670: bf4a 26de 9cb3 c2bf 22e2 fb69 05b0 b9bf
00000680: 151e dfcd d926 5abf fbad daee 5d8b c0bf
00000690: 5a25 22db 5814 a13f 72b3 4f5d 6d70 d13f
000006a0: 9f8a 165a 565b e33f 131d 9301 4279 993f
000006b0: db89 161d bf17 ad3f 7aaa c879 e5e1 cabf
000006c0: 3c90 2df8 9f70 943f f785 91d3 d0dc 8f3f
000006d0: 8d1a 32aa e4f2 c23f 0212 219e 752b d1bf
000006e0: bc20 17d5 91d4 b6bf f310 5473 3ca4 d3bf
000006f0: d528 c64f 62e0 d33f f289 ba7f b1c4 ce3f
00000700: 7df1 0384 71cf bfbf f186 0839 9e54 a13f
00000710: f362 4308 dc57 c13f c966 28c3 07c3 c03f
00000720: 0185 4163 ffc4 c2bf 4310 61ca 23af c3bf
00000730: 25a1 3532 2d11 b2bf 96b8 16b6 2437 c6bf
00000740: 066b be86 2412 b7bf 0412 d56f 48c1 b83f
00000750: acbf 27d3 88b4 c7bf f559 d6ae e671 a2bf
00000760: 451e 9a2a 955a b0bf 9297 1020 85bd 64bf
00000770: 7162 044b 8535 913f ec10 9cb2 2998 b7bf
00000780: f513 b62e 8e3c afbf 3363 a1ce 83d1 c3bf
00000790: fd37 e65f b7f0 b13f 6762 4589 bdef b23f
000007a0: 9fe2 acd7 690c 74bf f14f 0ab7 d779 943f
000007b0: 0fdb 6cf4 4606 c3bf dd4c c4b2 91ce c3bf
000007c0: a88b ecdb a1b3 b1bf da80 82aa f37d c03f
000007d0: 8c67 692f 12f6 be3f 0a4d a419 a485 b03f
000007e0: d8c1 b113 64e4 c03f c53b de07 74dd cbbf
000007f0: 4784 8e0e a537 a3bf 7460 e2c6 db09 c3bf

module.feat_mlp.2.bias f8 [32]
-0.043098278342108415 -0.02821852134153057 0.1285336492133121 -0.07914181926851808 0.001180124383914292 -0.0934708820154383 0.06112233176393248 -0.10170143124264734
0.13271345167398482 -0.01378584819468486 0.027091710143155333 -0.06273430958637326 0.009348743333618537 -0.06460195982825864 0.04260866685312382 -0.025254161645371948
-0.1235784819318238 -0.09453885813403146 0.03616005351948542 0.09219816983314262 -0.24688157934782934 -0.16623037684593092 -0.09669321759895859 -0.005909236809286462
-0.0057010573625778625 -0.1540870365321134 -0.042301681842354125 -0.10416269969258062 -0.12472651914909594 -0.07822197172898888 0.027689111414079513 -0.05192244723873037
00000000: ac8c fc3f fa10 a6bf dea1 36e9 50e5 9cbf
00000010: 5342 e765 ca73 c03f 1315 8165 a342 b4bf
00000020: f77c 95e8 cc55 533f f873 622d b5ed b7bf
00000030: c573 f61f 6d4b af3f 8bc0 24e1 1a09 babf
00000040: d3ea 561f c1fc c03f 7b7c 2639 c13b 8cbf
00000050: f6f1 3ae4 edbd 9b3f 7fb7 0210 5b0f b0bf
00000060: 6d41 0317 6f25 833f d649 b808 c189 b0bf
00000070: 4116 529d cdd0 a53f d848 6b19 3adc 99bf
00000080: 54f2 62e2 d6a2 bfbf 8408 e3d7 b233 b8bf
00000090: 775a 930e 9283 a23f ed34 2f9c 4c9a b73f
000000a0: 1e52 a4ca d099 cfbf fdd7 1378 0947 c5bf
000000b0: 4321 55ff e2c0 b8bf 877a 71ad 4834 78bf
000000c0: 7c5b ccee fd59 77bf 4f4d 52bf 1fb9 c3bf
000000d0: 6a4c 28e8 90a8 a5bf 2f88 a41c 68aa babf
000000e0: f874 b0c0 13ee bfbf bd96 67ea 5a06 b4bf
000000f0: 2943 eacf 885a 9c3f cb23 a339 9495 aabf

module.feat_mlp.4.weight f8 [32, 32]
0.11072293462918066 0.037774245862330316 -0.1391243972577277 0.08134627472659356 -0.04424227467278822 0.18830285186735665 -0.13142468285496983 -0.05650567026585893
0.1476227870190773 -0.044893153481599155 0.04119169890404489 0.05902682470765927 0.039218998260732635 -0.15062288857437978 -0.049406732871931494 -0.025563217985696565
-0.10389257076783225 -0.015428890026930934 -0.05716914580550639 -0.043575735040006 -0.0276918482092551 0.13330780839146114 0.11167707885311977 0.09087627963722449
-0.00984318223106678 0.05494878110047813 0.16313082518949767 -0.09756114123026789 0.14578492133432477 -0.13218469581662465 -0.13295291661466932 0.0049305204600196975
-0.079496719584084 0.07515900684349801 0.09700152803154637 0.03392781056511999 0.020127224028083392 0.05242637579514466 0.06369171282335641 -0.07823807185173204
0.1253341744768585 -0.11021479325100278 -0.09033717808437365 0.07874837893422655 -0.21724203484075616 -0.08503207738121997 0.08195094689384791 0.009533023840054137
0.00655504947362567 -0.014182312860914216 0.11477105481320271 -0.12260081403796524 0.05531827572986135 -0.0018077734368169983 0.06999318699692614 0.1960222771014574
0.03591969065381849 -0.03567523005888545 0.23918235262439544 0.09426223210934305 0.005670955698300443 -0.08705886663055568 -0.07270516874986341 -0.1728646850696144
-0.1293210201747125 0.14553672316754251 0.07204605558920468 -0.12737983141426462 -0.060547878317120794 0.11661240432015144 0.05168558625240148 0.14621603127213717
-0.09944078688018658 0.13330160063302185 -0.14551581357963436 -0.09391234870540544 0.03796809304626782 -0.034746062356708185 0.19288744519462173 0.48217565747639196
0.12355273753607177 0.16567696440504562 -0.033573386132290745 -0.12540416396926946 0.15794801360952188 -0.19164770687752866 -0.010086320644262967 -0.08013089463381351
0.08658896829769312 0.15497603983777453 0.13263462277202895 0.05273974558310309 0.06437935895103193 -0.11513319404150094 -0.09138066984877145 0.16955458236135185
-0.03420484567397159 0.013840645710656836 -0.009029888079429402 0.10970639170898594 0.08273443963436578 -0.06067593063728247 -0.16342875737156196 -0.13000038568477795
0.01867255810924939 -0.002256987727962825 -0.025318109902612636 -0.150068369702135 0.03915771354356256 -0.029604785364183685 -0.03827468545176705 0.017642589216437812
0.044412869321951404 -0.0053323175084453904 -0.05145323823259338 0.07545964457520253 -0.031221304625840024 -0.003824776441901813 0.062203674013675665 0.13636088778104258
-0.019602192075407386 -0.19243003249522267 -0.054471821264215174 0.12994962529087808 -0.09244586825498188 0.10803880641889528 0.039826333361056364 -0.022109534949512934
-0.035517996522819895 -0.1494803958251273 0.18104015594631234 0.054715544902168047 -0.1641532127226224 -0.036361625543351185 -0.06211126406817303 0.16548998115566216
-0.24116162658673118 -0.02912269379910362 0.006781006330773498 -0.029753774465718797 0.006579392177985145 0.020107985694603855 0.09763599933449932 -0.19111908386938176
-0.11337423681527573 -0.10537736468191006 -0.25082529307752727 -0.21274355019380314 -0.0883803415654671 -0.11244914107708517 0.039836725444006175 -0.10857733635681868
0.010325099738028838 -0.03319394465647398 -0.11093729460557276 0.15458198311518276 -0.04519099856376627 0.060953963264051676 0.11311650821472535 0.04490873978657057
-0.11622814721331631 0.13984541507045378 0.006071362765072151 0.0826861263436245 -0.19376205011013195 -0.12523285628858388 -0.07326753275803667 0.11591421507363873
0.0597797539611156 -0.06405028856402048 0.1575229298083874 -0.06646043686527041 -0.04899076666275321 -0.17556932917140083 0.026649891891586657 0.10363998232659274
-0.13990678843028262 -0.0806671534289117 0.12668396452780353 0.133392034803868 -0.10413931651412318 0.07497059785644182 0.1255816013942532 -0.08817108658100763
0.06040902416901613 -0.09352005014791122 0.21034678983571853 -0.0021993715161158773 -0.15956323846502662 -0.1955010790341856 -0.18551456038695785 0.06961432195513426
0.04576450905476206 -0.08491686275027562 -0.08301837690380927 -0.07657905074014114 0.2099603035635715 -0.12183195732793797 -0.12454166223416555 -0.09844413227893184
-0.1635909509644602 -0.14533985201542743 -0.11954450565485378 0.17983055469793885 -0.1567037438911199 -0.039765762231008 -0.19308202100322241 -0.09288525224918101
0.027748450160989455 0.08203819228507517 -0.16546239645490746 -0.14714975835819116 -0.03812537319677732 0.1857163675067416 0.10845624369378633 0.10044115008855142
0.072576725098061 -0.14712152494675648 0.04065442643637417 0.1696768179909016 0.02263902765180408 0.037930870108634246 -0.027081479461765617 0.0758242902663703
-0.09432014533340913 -0.17376391239647465 -0.12585252906016936 -0.13235285299088703 0.11281293641928776 0.09966991233275772 0.08443164812054647 0.07545885781886046
0.13917494712615588 -0.054426691656081445 0.0950425192319516 0.053449600497007886 -0.1483679258528783 0.08630813319486014 -0.1557083502487735 -0.283771826749333
-0.0015567105412557587 -0.015074730628141915 -0.03287726638462204 0.02171739570012079 -0.04673195096409486 0.06704248792909999 0.06648083544187686 -0.01088430087430713
0.01793231318871446 -0.13413141441886123 0.019872487459631143 -0.14893097446918013 0.11661425233907168 0.058961027715484074 -0.06593352901433217 -0.04187584614330495
00000000: 1d44 2697 5658 bc3f 0a34 385d 2557 a33f
00000010: 7b19 2608 d4ce c1bf 8c26 9a05 1cd3 b43f
00000020: 05fb a365 eca6 a6bf 29c5 41cf 4e1a c83f
00000030: fee7 5f25 86d2 c0bf 4d2d a9ab 4fee acbf
00000040: 7516 32b1 4de5 c23f 0e1a 0944 3cfc a6bf
00000050: c8b0 510f 1417 a53f bc88 6993 c338 ae3f
00000060: f4cd d235 8314 a43f a45e 3a5e 9c47 c3bf
00000070: 0a39 c6db d64b a9bf 7495 ea84 3e2d 9abf
00000080: c3c5 be19 b498 babf 424d a290 2e99 8fbf
00000090: 045a 2637 4645 adbf d0be ca09 8f4f a6bf
000000a0: 67bc b279 405b 9cbf 8fdf abf2 3a10 c13f
000000b0: fb0f 6379 de96 bc3f d326 06f9 aa43 b73f
000000c0: 1e02 2b8e a928 84bf 0830 9023 3f22 ac3f
000000d0: fa45 948b 78e1 c43f adc6 f156 c4f9 b8bf
000000e0: f1bf b08e 14a9 c23f c934 c898 6deb c0bf
000000f0: eb47 62e6 9904 c1bf 5177 0c82 0632 743f
00000100: 98bf c0a2 e559 b4bf a385 64e4 9e3d b33f
00000110: 8fb9 8e96 17d5 b83f 65a9 9a69 fc5e a13f
00000120: b7eb d623 3b9c 943f e3d4 f942 a1d7 aa3f
00000130: 0940 9a9f 194e b03f e8c0 e707 6907 b4bf
00000140: 8581 3942 f30a c03f c667 8c64 0937 bcbf
00000150: 753d 7c59 5620 b7bf 55b1 2290 da28 b43f
00000160: ae90 7a45 96ce cbbf 9799 7687 a9c4 b5bf
00000170: 0c0a c9bc bcfa b43f ef0a 00cd 0c86 833f
00000180: bc5f ceb1 77d9 7a3f 87a8 5acf 9d0b 8dbf
00000190: a83b f3c6 a261 bd3f bc8b c156 c462 bfbf
000001a0: be00 4352 ad52 ac3f 428d 8af2 599e 5dbf
000001b0: 6038 18d1 12eb b13f 3d17 b80a 4217 c93f
000001c0: 0efb 47d1 1064 a23f 27a8 c214 0644 a2bf
000001d0: cfab 26ff 869d ce3f c957 28d4 9121 b83f
000001e0: 7724 2e94 6d3a 773f c44b 0169 7d49 b6bf
000001f0: 1ee4 0752 ce9c b2bf 4cf0 8014 6e20 c6bf
00000200: bdf9 2a58 978d c0bf 9c90 2f85 f2a0 c23f
00000210: 04ba 8f3c 9c71 b23f b610 0c79 fb4d c0bf
00000220: 6bae 6daa 2100 afbf 3aec dc7e 4fda bd3f
00000230: 9ede 417d 8876 aa3f ae7c 3bf8 34b7 c23f
00000240: d3f5 898f f374 b9bf 7f94 9cdf 0610 c13f
00000250: df0b 301e 43a0 c2bf 0059 61c2 a30a b8bf
00000260: 82b4 d9cb 8d70 a33f e042 f962 3cca a1bf
00000270: 0bbf 752a 89b0 c83f 2b75 f249 f7db de3f
00000280: 9877 0cf7 26a1 bf3f 33fd e81b e734 c53f
00000290: cc88 e8e6 8730 a1bf b4de 835f 3e0d c0bf
000002a0: 46e5 75f8 a337 c43f 8139 b27c e987 c8bf
000002b0: 05c1 6e0a 23a8 84bf b0f8 d953 7583 b4bf
000002c0: e770 08d3 b12a b63f a427 623f 41d6 c33f
000002d0: bfc3 8fdb 2bfa c03f bb23 f534 b400 ab3f
000002e0: ad6c 3b69 2a7b b03f ea9e 1777 5e79 bdbf
000002f0: 17af 7c3c b964 b7bf 4281 10ed f6b3 c53f
00000300: 79a1 112b 4c83 a1bf 975c 7605 7c58 8c3f
00000310: c5c9 e60f 437e 82bf ec60 8dd4 b715 bc3f
00000320: 4884 7b90 152e b53f eda4 7b63 ea10 afbf
00000330: ed81 11c8 3beb c4bf 96e3 7d46 daa3 c0bf
00000340: 5fc5 a529 e61e 933f 5292 540f 3f7d 62bf
00000350: e2ee 1c98 fdec 99bf 4871 04ba 7035 c3bf
00000360: 9f89 1cd6 7a0c a43f 4aee c683 b750 9ebf
00000370: a15f 8f54 bd98 a3bf 0432 ce1e e610 923f
00000380: 5cc3 849a 48bd a63f d577 f814 57d7 75bf
00000390: 1dee f62e 1458 aabf 8347 9ec1 5251 b33f
000003a0: 78ca 3949 7af8 9fbf ea78 7037 2355 6fbf
000003b0: 31d9 28f3 28d9 af3f ab8e bc08 4674 c13f
000003c0: 663c 93d7 9812 94bf cae7 2a1c 8ca1 c8bf
000003d0: f747 c405 bbe3 abbf 313a 6077 30a2 c03f
000003e0: 6633 ce4c 88aa b7bf 9f9d 4464 6ea8 bb3f
000003f0: 5354 9cfe 1d64 a43f 5ad6 26c6 e1a3 96bf
00000400: c84b f832 6a2f a2bf ac24 bb71 2c22 c3bf
00000410: e6ac 86e6 522c c73f 3511 e007 ad03 ac3f
00000420: c0a7 16f4 f802 c5bf bd80 13b1 fd9d a2bf
00000430: d1a4 c52f 0ccd afbf 748a 7094 c62e c53f
00000440: 0abe 9e59 62de cebf 0819 c1e5 56d2 9dbf
00000450: 8054 cb86 66c6 7b3f 3d21 0d01 c677 9ebf
00000460: 414a b623 fef2 7a3f 4c7b c913 3097 943f
00000470: d2cf 0d40 acfe b83f 1224 6e13 9776 c8bf
00000480: 22a0 540f 1806 bdbf f026 0ccf 02fa babf
00000490: 1dc4 b187 850d d0bf 8237 423f 2e3b cbbf
000004a0: ad0b a214 18a0 b6bf d2ad 6387 77c9 bcbf
000004b0: df68 ecb1 7a65 a43f 9a44 bd6c b9cb bbbf
000004c0: f146 9f6d 5325 853f a317 73f5 cbfe a0bf
000004d0: c7d6 3cf4 6266 bcbf 8be8 03a9 57c9 c33f
000004e0: cd56 cf49 4623 a7bf 41b6 8f9d 5b35 af3f
000004f0: 8c82 6b17 34f5 bc3f b933 6041 47fe a63f
00000500: e8e6 27bb 20c1 bdbf 0090 1c5e 74e6 c13f
00000510: 0b4a 4a08 49de 783f 1192 7a00 eb2a b53f
00000520: 2de7 36e2 31cd c8bf 0a73 1257 a107 c0bf
00000530: 99eb 0d39 a9c1 b2bf 6ffe e1d2 8dac bd3f
00000540: 85ab 73b0 739b ae3f 768c ae86 9965 b0bf
00000550: 12d5 f21b b629 c43f 0370 d01a 8d03 b1bf
00000560: 49b7 3e59 5115 a9bf c664 7c47 0e79 c6bf
00000570: 6b17 77f8 1b4a 9b3f 7e96 a65e 2688 ba3f
00000580: 3df2 6534 77e8 c1bf d6ad d641 9aa6 b4bf
00000590: 898a 491e 2e37 c03f e1c6 837d fd12 c13f
000005a0: 75ec a7ce dfa8 babf eb79 f4e9 4531 b33f
000005b0: 27db 7bd3 0e13 c03f 5b76 515d 6192 b6bf
000005c0: 8bde 607e eeed ae3f b1d2 e714 eef0 b7bf
000005d0: 10dd 94c3 a4ec ca3f 7f99 7897 6a04 62bf
000005e0: 1cf2 6c75 916c c4bf c16b 64ea 2d06 c9bf
000005f0: 469b e5ec f0be c7bf 8669 2184 3ed2 b13f
00000600: 8357 6a1b 726e a73f cd2f 648c 1cbd b5bf
00000610: 2dd4 c43d b140 b5bf 5fd5 7c46 af9a b3bf
00000620: 47c3 a1ae fadf ca3f fac6 5410 6130 bfbf
00000630: 2204 495e f6e1 bfbf 1401 9f78 a233 b9bf
00000640: c02d 285c 8cf0 c4bf 501a 9b0b 7f9a c2bf
00000650: da3e 34fe 779a bebf 58e5 9f07 b004 c73f
00000660: ca28 9647 de0e c4bf ecbc 9090 2d5c a4bf
00000670: 36c4 d362 e9b6 c8bf a2e1 b0f0 53c7 b7bf
00000680: 3915 d3f7 166a 9c3f da29 e378 7400 b53f
00000690: 34ed be2e df2d c5bf 42a1 e1a3 cdd5 c2bf
000006a0: ee4f 0e3e 2b85 a3bf dcfd 62ce 8dc5 c73f
000006b0: bd39 b6d3 c9c3 bb3f 848e cdde 82b6 b93f
000006c0: 6738 bf64 6394 b23f 3d8c 17cd e0d4 c2bf
000006d0: ffb6 f62f a8d0 a43f 9f83 1450 f8b7 c53f
000006e0: cdcd 826d af2e 973f 7c35 40cd ac6b a33f
000006f0: 585a 7652 3fbb 9bbf 9abc ef7e 3869 b33f
00000700: 069b 8f73 5d25 b8bf 16e3 7b58 e53d c6bf
00000710: 2a56 3788 ef1b c0bf 6767 9033 f0f0 c0bf
00000720: bd8f 7c00 4fe1 bc3f 1b48 dda5 f783 b93f
00000730: 1fd5 6cff 4f9d b53f 7388 868e 4551 b33f
00000740: c128 2a13 7cd0 c13f 297b 62b9 d0dd abbf
00000750: a7a7 d4df b454 b83f 53e2 3cfc be5d ab3f
00000760: a11f a85e b8fd c2bf 7463 7331 4a18 b63f
00000770: 182c 0450 40ee c3bf 3488 da4e 5129 d2bf
00000780: a24c 4c37 5181 59bf 44dd 5918 80df 8ebf
00000790: 0bc3 ceff 49d5 a0bf 672e 25c1 153d 963f
000007a0: 3d5c 2312 40ed a7bf db13 194d b229 b13f
000007b0: 3e9b 0856 e304 b13f fa1a 5c22 824a 86bf
000007c0: 5ea6 bf2a d95c 923f 28ca 25db 372b c1bf
000007d0: ebc9 ea0e 7459 943f e46f 5a90 2b10 c3bf
000007e0: c336 0b80 6eda bd3f 7298 8dcb 2330 ae3f
000007f0: 8290 d30e 05e1 b0bf 8d0b 5b3b c070 a5bf

module.feat_mlp.4.bias f8 [32]
-0.0691266802745937 -0.026757829333548516 -0.03878853896325108 -0.005217529641298724 0.09742972103749113 -0.061859102396920294 0.08317733986123112 0.05183018116710596
0.05379535929636243 -0.002012719030502918 0.02755192111947174 0.06486649938829903 -0.017536879969685025 -0.0506505962460383 -0.005140051098909008 -0.02167968478615178
-0.09226095596317564 0.032086465807166654 -0.01394697828029324 0.059645536148468965 -0.006653527150664428 0.04848773833660704 0.017073211865056635 -0.037063129626289194
-0.034184358034254445 0.07227781047383608 -0.009534294124614939 0.020800956750826362 -0.024227374127189255 -0.029796592151960337 -0.007581031257010987 0.048516098270199474
00000000: 3a78 0f3f 49b2 b1bf 1b21 9987 6766 9bbf
00000010: f112 9d64 17dc a3bf 73fb cdf2 f95e 75bf
00000020: 87b1 8379 27f1 b83f 7366 820b ffab afbf
00000030: 59e6 7832 1c4b b53f 76f0 1d4a 7c89 aa3f
00000040: f979 b5b9 108b ab3f e57c 2f4d fa7c 60bf
00000050: 8fb4 9920 9236 9c3f 408f 7a45 179b b03f
00000060: a652 c617 30f5 91bf f19c ccfc dfee a9bf
00000070: ebcf e9f5 bb0d 75bf be91 9304 3333 96bf
00000080: b93d 8ffc 699e b7bf fd6e 9222 a36d a03f
00000090: 852c bcbc 3b90 8cbf c959 3816 dc89 ae3f
000000a0: cc0f 3e98 ba40 7bbf b351 d384 62d3 a83f
000000b0: a673 64da a37b 913f 8dbf 4343 f0f9 a2bf
000000c0: fe70 95b7 9c80 a1bf 382c 3670 cc80 b23f
000000d0: 4634 a54b b786 83bf da98 e193 d84c 953f
000000e0: c84b 2d8e 0fcf 98bf ceb7 4c73 ff82 9ebf
000000f0: c4de 1995 490d 7fbf 97d0 cc1e 1ad7 a83f

module.transformer.to_qkv.weight f8 [96, 32]
0.02028147665989255 0.10122102330698811 -0.05153914309658576 -0.14883468606292555 -0.40866421100563693 -0.050300396105337465 -0.029500310748720195 0.18040449070641462
-0.07057540119135869 -0.3169512731765157 0.004047344324732207 -0.31713611045257023 -0.2842363613069685 -0.041409880612699776 0.14251643441708853 -0.010636327119389949
0.10421295777033347 0.10581677073698481 0.13691618182531273 0.3623623532896369 -0.00626008982786805 0.10538464347537758 -0.006529164605160661 0.3032065302100666
0.20814147695336946 -0.03485886599179276 0.07493148705284437 0.16478489930332602 0.10251596371243964 0.35302240729366136 -0.32413318344921954 -0.21639953850913496
-0.11303221919545864 0.046574881912773806 -0.20203481487582908 -0.2412276290554209 0.10388682281884885 -0.03612483292718222 -0.05507500019567576 0.24652698934337533
0.1054162765631588 0.13762333598154833 0.09930618849611354 -0.11000153856655125 -0.10147727069894288 -0.07005232793435842 0.16843952390199424 0.06045678440312868
-0.03404800371173809 0.3399314219081577 -0.07508259468998695 0.3733151178153366 0.015533678118955242 -0.005947316805859866 0.11101056090619837 0.2241168952517174
0.06959756414757576 -0.20545566494647527 0.03370000911886588 0.10409269853340733 0.05697805433725677 0.250633244793198 -0.2915819886628692 0.016453499985068155
0.07097394132427329 0.35894669345891456 -0.10374915306735111 -0.06051303049100325 -0.10930308407591435 -0.17849197957865376 -0.24787162553294625 0.004349919623062489
-0.08843991239058803 -0.18189182686343128 -0.21804245927698562 -0.540048383114419 0.0021501371664707425 0.2450878466562569 0.137399213152881 0.06861108313033312
-0.24775719967335794 0.11650080592933555 -0.03953696462846977 -0.013822755807512143 -0.41580180026230834 0.08108399219967075 0.0470539584760003 0.32143113462519063
0.07980815757337688 -0.0005395904535254113 0.23608266218764615 -0.02793362174006691 0.04710646092709906 0.28424582448185315 -0.2532492392428001 -0.23077463839192858
-0.2149508559992018 0.14842943238215786 0.07116940460638622 -0.22936594736316734 0.2553441493213551 -0.07592679579294545 0.06886100074796665 -0.06940849862580693
0.1922654529645985 0.20158269767960554 -0.07336965989098992 -0.010457239645645131 0.23013701575628553 0.4369288299223917 0.27689859912479764 0.00710166823318516
-0.2858539404879472 -0.29032474388315216 -0.07483198880553696 -0.41925068073793953 -0.2095446995445676 -0.2500946242888671 -0.13843777593050943 0.19267387594482216
-0.11982286274674062 -0.03667952030771409 -0.1502686835148137 0.32310202295128493 -0.25685404575698 0.24872765885813233 -0.05257091075060423 -0.1133757932958174
0.056451402090764685 -0.01680380674849297 -0.009434102392004642 -0.10809980745880786 0.35349833122495805 -0.23395578876677842 0.1239649923861088 -0.25203364069231066
-0.10215737472708335 0.1770355682787468 -0.039145504791211136 0.20943212471062975 0.1875309599768999 0.2743303322287311 0.18292171673407545 -0.09535126989606019
-0.07582956839677514 -0.11945248844555709 -0.0779404280556261 -0.12168515353829853 -0.01729092299846235 -0.0956802693871481 -0.08799444791859984 -0.083927692602173
0.02347246839918746 0.059199701290706196 -0.10062138194248203 0.17247036116691492 -0.2903375405126899 0.20990283710488034 -0.04018915103432264 0.04962852772586517
0.374177797595481 -0.2972221679341924 -0.2142216198068176 -0.08784121235832403 0.19698223202318366 0.11410596865251793 0.12410749392377005 0.11701170006292512
-0.022090691159616798 -0.19645859676040658 0.27356596848820847 0.26643130005200094 0.09807808856255382 -0.016783596847608655 -0.025273613510020162 -0.26370360165592527
0.13875519393047608 0.0364670430101929 -0.09042391529641633 0.13121690145834997 0.0006257415067927081 -0.14119483864782648 0.12761451109140565 -0.36173727222511465
-0.28544240760161116 0.0696953984657817 -0.204895866364595 0.1406565051439035 0.05589982381473819 -0.3232702829546239 0.004013046764622873 0.2068263364826681
-0.07693113959096015 0.31435915038266765 0.11107236354131358 0.04070363984722067 0.10581524813298106 -0.029103804615108923 -0.18810950155701675 -0.13402847359887152
0.06266962325448232 0.12162816225486858 0.09164741066630595 -0.29285777197326507 0.1637936937500284 0.33592609674216095 0.05227167468914861 0.023573479229026792
-0.2025179256652542 -0.1553478321597192 -0.29872087261516705 -0.1324916999796414 -0.09046948351220763 -0.22634870760212641 0.045192371908699715 0.25389506948434415
0.10195251140581006 0.055685776039906064 0.05832261812398109 -0.04368253645820352 -0.0547429961560982 0.0035243669573732962 -0.04160992961685205 0.027269850300862392
0.39206613231622484 0.032984203544687285 -0.2572935706203002 0.0510512211496823 -0.22633294142936894 0.24594322348219827 0.040582603040833234 0.2588344230934636
-0.05215111170693859 -0.1688701863218328 -0.03202655820797508 -0.07962644162487063 -0.10939398987840589 -0.30347504605132275 -0.010143148384958807 0.09557543475885225
0.19007569304317057 0.17661934471393867 -0.14697816850069934 0.5164057777105152 -0.01261432739467813 0.13757286906714458 0.39921290143343136 -0.13024191005439348
0.2694644096310226 -0.0034006797540735013 -0.18151132558411032 -0.07504947826967516 0.24793143601777817 -0.33806489896154207 0.0773298369953334 -0.23752073455226236
00000000: e013 e0db aac4 943f 3f6b c5f8 9ee9 b93f
00000010: 4a9d 20ac 5663 aabf e249 93d6 030d c3bf
00000020: 9126 54ef 8d27 dabf 451d 7f38 f9c0 a9bf
00000030: 87e4 8c57 5435 9ebf e85a d18d 7e17 c73f
00000040: e4da 04c0 3a11 b2bf 22ff 2dfe ed48 d4bf
00000050: 0f80 2ab8 f293 703f 4f90 b141 f54b d4bf
00000060: 2470 09b5 ed30 d2bf 6ef5 ec05 ad33 a5bf
00000070: dd61 7b80 fa3d c23f a3c9 04a9 7fc8 85bf
00000080: 3169 714d b3ad ba3f a005 afd1 ce16 bb3f
00000090: eccf 9d2d 7886 c13f c38e 2bde f130 d73f
000000a0: 629c 4a11 2ea4 79bf b134 3aed 7cfa ba3f
000000b0: 2f9a 3047 53be 7abf 54e5 cb5c bc67 d33f
000000c0: 9b59 3a42 61a4 ca3f 7e1f d272 05d9 a1bf
000000d0: 3126 55be b52e b33f bef3 b0ec ab17 c53f
000000e0: 677d 7677 7c3e ba3f c336 854b eb97 d63f
000000f0: f79d 9d1b 99be d4bf bc13 62e6 fab2 cbbf
00000100: 7cbb d6f4 adef bcbf 1fc7 42b5 a9d8 a73f
00000110: d8c5 45dd 46dc c9bf aea2 d704 8ce0 cebf
00000120: 8707 7eaa 5398 ba3f e9cd fd3f f47e a2bf
00000130: 6bd2 5559 ca32 acbf 5bd3 6746 328e cf3f
00000140: 320b 4ea4 8ffc ba3f 8d84 9a37 a49d c13f
00000150: 9397 e15f 216c b93f 572c a792 0f29 bcbf
00000160: e275 f016 6afa b9bf c69a 7c09 f3ee b1bf
00000170: e8a5 4123 6d8f c53f 985f aa0f 31f4 ae3f
00000180: 9e3b df6c bd6e a1bf b89c feb8 6fc1 d53f
00000190: b33b b1e8 9c38 b3bf eba1 8717 65e4 d73f
000001a0: 075e 0ffc 1ed0 8f3f c8c4 e1b2 365c 78bf
000001b0: 0c4d 9a28 306b bc3f d828 cbc7 dcaf cc3f
000001c0: 4625 e55d 25d1 b13f bc8c dc08 5f4c cabf
000001d0: 56b3 14aa 2041 a13f 2a10 f4af d1a5 ba3f
000001e0: afbb ef3f 3a2c ad3f 6356 6b05 600a d03f
000001f0: f837 5a80 47a9 d2bf 5ac7 5cb1 2fd9 903f
00000200: 4a21 db24 592b b23f bd74 5a8d fbf8 d63f
00000210: f076 69f3 4d8f babf b6a4 e15d 90fb aebf
00000220: de3e 7573 49fb bbbf 3abe 713f d3d8 c6bf
00000230: 3f9b a2e6 41ba cfbf d52b 57a8 38d1 713f
00000240: 39f1 6083 ffa3 b6bf 7fe1 e43b 3b48 c7bf
00000250: d8f5 ddb7 d0e8 cbbf d17d f78b 1348 e1bf
00000260: 2e22 fb19 2a9d 613f 5f91 04df 095f cf3f
00000270: d26e 7e23 4c96 c13f 661b 30f6 7e90 b13f
00000280: e309 f906 82b6 cfbf 6194 6c2f ffd2 bd3f
00000290: 1ef1 1f64 303e a4bf 8624 12e1 1a4f 8cbf
000002a0: 85a6 6f27 7f9c dabf 5609 baa6 ebc1 b43f
000002b0: b880 9ad9 7417 a83f 5168 c8e4 5392 d43f
000002c0: 9f4e bbb2 4e6e b43f c1ad f1ac 69ae 41bf
000002d0: afd0 9fe8 f437 ce3f 6e66 549f a19a 9cbf
000002e0: 4571 398a 561e a83f b524 0b66 1531 d23f
000002f0: a038 124c 3c35 d0bf 14dd 51fa 058a cdbf
00000300: 73c3 6178 8283 cbbf e32f ec52 bcff c23f
00000310: d19d 4279 2838 b23f 8ad4 5e05 dd5b cdbf
00000320: acd9 a3fc 8e57 d03f 0e1e d240 f06f b3bf
00000330: 61ae 2ee2 dfa0 b13f 9b8c a95f c1c4 b1bf
00000340: 0b19 5184 279c c83f 1797 fc3a 76cd c93f
00000350: 241d c0a1 5ac8 b2bf b29d 46f2 9a6a 85bf
00000360: 2cda 2236 2175 cd3f d88e cc56 a4f6 db3f
00000370: 6c26 e3e6 b4b8 d13f 93e9 ef8c a316 7d3f
00000380: 8c05 7553 6e4b d2bf 5ba7 0c3c ae94 d2bf
00000390: 964a 9d70 3028 b3bf 8d17 a6ce 00d5 dabf
000003a0: 490a cc57 5cd2 cabf 4878 0ee2 8c01 d0bf
000003b0: 9485 133c 54b8 c1bf 5200 fd9d 89a9 c83f
000003c0: f272 cf0c b6ac bebf b727 4f78 a8c7 a2bf
000003d0: 9090 a714 013c c3bf b138 761b b4ad d43f
000003e0: eec6 97f3 4b70 d0bf 6502 34d4 4ed6 cf3f
000003f0: 9a20 ca0c 93ea aabf 5a14 5d2c 3206 bdbf
00000400: bc1b 96bb 32e7 ac3f b179 bb61 0435 91bf
00000410: 9b1b edc9 2f52 83bf 574e bdd1 6dac bbbf
00000420: 3550 f376 b79f d63f 0e4a bb66 43f2 cdbf
00000430: 9fb0 2574 2bbc bf3f 7ffa 10b5 5121 d0bf
00000440: 8b7f 7f57 fc26 babf 0135 fefb 19a9 c63f
00000450: 0e32 ba2d e10a a4bf db95 2eff abce ca3f
00000460: 6e4c 0bb6 0301 c83f 2749 4ecf a08e d13f
00000470: 8dee 8c93 fa69 c73f 04ed d5d9 f068 b8bf
00000480: 617d 550c 9169 b3bf 16ab 4c33 7094 bebf
00000490: eaff 8865 e7f3 b3bf 2e11 db1a c226 bfbf
000004a0: bf27 2f33 b6b4 91bf cee8 e38b 807e b8bf
000004b0: ec3a 0adc cd86 b6bf be7f f406 497c b5bf
000004c0: 990b 86b0 2a09 983f a3fe f359 6c4f ae3f
000004d0: 27a6 b8a8 52c2 b9bf e7df 5e40 8213 c63f
000004e0: a265 53e8 e394 d2bf 68fe 599e 18de ca3f
000004f0: 015e b122 ac93 a4bf 17fc 0f0f e968 a93f
00000500: 24f6 e36e 87f2 d73f e01b bb20 b005 d3bf
00000510: 7e4d 9531 9d6b cbbf 0beb 51fe c27c b6bf
00000520: 5461 37ba b636 c93f 5416 a47b 0c36 bd3f
00000530: 0e53 973b 82c5 bf3f 1d06 0591 7af4 bd3f
00000540: bb6d 4e30 f19e 96bf cd4f 0d28 8e25 c9bf
00000550: a225 fdd5 1a82 d13f b1a9 16de 350d d13f
00000560: 7e92 d446 a51b b93f be66 471e b82f 91bf
00000570: 2fbc e87d 53e1 99bf 6bc6 3c12 85e0 d0bf
00000580: a86f 0aee bac2 c13f 13a1 38ea ceab a23f
00000590: 1e71 f98e 0526 b7bf c018 3926 b7cb c03f
000005a0: 25af 59a7 1981 443f e59e 2d27 ac12 c2bf
000005b0: 94f9 d01b ac55 c03f 18df 7c16 b426 d7bf
000005c0: 4596 623b b044 d2bf cb9b 17c1 8ed7 b13f
000005d0: 088e 8f1a 073a cabf 4007 c848 0801 c23f
000005e0: 69de 45d6 e69e ac3f fcc2 43d7 75b0 d4bf
000005f0: f22f c809 fc6f 703f a780 920f 4979 ca3f
00000600: bc51 9658 c2b1 b3bf bfe1 85d7 751e d43f
00000610: c23c e608 3d6f bc3f bca6 f183 1bd7 a43f
00000620: 2137 2646 b516 bb3f 1155 0b44 63cd 9dbf
00000630: 338b a0de f813 c8bf 9183 6b53 d827 c1bf
00000640: ffa4 54ce 1d0b b03f 0641 28f3 0523 bf3f
00000650: 652a 9367 3476 b73f 594b 4086 2ebe d2bf
00000660: c844 f916 31f7 c43f 555a d82b d07f d53f
00000670: 2f16 985a 5ac3 aa3f cccd 5d69 a523 983f
00000680: e502 cb7d 1bec c9bf eeb3 5011 70e2 c3bf
00000690: 3ff1 a026 3e1e d3bf 64b6 33ef 7cf5 c0bf
000006a0: b88f f810 0229 b7bf cf4d 5294 fef8 ccbf
000006b0: 1dc9 c05e 7423 a73f 0a42 031b d13f d03f
000006c0: 47a7 3b4e 8f19 ba3f bb36 e395 d882 ac3f
000006d0: 1f50 eb52 76dc ad3f 6f16 fdb2 8e5d a6bf
000006e0: 8bda 5924 4607 acbf 88ce 451a 22df 6c3f
000006f0: ef56 c98d e54d a5bf 4509 d6ac a0ec 9b3f
00000700: 97b6 0a8c 9c17 d93f c8a0 0437 4ee3 a03f
00000710: a241 d273 7f77 d0bf c07a 84ba 6223 aa3f
00000720: f22a b952 7af8 ccbf b6b1 c34a 117b cf3f
00000730: aaa0 b131 3ec7 a43f 30fd 9041 be90 d03f
00000740: b872 76ee 8cb3 aabf 03c7 c2cb 899d c5bf
00000750: 82a0 36f8 c865 a0bf dff8 ac02 6662 b4bf
00000760: 091e e898 3e01 bcbf 5552 7c99 226c d3bf
00000770: 1128 bc54 eec5 84bf c21a 97b6 a177 b83f
00000780: 1e46 b17a 6654 c83f 9b93 b172 769b c63f
00000790: 9cde 773d 2ed0 c2bf 6f6d d768 6586 e03f
000007a0: ef2c f85c 8ad5 89bf 53ea bade fc9b c13f
000007b0: 2010 f344 b48c d93f e147 2054 c4ab c0bf
000007c0: b046 b3a6 e73e d13f 9f47 7e0a bedb 6bbf
000007d0: e061 9e5b c33b c7bf b307 c04e 7136 b3bf
000007e0: ce5f aca0 37bc cf3f 95c8 3df5 daa2 d5bf
000007f0: 4b64 e660 e3cb b33f fa0d 8355 1467 cebf
