models/puray_test2test.pt (torch, 326530 bytes, 41 tensors)

module.feat_mlp.0.weight f8 [32, 3]
00000000: 1efb 8a8c d889 e03f 4781 2bd7 2d3b e23f
00000010: d4ec e9cb cf49 ca3f 8271 05cb 7b3b debf
00000020: 35ed 13e5 7712 b2bf 8f37 63df 8b2b 9b3f
00000030: b9c2 ea78 2c37 dc3f a8e3 c539 31ea 683f
00000040: e886 6021 7da8 e23f 28eb 4329 b4e6 cb3f
00000050: 6080 ab1e c995 df3f 835c e7ba 6418 dfbf
00000060: 4a2e 27af bef4 e8bf 36fd 96f6 16f5 dd3f
00000070: a71c cb02 1bab d1bf fd7b 3883 a8b9 c0bf
00000080: 2c6b 50cd 612d a93f c786 a1e3 2e53 cdbf
00000090: ca66 969d 1f7c d5bf de10 54ca e9e9 c7bf
000000a0: 9734 9efc 3209 d13f d170 f57f 6fd1 c33f
000000b0: ae8c 0355 21c9 e13f 2891 a6af 0ed3 d33f
000000c0: dcb7 9cea 7308 eabf 498e 0458 8c69 e43f
000000d0: 1e81 33f0 cc34 e0bf a79f 9d5f 01c9 bfbf
000000e0: e795 8bf6 cd5f d83f f2f1 bb40 dccc ce3f
000000f0: 2544 4e28 114d cebf 1c13 4a0a 5a9f e53f
00000100: c584 9966 5efb dc3f 4aee 62ec 69c3 e23f
00000110: 9f2d 369a f6df a13f 2f63 384d 8143 e53f
00000120: f537 b7b1 2d95 da3f 0a4a 3358 4493 f03f
00000130: ac05 a30e de9b c03f 0960 b1f4 4d50 e3bf
00000140: 1fa4 96a9 2b2f c7bf a287 4d28 7a6a bd3f
00000150: 5805 bde7 5e3b dabf 4b23 1777 d984 d0bf
00000160: 7ea9 8fe4 241b dc3f 8dd8 ae50 7934 dcbf
00000170: 267d 0892 e19e e13f 58d4 3db2 0019 f03f
00000180: 14b8 f9a0 299e e33f 2e77 5700 c926 b8bf
00000190: 1dbe 8145 1148 d33f a760 612c 90c5 d03f
000001a0: bc3e 996f e208 e0bf 025a 5578 d169 d93f
000001b0: 98cb 1e1a 02b1 c13f eba1 538e 6947 e5bf
000001c0: dce2 9b3d d6d0 8d3f 707f a464 dac6 e73f
000001d0: 6d31 f8dc 3100 dc3f 7049 df25 e3ab d1bf
000001e0: a5d2 ba65 a708 e6bf 1242 2d1b f369 aa3f
000001f0: 246d 53ce da8c e1bf 6e33 1e62 7513 dd3f
00000200: 13dd 49fd d163 e33f 3149 3ab5 1ed5 dd3f
00000210: 06ed 928a 7ece dfbf 09c6 ed59 7fdf dc3f
00000220: f1a5 f9dd cd07 ea3f 396c dc48 a164 e2bf
00000230: 2aad 2ac6 7d2b e8bf 9b5a b42b 5e68 d63f
00000240: 5fa5 5780 fcbb e53f 18d3 e91d 88a7 80bf
00000250: 6a3e 6a85 9249 ddbf e3a7 f662 72d3 d33f
00000260: 93f3 eaaa 9e57 dabf d6ba c6dd 1294 e73f
00000270: 427f 3153 2c0e b2bf 9111 55b6 3a7c c9bf
00000280: 2f2d aa3d 690b e03f 9aca 5306 cd8d c3bf
00000290: 644a 5805 55bb a03f 45ed 9ca8 89c1 e3bf
000002a0: b195 85c9 c0dc d7bf 2d4c 04d8 cb44 e0bf
000002b0: 0173 2660 e85a b13f bd3a b335 e19a a0bf
000002c0: 5a68 69a5 e8cc e0bf ec9b 0ad7 c3d2 8cbf
000002d0: 346f d1a3 5b26 a93f e76c 143b 9618 d4bf
000002e0: f46e 3dc6 46f6 e9bf b783 43a5 3eb4 dfbf
000002f0: a3e2 41d9 dc0f ebbf 549f d187 45f8 b13f
0.5168268914202121 0.5697240068948667 0.20537755448081063 -0.4723805887822651 -0.0705943044921938 0.026533303746695543 0.44086753662399364 0.0030413590849857793
0.5830674793143915 0.2179780198565251 0.49351718897924535 -0.4858638596755968 -0.7798760815580377 0.46808408814463875 -0.27606845162194776 -0.13066584021814256
0.049174362480888995 -0.2291010486106215 -0.3357008971157539 -0.18682596568408533 0.2661864726040419 0.15482896564470264 0.5558020267893846 0.30975691941627526
-0.8135318357724333 0.6378843039605694 -0.5064453784398528 -0.12416084846847629 0.38084744526562847 0.2406268421253937 -0.23672689884236423 0.6757021141971538
0.4528423311185857 0.586354219143183 0.03491182930437308 0.6644903667648573 0.4153551326279506 1.0359538503004182 0.12975669588744887 -0.603552797237172
-0.1811270311420978 0.1149059627910263 -0.4098737013883542 -0.2581084883682265 0.43915674515178427 -0.44070275191496294 0.5506446697435521 1.0061041796264103
0.6130569595386555 -0.0943418145975243 0.3012736490991033 0.26205829938909136 -0.50108453556637 0.39708363295849847 0.13821436190991387 -0.664967325193229
0.014558480982928605 0.7430240598368822 0.4375118883042635 -0.2761161680074542 -0.688556383791895 0.051589581553916145 -0.5484441785623955 0.4543126543219874
0.6059350916902154 0.46613280962005194 -0.4969784119854953 0.45114120275602027 0.8134526572659394 -0.574783937746708 -0.7553089971965268 0.35012010829943
0.6791975504576547 -0.00813204137123473 -0.45761549977121396 0.3097806898537085 -0.41159788790883417 0.7368254024093754 -0.07052876502120589 -0.19910367873138715
0.5013929561986624 -0.15276491936636633 0.032679230596973224 -0.6173752110693519 -0.3728486984240034 -0.5083979815557363 0.06779339167992406 -0.032431638531865904
-0.5250132780740941 -0.014073877334636685 0.04912077307446197 -0.3140006615592043 -0.8113130447268007 -0.49537626399074547 -0.8456863635356807 0.07019457403077684

module.feat_mlp.0.bias f8 [32]
00000000: 9050 6d1a 1251 bcbf c1c7 46f7 37be d53f
00000010: 2550 af62 2843 d1bf 5c51 4492 3fe7 d83f
00000020: 487d 1dfd 8682 c6bf 1b36 75b5 210d ddbf
00000030: d2ad 0610 e750 c8bf deb7 af8e 38df c83f
00000040: 8f69 9d8e 61db a83f 9d25 0591 2038 e0bf
00000050: 038d c730 2286 dc3f c1fc af2e e954 db3f
00000060: a7b0 b98a b8e5 a5bf d375 e28a 3be0 913f
00000070: bd6a c85e eb05 c13f c6d8 c9e3 cbe8 d73f
00000080: 62a7 89d0 c22f c83f 16bc ba3c cdf0 babf
00000090: 560c e842 8b53 c73f 7f36 da61 53b4 d2bf
000000a0: 3d3a 9cbc bf2d d8bf 0156 bfdb 04f8 c33f
000000b0: 0835 679c 0fef cbbf d6b8 d24f 3fb6 df3f
000000c0: 9f7f 20c6 3982 b73f cced 1f2d 13fd d23f
000000d0: 1fad 3a70 8937 b8bf 3235 7d6b d39a db3f
000000e0: ca1f 70b3 ab88 903f b753 a021 5a50 e1bf
000000f0: d990 a313 2440 c9bf 2ad1 fe75 8f17 d2bf
-0.11061204095068633 0.3397350230035237 -0.2697239841193116 0.38911427768586804 -0.17585837706699636 -0.45392649384015876 -0.18996895105861583 0.19431216208562224
0.0485487448301739 -0.506851466410058 0.4456868625986347 0.42705754813500724 -0.042768256124732056 0.017456941940158743 0.13299314621038674 0.37358376736609633
0.1889575498819865 -0.1052368424668518 0.18223706023136071 -0.292256207999209 -0.37779229563685474 0.1560064385400182 -0.2182330621421118 0.495498493149069
0.09183083617290187 0.2966964665099254 -0.09459742536516956 0.4313248204897092 0.016146357371354537 -0.5410586029780607 -0.19726992567951276 -0.28268801234232177

module.feat_mlp.2.weight f8 [32, 32]
00000000: 9de9 9cd8 9825 b8bf 3d18 0339 1a58 b33f
00000010: 0c1f 46e2 8a90 bc3f e245 3416 c67e c6bf
00000020: d6ec 6904 3b84 91bf 7e3a 4849 098d c43f
00000030: d4e1 9794 af37 a8bf f837 9170 e342 c2bf
00000040: ca38 e29e 8b7a 8b3f 0ed3 14d8 3bf4 83bf
00000050: 2df9 e382 e89b c5bf 8703 18fd 5f19 95bf
00000060: 5371 e111 ac42 c53f 4096 fd6a d1d3 633f
00000070: 2066 e502 a251 bebf 407b 6696 3652 bf3f
00000080: 492c ab58 16a4 b83f 02a2 a553 ee60 b1bf
00000090: 8e93 f415 5f81 c13f eb99 a284 9418 bfbf
000000a0: 783d 276b aee3 c0bf 3e07 72cd b2b1 c8bf
000000b0: 83e2 606f 29a0 b43f 675a 7474 69cf c2bf
000000c0: 73ed 9463 0126 c1bf bb59 8770 c1e2 943f
000000d0: 8fb0 d08c 5868 c5bf 0ef3 eda0 3295 c23f
000000e0: a396 d114 c6db bcbf a8e0 e0f8 6981 ba3f
000000f0: 8bb4 dea1 31e4 b83f 785b 86bd a1cd b8bf
00000100: c915 c0b1 2b58 b5bf 6392 ae10 f312 c93f
00000110: cbb8 0884 acbb 9f3f a1a6 38da 025b afbf
00000120: 4318 d845 bb59 c73f 79d1 5979 1853 b03f
00000130: 4a14 6cdf e1eb d13f 6f3a ef77 2b40 ac3f
00000140: 2b96 e2a8 b73c d33f a9c3 5a0b 109f bebf
00000150: 8c72 70db 2d17 aabf 3d72 055e 0fab d4bf
00000160: a311 393d ff4c b93f abec e37a e28a d23f
00000170: 6cf7 cbad 930e a4bf 13be 27ff f669 b13f
00000180: 9907 cf1d b76f ccbf b522 2c04 9a24 be3f
00000190: ed97 a4ef a906 bdbf f1f1 4bbe ce33 ab3f
000001a0: 24bd b6b1 6fe8 c73f fb1c 285f 49d8 bdbf
000001b0: a91b f40d 02eb b3bf aa5a 7eca 395b 8abf
000001c0: 973c d819 667f b8bf d3f0 50ce 17d0 943f
000001d0: 7a98 2473 a261 a73f a440 2962 c82a c03f
000001e0: e9b3 5f59 65e2 ae3f 43fe 1c19 d3e8 b4bf
000001f0: dc79 60b1 38e5 a9bf 0f99 4041 d6a7 ca3f
00000200: 5fe9 fad5 4700 b73f 0756 c92a 4d1c ae3f
00000210: 024f 1280 f3c0 bbbf 1094 3ff2 ed7b c1bf
00000220: dd80 f749 ebdc d2bf 0028 b1aa 7621 c33f
00000230: 6e13 60ba a9c1 bfbf c801 424f cfe1 873f
00000240: 0e69 db53 be50 8b3f 3c2e fe90 9ee0 9abf
00000250: b345 36c9 9370 ab3f bcf9 0d06 bf9d 84bf
00000260: d40f 7f35 5275 bb3f 265f fcc9 1128 a5bf
00000270: cba5 eb3d 04e2 b33f b9b1 f8fc c981 933f
00000280: abeb f07d 87f5 c0bf cec6 3bb2 cc42 adbf
00000290: 1d17 3207 48ee c5bf b7d9 c080 c0bf c5bf
000002a0: c500 822b 92e1 abbf d596 acdf 2cf9 cabf
000002b0: c350 180d cfdd d3bf e7b3 083e e998 b93f
000002c0: 9798 0e54 f78a c1bf 6c49 2461 0b11 b23f
000002d0: 2967 d3db 52a1 cbbf 6cba 3f5e 0517 c13f
000002e0: c743 eb6b 9a8e cd3f a7fa 1e15 d2d8 b53f
000002f0: 9ca3 3fd8 417a c2bf 6d51 7d15 7581 bebf
00000300: 6535 324a 7c0d c7bf 4bc4 8f87 f8d4 bebf
00000310: 3ff6 0fae 8415 d23f be70 6398 db66 a03f
00000320: 864f 5c82 096d c2bf 4622 085d ecd1 c1bf
00000330: e1d7 22fe 8222 a03f adb5 2724 fa98 c1bf
00000340: 3bb4 cf4c 59f5 cebf a4f1 31b3 e70e c13f
00000350: c426 caa4 13c7 a2bf e5ad fc19 4dd9 b23f
00000360: 2052 770f e5fb d5bf b4ca b7e3 c390 c63f
00000370: 2d30 29c6 3297 b8bf eca1 4a1b 6c9c 98bf
00000380: 3797 5392 5560 bf3f 3dc0 337f f517 bc3f
00000390: c56c eb7a 8dd9 c73f ce43 2f12 913d ccbf
000003a0: 8dfc 6021 d072 c63f 25c8 1182 3ce2 c13f
000003b0: b6e0 eddc 3600 e03f 4dd4 7107 0aaa ae3f
000003c0: 9a7e 0467 7a2c ba3f 8aa9 95b7 d4fd c43f
000003d0: 7524 0966 6add 993f 9bda 3f81 c85b babf
000003e0: 6d5d 1db7 ad54 9ebf 0959 0713 562b c13f
000003f0: 3fdb 8183 f349 ce3f 070b faac 2603 c93f
00000400: 2387 81f1 93bf b9bf fb05 95be 4042 d1bf
00000410: eaba 73fa 2002 d23f e9ef fc10 f17f c2bf
00000420: c2dd ccc5 555c dabf be13 a685 aa92 c33f
00000430: 96d3 0326 e3a3 c7bf e41e 44fc ebbf 923f
00000440: 2b46 62c8 53a8 893f 0579 0ef8 7905 b9bf
00000450: f7c8 f2eb 4ded c9bf b5cc fb7d 15ce b73f
00000460: 83e6 5fe6 93cc 59bf 92a9 836b 30d6 b3bf
00000470: 978a 6903 ff50 823f bbed 6a57 e060 c3bf
00000480: 779b da28 f7e1 ad3f 7fa6 60ef d64d d63f
00000490: cdbc bcaf 61d8 c33f 7e43 22d2 97b5 b43f
000004a0: 027e ea3a eecb c5bf e8e8 260b 0f06 c4bf
000004b0: 853d b9c1 a1c8 9b3f 5c69 429d a5f8 a8bf
000004c0: 28e5 b01f b32d c73f d117 d7a0 ba40 bd3f
000004d0: 2f67 21a9 3ec4 d43f 05a0 d559 aa6f a93f
000004e0: e6cf e9c9 c46f b53f b0fd d8ff 1bce bd3f
000004f0: db8c f33a f546 d03f ffd6 856e 6231 aebf
00000500: b4ba 435f 5f13 bb3f b965 d9c2 bb48 c23f
00000510: c2e7 d8df 2fed c13f e070 c075 b5d8 c3bf
00000520: 51dd fd75 7012 c23f 8f1d 8118 5cac b7bf
00000530: 9c5e 74dd b54b a3bf b622 1fc7 830b c5bf
00000540: f96a da70 be5c bb3f 8208 cfca b910 9bbf
00000550: fbad ba4e abdf b8bf 88a5 cd33 8776 b3bf
00000560: a2bd 4e69 bb7d b6bf bddb 1b57 15d9 d23f
00000570: 037d 29b3 2173 cf3f 05d1 08b7 290a b33f
00000580: d348 9c9c e488 b53f d083 8aa9 a7cb c33f
00000590: 47fd 945e 1eea c83f e804 b712 a888 d63f
000005a0: 8f1d 2bfe afa7 a83f 1978 2acd 5a8a 9d3f
000005b0: 691a 8c1c 4c2a a5bf cb5e 3c81 ee3a 66bf
000005c0: b8fe e4c1 112d cf3f 1cfc a693 d55c c53f
000005d0: e070 21cb f312 c23f 9e45 3657 3525 9cbf
000005e0: 5148 8c59 c450 d43f a4df ae9c 123f c3bf
000005f0: 5811 5dcb a651 d63f 76b4 804c 501d cf3f
00000600: db4c 344a 24bb c93f b73d 8589 5ec3 c5bf
00000610: 1355 6d1b 6ce0 a43f f81a 67ed 5603 74bf
00000620: 4c8f ae32 ad72 ca3f 5192 4292 7a84 bbbf
00000630: 143e 380a 0728 a93f 031f 6ad4 1ac3 c53f
00000640: 1ffc 9559 399b c63f a5cf dda2 0f7d a13f
00000650: f7d4 2261 5d3a c63f c8b2 a366 9882 b73f
00000660: c256 c247 5d83 c93f 1666 b964 ca4f d23f
00000670: 5043 6a45 d25c 9b3f 946c df35 6359 93bf
00000680: 3bfd 7052 9468 a4bf 27cf 84e8 c8ea af3f
00000690: 41d6 9a63 38d1 9a3f c03f 869d 6e94 d43f
000006a0: d709 f094 41f7 d13f 6a4f 8516 d953 af3f
000006b0: 9abd 95b5 9dfe d63f 5ae0 32fe cfad b9bf
000006c0: 32c5 77f7 1c81 99bf 62db 5bba 61a6 9d3f
000006d0: dc30 ad3b 44df a73f 65f4 bbfa bd35 d0bf
000006e0: b294 1ce0 9947 c53f d64b 6f67 a86d 8ebf
000006f0: 035f ade3 f157 abbf bf03 4458 096e de3f
00000700: 32d9 5ff2 fef4 bbbf 529c 4855 b98a a43f
00000710: 31f9 e638 174c c13f 35c9 37b7 1f1d c13f
00000720: 9527 99a2 422f c3bf 4310 61ca 23af c3bf
00000730: c9c3 e83e 6f33 afbf 50dd 4731 2f7b c5bf
00000740: 3eaf 68c3 e2b7 b5bf 1725 7836 e487 b93f
00000750: f5fa f443 70ba c6bf 1acc 0e18 7a2c 9fbf
00000760: f07f 10a0 b72a b7bf 05d9 e164 5c8c 513f
00000770: fbef d112 291c 983f a866 4ddf 9a85 b5bf
00000780: d356 526e 8304 adbf d603 ced2 f8eb c2bf
00000790: c238 8cd5 3163 b33f 6c3a 5b8f 3381 ac3f
000007a0: c28e e81d 1577 a0bf c131 1526 5540 983f
000007b0: 3e07 a200 c741 c6bf e601 55ff 33ee c2bf
000007c0: 3664 b1c8 369d b2bf 7e17 3097 cb41 c13f
000007d0: ca85 7eee 8ec1 c13f 5181 4542 5416 b13f
000007e0: 6064 44a8 5cd9 c13f fddf 2cf9 17a5 cabf
000007f0: 631c c019 4c55 adbf 119a 6636 d287 c0bf
-0.09432368553544852 0.07556308643242544 0.1115805437494794 -0.17574382862271337 -0.01710598196448817 0.16055408552388778 -0.04729984940417223 -0.14266627308319335
0.013417330538029754 -0.009743182689456311 -0.16882044211519923 -0.020604610273952353 0.16609717248037245 0.0024203386491759293 -0.11843311854081451 0.12234822437174575
0.09625377335321263 -0.06788529913104216 0.1367606026844012 -0.12146881330645669 -0.13194828254789193 -0.1929229262496452 0.08056887597275346 -0.14695470987563228
-0.1339723335494046 0.020396254056174828 -0.167246884114665 0.145178154543736 -0.11272848137158546 0.1035372002232885 0.09723196222212686 -0.09688769223281024
-0.08337662782294965 0.19589079203173573 0.030989356573791576 -0.06124123491129053 0.18242588911397392 0.06376793825785922 0.280022113977172 0.055177076712074384
0.30058089726148535 -0.11961460377894063 -0.050958092724816856 -0.32294067556157185 0.09883113140774084 0.2897268486119155 -0.03917371269743239 0.06802314500213695
-0.22215928035262492 0.11774599649300906 -0.11338293171556275 0.05312963555295259 0.186780893110588 -0.1165815217319625 -0.0778046878877904 -0.012869311802018519
-0.0956939519021368 0.020325061767139396 0.045666767650161824 0.12630562584900418 0.06032101360310788 -0.08167762148968287 -0.050576945927094136 0.2082469767203254
0.08984803175090893 0.0588096728066994 -0.1084129512476544 -0.13659452751667844 -0.29473383162804884 0.14945872625895618 -0.12404881286790978 0.011661166769273104
0.013337599691500415 -0.026247480010665777 0.053593271553050846 -0.010066501972457391 0.10725892835677026 -0.04132133093497563 0.07766748916369363 0.01904979330554266
-0.13249295854060725 -0.05715026546194012 -0.17133427001334037 -0.16991430556090645 -0.054455344973577215 -0.2107292263182702 -0.3104131343727767 0.09998948826314767
-0.13705340961786724 0.07057257768273012 -0.21586070760422985 0.1335150442314047 0.23091440457804266 0.08533967033052169 -0.1443559938336677 -0.11916286253592086
-0.18009904501779342 -0.1204371767960463 0.28256337164188844 0.03203474269113958 -0.14395254960311038 -0.13921885054175415 0.03151330330130953 -0.1374809910334255
-0.24186245203546428 0.1332673668838541 -0.03667508493988472 0.07362825283478676 -0.3434994364772894 0.17629288310088997 -0.09605710351860415 -0.024034203687422748
0.12256369421410516 0.10974058490296641 0.18632668020186408 -0.22062886608048732 0.1753788149817165 0.13971668578193533 0.5000261607192644 0.0598910459602072
0.10224118247105665 0.1639963051232594 0.02525869605804983 -0.10296300082687042 -0.029619898129877798 0.13413501671920638 0.23663181229832195 0.19540866323594505
-0.10057949682370952 -0.2696687565949955 0.2813799329586987 -0.14452946977132733 -0.4118856841700699 0.15291339422051736 -0.18468894344519232 0.018310248634434326
0.012528090050440607 -0.09773981386249282 -0.2025544550029463 0.09298834157725618 -0.00157465403890314 -0.07748701691494933 0.008943550387987371 -0.15139393108789342
0.05836460469918497 0.3485009515448851 0.15504094201012322 0.08089589004727135 -0.1702859676051816 -0.15643489880114392 0.027132537316274536 -0.04877202553434998
0.18108214423572488 0.11426893641245718 0.32447783009193903 0.04968006464588374 0.08373670510792372 0.1164262294414502 0.25433092839211974 -0.05897052382617395
0.10576435161395176 0.14284464849587922 0.1400508730892494 -0.1550509285888273 0.14118772279082717 -0.09247375105143461 -0.0376869995909008 -0.16441390249953763
0.1068839097519393 -0.026430991176092274 -0.09716292068576841 -0.076027345797817 -0.08785601922021738 0.2944997168228232 0.24570103881976743 0.07437382429708712
0.0841200716352291 0.15465255525944466 0.1946447336031076 0.35209085300091525 0.04815435388223498 0.028848093769390546 -0.04133832787015452 -0.002713647680035657
0.24356290786271528 0.16689557752212714 0.14120337885368084 -0.02748568863677791 0.31742962593955776 -0.15036232615034095 0.348733614537442 0.2430820821331598
0.20102361319786763 -0.17002469744555324 0.040774706218750144 -0.004885997352579656 0.206624650713929 -0.10749021597673304 0.04913351058723606 0.17001662608912946
0.17661206125555481 0.03415726531139222 0.17365615122768194 0.09183647638173931 0.19932142261375502 0.2861200317034628 0.026721272932778206 -0.01889567390740561
-0.0398603773724013 0.06233814085353933 0.026188736991306753 0.3215595758747405 0.2807163195103874 0.061186584471811425 0.3592905305185582 -0.10030841785453629
-0.02490659008430391 0.02895500850624034 0.046625263485653184 -0.25328015790711894 0.16624759142829287 -0.0148575932088643 -0.053405341189032306 0.4754660951585343
-0.10920709054321234 0.04012087980327607 0.13513460424832993 0.13370129057109073 -0.14987976970070052 -0.15378234273714683 -0.06093928950247791 -0.16782178789410773
-0.08483712454534229 0.09972978906457218 -0.1775646526166025 -0.03044310352170152 -0.09049556405852832 0.0010710623060084534 0.023544923566518588 -0.08406990005223725
-0.0566750595254867 -0.147826292926793 0.0757323404652395 0.05567322850184983 -0.0321585272797882 0.02368290944041163 -0.17388236552147335 -0.14789438216577294
-0.07271139526109568 0.1348204124662366 0.13871943135477088 0.06674696557957317 0.13944586006326443 -0.20816325823557227 -0.05729139150940268 -0.1291449323300218

module.feat_mlp.2.bias f8 [32]
00000000: 4267 2210 966e a4bf 4fe7 6925 599c 9b3f
00000010: a19e 03d6 f5dd c33f 3c77 7626 c32a a6bf
00000020: ba9b 9c85 85b7 b43f daff 73f5 cc5b b4bf
00000030: 1c46 1901 afb9 b93f f833 ed59 ccd8 b8bf
00000040: 5ef1 b046 db72 ba3f 10ed b6de 5c93 9cbf
00000050: be2b 4387 579b b43f 0521 308d 2e0e afbf
00000060: 0ec3 8833 a214 8e3f c626 8e9d 68c8 a7bf
00000070: d4a2 f15e 13f7 a93f 1043 7137 47ff 76bf
00000080: cdd9 0637 fcd5 92bf 75e3 7d0e 894d c0bf
00000090: 9782 b90f b5b1 b13f 4e69 b1a6 7c38 bc3f
000000a0: 8a13 b010 8ee2 cbbf 1337 d744 fc29 c5bf
000000b0: 195b ac4c d7e1 bcbf 6022 9e7f cd65 81bf
000000c0: 9b29 de84 3e09 b73f 8f2e 4773 6d59 c6bf
000000d0: 7561 ee2c 747f b63f 2f88 a41c 68aa babf
000000e0: f874 b0c0 13ee bfbf bb1a c5e8 b327 b4bf
000000f0: a8da 7203 7897 a13f cb23 a339 9495 aabf
-0.039906205625085636 0.026963608654546885 0.15521119069966452 -0.04329500050083232 0.08092531692510266 -0.07952576630123023 0.10048955704521528 -0.09705807872269634
0.10331507182940444 -0.027905894368569995 0.0804953294020114 -0.06065507386671424 0.014687792966556337 -0.046450871689626846 0.05071316274626772 -0.005614546003088319
-0.018394413813178013 -0.12736619193654133 0.06911784776594697 0.11023692197469367 -0.21785140814622778 -0.16534379350053338 -0.11282106038957486 -0.008494954545100686
0.08998480552523917 -0.17460411194621314 0.08788229081108574 -0.10416269969258062 -0.12472651914909594 -0.07873081620082704 0.03435874025438085 -0.05192244723873037

module.feat_mlp.4.weight f8 [32, 32]
00000000: ce79 3fd0 9cbc c33f 08a0 aa60 5942 d03f
00000010: cb48 cf9c 9af1 c7bf dc29 4813 a01c c73f
00000020: 890a 7f1f 217f c03f 5e72 c103 8c31 d43f
00000030: 2ac8 09d4 2811 b0bf d2eb faf8 4abf aabf
00000040: 0b62 e185 ed19 d13f cada 233b 097d 49bf
00000050: f8ee b023 9cd6 c43f 6d67 5d93 331e af3f
00000060: 7bee df67 ae37 b93f 1b14 b4eb d7e3 d5bf
00000070: 586f a896 f620 afbf 4ce5 030f 2b91 ce3f
00000080: 6d44 6197 2478 babf f168 ba3a c069 983f
00000090: 63c0 a7eb f932 adbf ac72 eaa9 3114 c1bf
000000a0: 9d34 3a14 6ed0 b7bf 667d cd47 c70a c13f
000000b0: 31db 7426 a5a7 d13f 02a4 fe0a 564b b83f
000000c0: a4a6 2e45 1bae c23f 0bbc 699c 5dbf aa3f
000000d0: ec17 de7e 6334 d83f adc6 f156 c4f9 b8bf
000000e0: f1bf b08e 14a9 c23f f78e cb01 aaaf c0bf
000000f0: 4a6e 7778 4353 c0bf 5177 0c82 0632 743f
00000100: 825e e4aa 07be b9bf d625 bb38 dcad 8e3f
00000110: a583 cb0f 2108 af3f b183 6da6 0552 b13f
00000120: 9386 6c70 98db b43f 6c3c a4c9 3b09 b83f
00000130: 23cf 1fc9 6fda a03f e371 9dd9 1d44 b6bf
00000140: 7148 77fd e24f b83f 4c1f e284 01b7 bcbf
00000150: c187 e8e2 c94c c1bf f131 7c74 412c b43f
00000160: 2da2 6ea9 b702 bfbf 95cd 25fd 43fe c6bf
00000170: af82 f233 879a bb3f 2c0e 02f8 70c9 b6bf
00000180: 4e5e ee21 4ed0 943f d4d9 2171 56ae 72bf
00000190: 7035 6152 8bc5 ce3f 396d 2d20 d682 b8bf
000001a0: dcea f79e a1be 573f 805f 2c86 eed6 5dbf
000001b0: 0c3d e02c 0bb8 cc3f 69da ff3e 5bf4 c83f
000001c0: 7dcb c7fb 3651 94bf f4d5 7b7d e7a0 aabf
000001d0: b74f ed88 d232 ca3f c957 28d4 9121 b83f
000001e0: 7724 2e94 6d3a 773f e79e 6b43 2c4f b6bf
000001f0: 6365 dc65 5e7b b3bf 4cf0 8014 6e20 c6bf
00000200: 5891 faaa 3a99 c2bf 63d8 b79b 0ca7 ce3f
00000210: f10d 1bd7 97b9 8f3f 8860 103d ad02 b1bf
00000220: 8adb 0c44 1bcf c03f bdc8 eb09 7c82 ca3f
00000230: cce3 f41e b0c8 b23f 8a53 e735 b774 c23f
00000240: 2cff 4616 76a6 86bf ee9b 9ef3 87bb c73f
00000250: 9dc5 b398 73ff babf 43e5 2701 9ff1 b9bf
00000260: c85c 5efd 0df2 a23f 5dec 176e f989 9cbf
00000270: 4a4a 551b dd1a bb3f f3b9 1eff 1a7a d53f
00000280: 3b1b aa38 e62b c63f c1ef cba3 9d41 d23f
00000290: 3a9b 7e08 9789 723f d271 7d75 45fc bbbf
000002a0: 43b3 9090 2cef b53f 406f 9964 9b46 c9bf
000002b0: aa9d 0b57 53f7 b03f 3821 4f8c bd9c b8bf
000002c0: 458a 6d97 7987 923f 06e3 6ebc f907 c33f
000002d0: 5977 611f a526 bf3f bb23 f534 b400 ab3f
000002e0: ad6c 3b69 2a7b b03f 304e 8b12 09b3 bcbf
000002f0: 942e c3f6 0f1c bbbf 4281 10ed f6b3 c53f
00000300: a70d fcd4 9919 a2bf 2bf4 2d5b f7eb b93f
00000310: f545 0719 3716 aebf a25a 861d 001d b83f
00000320: 275b ee87 9c91 bb3f cb35 dd2b 11af b1bf
00000330: af30 4ada e413 96bf 6ce1 9b12 caa9 bfbf
00000340: 00ce dc26 2a91 b03f 5e72 2a1f 86ea 943f
00000350: e8e6 8142 e3fd b6bf 57fc 4526 e32d c3bf
00000360: 923a d731 0046 b53f b73e 9f8b 2fe5 b7bf
00000370: 9084 92b1 51e8 9bbf dcca f794 a3d9 983f
00000380: 66f8 9da9 314b 8b3f 3909 4eac 1972 b43f
00000390: c350 9eab ba40 b4bf 0380 6ddb fb23 b13f
000003a0: 2169 2cd1 99f8 a8bf 70bd f463 b205 6ebf
000003b0: 07c5 1909 a549 ae3f c14e 792f fe43 c13f
000003c0: dc48 586c a977 b6bf b645 8202 1311 c7bf
000003d0: 3c14 fe52 ed90 a5bf 313a 6077 30a2 c03f
000003e0: 6633 ce4c 88aa b7bf c8ac 1f00 d18f bb3f
000003f0: d0f8 73d6 8b8e a33f 5ad6 26c6 e1a3 96bf
00000400: 6480 8165 fec3 9abf b681 a46b 0ac8 b4bf
00000410: 675b 3852 a068 c13f 4266 3c2e a5da 893f
00000420: ffc1 045a e37a cebf 17cc 4e61 798a bcbf
00000430: 3210 c607 5bb5 b0bf db0e e921 6235 c43f
00000440: 72bb 8198 06d5 c4bf 1be6 599c 054f 83bf
00000450: 5c2c 748f a1d6 b23f 9966 f926 6c88 9dbf
00000460: 191c 063d daab 973f f4fb c115 080a bf3f
00000470: 0c98 7963 ebcf 413f 5864 b60c 5c53 babf
00000480: 85d5 3494 2c64 bdbf a2b5 0963 1051 cebf
00000490: be1e d803 d3c0 cfbf 0125 6da9 de57 cabf
000004a0: 776f dd35 96b4 95bf 94dc 68bc afd6 bcbf
000004b0: c098 6fef be48 b3bf 8a51 f418 42dc babf
000004c0: 8139 b3c0 0588 7a3f 4f4c 2af7 7d00 a4bf
000004d0: d2d9 8954 5387 a8bf 8be8 03a9 57c9 c33f
000004e0: cd56 cf49 4623 a7bf 728e 5ac8 e924 b03f
000004f0: 2917 48db e9ba bd3f b933 6041 47fe a63f
00000500: 3546 5aa1 4b8c bcbf a1f5 200f 429c a4bf
00000510: b2ae b9cc 652f 9d3f 7c98 62a1 ebfc a13f
00000520: 93ef 7a56 7682 c9bf 9299 4cd1 33b5 c0bf
00000530: 9a3f 12c2 164f babf cc99 13f0 62d0 bc3f
00000540: 6d3d a8fe cb30 9d3f 9bdc 14be 5cbd aabf
00000550: dd33 d24f 38c3 c13f 7a88 5157 bee5 b0bf
00000560: ba82 04d0 61c3 a1bf 4266 7b76 a443 adbf
00000570: aa23 8acc 5cf0 b13f c66c 0d40 e17d 883f
00000580: ef21 9644 23c0 bdbf 426f cc96 6311 ccbf
00000590: a4c7 95cb f141 b73f 1042 5598 435f c73f
000005a0: 7aa2 77a1 d3cb c2bf 81b9 4246 2019 b33f
000005b0: 22ed a138 5c2d c03f 8307 b672 9002 b6bf
000005c0: eafa 348d 296a b03f a2d9 2186 ff5d bbbf
000005d0: 25bc f65e 0b25 af3f 7f99 7897 6a04 62bf
000005e0: 1cf2 6c75 916c c4bf 2cd4 6f19 e4bd c8bf
000005f0: 73f2 ff5a 73d7 c7bf 8669 2184 3ed2 b13f
00000600: 0947 64f6 3546 a23f d958 6620 b864 c0bf
00000610: 4154 5a96 a283 5a3f ec76 0c27 ad9b bebf
00000620: 3070 2971 bfda bf3f 0588 e7bf af6d d1bf
00000630: 391a 4263 42f5 99bf 03f0 1cdf 9cde bbbf
00000640: 846c 6e5d 82a8 713f 3008 d62e 5e7c c1bf
00000650: 4e96 7be1 9fdb c5bf f3c5 52b4 331c c73f
00000660: 71d3 746c 9b9b b6bf f341 fb83 4bab c2bf
00000670: 2924 dd86 8bcc c1bf 7d3b 393c bcb1 abbf
00000680: f3e2 4e89 8aa1 b3bf 50b0 e5f1 5e75 a83f
00000690: 5261 56ab 664a babf 68d5 02bc de1c c7bf
000006a0: c64b 85da 7218 b1bf d27f 40dc 48c3 c73f
000006b0: 6202 db87 03cd a83f 978b 5fa5 fb7c ba3f
000006c0: 7e11 1248 9d81 ba3f 06c0 0ef6 4b62 c2bf
000006d0: 1a2e 1264 ec57 ad3f 9f83 1450 f8b7 c53f
000006e0: cdcd 826d af2e 973f 183a 5c11 2ee0 a33f
000006f0: 7a6f 3eec e4ed 98bf 9abc ef7e 3869 b33f
00000700: 718b 2d46 3120 b8bf bcb7 2e61 64f6 c0bf
00000710: 8342 1067 6600 c2bf 2626 39a6 05a2 c5bf
00000720: 9c1f 738e c14d b53f fe64 bec7 b883 9d3f
00000730: a964 45ce 5634 b53f 9148 4744 fc27 ae3f
00000740: 784d 0775 b82b b93f 2208 a681 0bed b4bf
00000750: 97c0 68d2 c0d3 bb3f b33c 9e9e 5003 aa3f
00000760: 8021 ed98 f5e2 afbf 7a09 8963 b6a9 b43f
00000770: 033f 3a4d d099 c3bf 3ed4 8a36 f2bc c0bf
00000780: 7bc5 644d 2396 75bf a8e4 6794 140b c3bf
00000790: 27a5 6188 e1ed a3bf bfbe 8e99 5e05 9c3f
000007a0: 46f0 8842 bc11 a03f 1d92 3d5b dc5e b13f
000007b0: 28a6 57c4 7484 813f 0a08 7e04 a122 8bbf
000007c0: d4a4 43d7 f28c a83f b085 59ca ed11 c0bf
000007d0: ab5d 1c3d ed7e 943f e46f 5a90 2b10 c3bf
000007e0: c336 0b80 6eda bd3f 95ab bb49 4f88 ac3f
000007f0: ab3d 7d3e 61ae b2bf 8d0b 5b3b c070 a5bf
0.1541934983096795 0.2540496295937378 -0.18706066757892467 0.18056107465265725 0.1288796809950166 0.3155241047550471 -0.06276183296884655 -0.05224069871243099
0.267207508795338 -0.0007778449128455708 0.1627993749879051 0.060777293909906806 0.09850587879184929 -0.34203145997918377 -0.06079836453520099 0.2388051818195812
-0.10339573570060319 0.023840907654268887 -0.05702954293872222 -0.13342877194090386 -0.09302413934547578 0.13314143186560584 0.27585724597468003 0.09489953773903895
0.14593830946005426 0.052241254180323514 0.3781975497189467 -0.09756114123026789 0.14578492133432477 -0.1303608425870306 -0.12754100210337277 0.0049305204600196975
-0.1005558769432984 0.014980049592298633 0.06060889547166618 0.06765780747583851 0.08147576088642898 0.09389089272393542 0.03291653947954234 -0.08697687685839343
0.09496897400029682 -0.11216744894238423 -0.13515590266712077 0.07880028814196983 -0.12113521467711826 -0.17963456974721895 0.1078266622375945 -0.08901125006564631
0.020325871296874624 -0.004560792602310976 0.2404035713429198 -0.09574640546400283 0.00144925864503758 -0.001821263250070232 0.2243665665741691 0.19495716644424313
-0.019841059796771077 -0.05200885206970077 0.20467597661865763 0.09426223210934305 0.005670955698300443 -0.08714558263784121 -0.07610120760764043 -0.1728646850696144
-0.14530118321011787 0.23947293857026172 0.015490709545139732 -0.06644709339923527 0.1313203890110482 0.20710707172799472 0.07337475543762578 0.14418687946331615
-0.01105968718991298 0.18541049380766544 -0.10546038129884612 -0.10134309557169723 0.037002980402741026 -0.02787008032281012 0.10587865750611872 0.33557772554459503
0.17321470038242545 0.2852548694206654 0.004525747273794784 -0.10931810491951602 0.0856807568495244 -0.19746725475385496 0.06627388835078443 -0.09614166903987076
0.018094920985627167 0.1486808939059971 0.12168342605715789 0.05273974558310309 0.06437935895103193 -0.1121068640016396 -0.10589694761727692 0.16955458236135185
-0.03535156941327538 0.10125680900633031 -0.05876323872110937 0.09419251175709545 0.10769060438756793 -0.0690775615778058 -0.021560264418938043 -0.12368452982253125
0.06471503685752822 0.020425887729844987 -0.08981151937214416 -0.1498378693467852 0.08309937683882598 -0.09334084662190888 -0.02725341459575198 0.02426772686699051
0.013327014912416679 0.07986603218708845 -0.07911268892195537 0.0669553194725268 -0.04877167395007321 -0.0036648258389033114 0.05915561424343179 0.1348874790006587
-0.08776339430940844 -0.180208564972913 -0.042121330624504044 0.12994962529087808 -0.09244586825498188 0.10766321423550373 0.038196916511866186 -0.022109534949512934
-0.026138281770159102 -0.08117737892144458 0.13600543989806654 0.01262406394339444 -0.23812524695814827 -0.11148794770888092 -0.06526726665293905 0.15787912994175354
-0.1627510304128595 -0.00942806609531304 0.07358751060762486 -0.02884072292213222 0.023116502737618647 0.12124681979365431 0.0005435847624084568 -0.10283446607935909
-0.11480978601760768 -0.23684887729488674 -0.24807202995019922 -0.2058065726544456 -0.02119669631734619 -0.1126508555397428 -0.07532876344302775 -0.10492337331044702
0.0064773773876382066 -0.03906625406411789 -0.047907451696051276 0.15458198311518276 -0.04519099856376627 0.06306325093697199 0.11613332370333453 0.04490873978657057
-0.11151573838494573 -0.040254654261370655 0.02850112020534707 0.03513275475533903 -0.19929389212290669 -0.13052985877693551 -0.10276930082386429 0.11255472527736926
0.028506457727471558 -0.052225969508463886 0.13877014062418783 -0.06600560790823976 -0.0346937719753035 -0.05715669580758888 0.07007389062540761 0.011958846823907254
-0.11621303963159567 -0.219280670768848 0.09084998340929801 0.18259472787987407 -0.14684529670855168 0.07460214343402606 0.12638428464183799 -0.08597662735522076
0.0641199083083667 -0.10690304779732299 0.060829501478444827 -0.0021993715161158773 -0.15956323846502662 -0.19329501382859016 -0.1862625307402542 0.06961432195513426
0.035691915824044136 -0.12807370740910676 0.0016182983175998674 -0.11956293299996518 0.12443157685032769 -0.2723197340075106 -0.025349652584305302 -0.10886555144401204
0.004311093557500038 -0.1366079071704589 -0.1707649088850069 0.18054815583086245 -0.08831187627658978 -0.14585250801475488 -0.13905471882961365 -0.05409038767958572
-0.07668367244958656 0.04777046873900359 -0.10269776995699445 -0.1805685441992566 -0.06677930674531671 0.1856471133660294 0.04843913110153576 0.10346958911354275
0.10354025849853163 -0.14362477793247325 0.057311427322101774 0.1696768179909016 0.02263902765180408 0.03881973230283026 -0.024344994467909477 0.0758242902663703
-0.0942412182171617 -0.13251929040182897 -0.1406372073402232 -0.1690070211064249 0.08321771362090974 0.028822791282071762 0.08282988105692603 0.0588988145206183
0.09832337243215317 -0.08174201884506307 0.10869984757369121 0.05080654083496352 -0.06227843753601103 0.08071460657177978 -0.1531315209472198 -0.1307661787338094
-0.005270135783847048 -0.14877564665201715 -0.03892426290333111 0.027364233133708945 0.03138531028932383 0.06785371043731243 0.008553421251195806 -0.013249643277735163
0.04795035245644788 -0.12554714565616854 0.020015436987788664 -0.14893097446918013 0.11661425233907168 0.05572746062337967 -0.07297332549682405 -0.04187584614330495

module.feat_mlp.4.bias f8 [32]
00000000: 4015 385e 0aa5 c0bf 299d 18a4 64f8 a9bf
00000010: f2a1 8326 1800 b2bf 41e8 35dc a951 b4bf
00000020: 5497 b289 4d0b c53f 1f05 3360 2d11 c1bf
00000030: 312b c59c f793 c33f 9aac e0fc f784 b03f
00000040: 750e fdc1 aadb be3f 6924 0c51 73a9 94bf
00000050: 659d e6a4 175b b93f 5eff c3cc b506 b93f
00000060: 859b d783 33e6 8cbf 4a61 2e4d 0448 b2bf
00000070: f59e db57 cba4 98bf 8c11 e493 6aa2 bbbf
00000080: e742 88c9 206a c5bf ad1e 57a2 03dc b23f
00000090: 17c9 e2d5 1a49 a0bf aa87 e3fa 2e57 b93f
000000a0: 7b56 49b4 0243 73bf 55e3 9378 a0d6 b33f
000000b0: ef4c fefd d9d6 8f3f b7b2 4c4b 845f c3bf
000000c0: f4a9 a938 8eaa b6bf 7023 610c 2632 bd3f
000000d0: db39 2222 ec69 9ebf e1f1 82aa eb3f b13f
000000e0: d5d7 dbd3 816d aabf 4684 0e6a da72 a6bf
000000f0: 5e44 6b9b 2527 b3bf 5df5 68ce 62e0 b53f
-0.1300366363576959 -0.05072321417929466 -0.07031393947875822 -0.0793710863707995 0.16440743659512214 -0.1333367080424432 0.15295310168070267 0.06452894138117174
0.12053935276076706 -0.020177652189009274 0.09904620910548585 0.09775863885078936 -0.014110949002270843 -0.07141138920122106 -0.024066140401287368 -0.10794702635400294
-0.1673012718242923 0.07366965020548362 -0.03180774556075699 0.09898656487669535 -0.004702578128293329 0.07749369567671967 0.015546515525591135 -0.1513524406122053
-0.08853997119300755 0.11404645731194107 -0.029700936873774935 0.06738160050276278 -0.05161672316710023 -0.04384501022946856 -0.07481608433160278 0.08545510806375974

module.transformer.to_qkv.weight f8 [96, 32]
00000000: 4926 eb1c b542 c33f 8909 a0e4 362a b2bf
00000010: 2a03 c6d5 4e34 a3bf 92d6 122d eb3c bdbf
00000020: 69e0 6a14 603f a8bf bca1 bbf3 f46a b8bf
00000030: 53b2 d6c9 ffaf c93f e743 5701 5cc6 bd3f
00000040: 4457 ab73 0b3b 983f efa2 58fa 39d0 c2bf
00000050: 7fbc 59a8 0990 873f 5ebf 9c21 a717 c0bf
00000060: 377a 3497 19b2 abbf d052 41b5 acd8 bebf
00000070: 582c d2b4 2273 d73f 1876 9183 6067 c5bf
00000080: d58d cda9 07ab a93f c54c 4630 c76d a73f
00000090: 1122 7a49 e803 c63f 2ba4 596d a3d6 d93f
000000a0: 482b 5c28 2b35 a23f 515b 98e1 2d78 bf3f
000000b0: 81aa ad99 133f acbf 817b b425 6c0f b03f
000000c0: 338e e53b 30fd a73f ac41 fec3 381c c33f
000000d0: 5128 0d76 08fd 67bf b332 dce1 e3bf c43f
000000e0: 2920 979c e9c4 ba3f 19c8 feba f93f c83f
000000f0: 99e4 00bb b2f9 b0bf a9e3 f04a 1467 babf
00000100: 83d6 69fa 613d d1bf d34e c81b 60c3 c3bf
00000110: a52f 2808 58f8 c1bf 9124 27c5 a5e4 d3bf
00000120: ee7e 1013 041e da3f db22 2685 fe94 c33f
00000130: 51f6 a564 a8ad bcbf 9ba8 bdcb a9da 9d3f
00000140: 06d4 2175 f6bf dd3f debc 57d4 63d8 d83f
00000150: 7b25 aff2 d307 d33f cda4 2526 0746 d03f
00000160: ef30 ee32 2654 c13f 2b79 07dd d87f d03f
00000170: bcfc 7fa8 b5f7 c7bf 5640 1050 2952 c53f
00000180: 9631 3f54 14bd b53f 4803 6520 e23c 9f3f
00000190: 83f3 a21f a9e5 b9bf 9f5e 3fed 94cf b8bf
000001a0: 0e29 8a5d d52d d33f 89f0 648a 224f cfbf
000001b0: 1da1 a010 5540 c73f 837d b824 fa8c 72bf
000001c0: 237b cedd eba5 c5bf 31c5 5c31 b28a d8bf
000001d0: 898d 0c0c 761d c7bf 223f db2a 06d9 7fbf
000001e0: fd5f 1ea0 93a9 afbf a8a3 1f7b c609 c5bf
000001f0: 05f5 44fa ba52 c7bf 6a4b a5ea b649 d63f
00000200: 62ed fa86 f418 b73f 60af 7914 349e ccbf
00000210: bc10 fe57 03fb d2bf 0070 e536 6793 a9bf
00000220: 12f7 fabb 1f4c d93f 3195 07da 68b7 afbf
00000230: a84f 951a 4278 c33f 7fb5 086c 1707 c2bf
00000240: 9500 7803 5cf6 b63f 263c 06df d47a d5bf
00000250: 8cf1 aea4 463a c53f 75d6 c10e 8bfb c13f
00000260: 9028 90a3 d203 b6bf bb78 0b47 0acf c33f
00000270: 909d bfeb 76bf c3bf 06c4 9c22 bf22 a93f
00000280: f0c2 3453 9d69 c1bf 4957 94f9 5ef9 cf3f
00000290: 65f3 335a 0b0d cdbf 82bf 94b0 5da0 c03f
000002a0: 0a9b dcc2 4aa5 aa3f 5419 c416 6cb8 b73f
000002b0: cf08 3699 2f6a ce3f 3809 0568 a846 c7bf
000002c0: f688 0b68 70bf d0bf 52be f615 0320 a63f
000002d0: 2390 4ff9 932a d5bf f6b1 fe68 7471 c4bf
000002e0: 1f78 c22b 59d7 b3bf 7f2c 0eed de7e d8bf
000002f0: 326e 40e8 ab9f b0bf aa9f 75d5 00a2 c13f
00000300: 2262 f594 b946 ccbf acd0 603e 858e 93bf
00000310: 55ef b1e0 2dc5 b0bf 7963 e098 4918 d8bf
00000320: 142b 8a5e 1eea ce3f 546f 1a35 3ebb a2bf
00000330: c5d0 fba3 172a cb3f b205 b4b6 3d1c 943f
00000340: ec19 f454 efbd d53f d8c3 1c32 7796 ce3f
00000350: e5bc 0666 fcf8 bd3f ff7a 50e2 a10b b03f
00000360: 9fda e2e8 7204 b2bf 7f12 6a46 6fe8 d33f
00000370: 54e6 2267 0bb5 c13f e467 c54b 95af b8bf
00000380: 46c6 4238 1e96 ccbf ccaa c032 dbc2 a33f
00000390: 64ab a865 0437 b1bf 1ec7 8781 33fc dabf
000003a0: c960 aa51 d4f7 c7bf 6524 39d1 832e cbbf
000003b0: 6e69 fb48 1395 a2bf f613 55d2 8310 c7bf
000003c0: 5e7f b833 68d1 bbbf 5219 7608 5c7a 7f3f
000003d0: 7b31 c325 1894 afbf 7a58 e875 81f3 d13f
000003e0: 6f9f 25b4 dbe1 b8bf 58b8 c81e 6b15 a73f
000003f0: d601 aee5 1144 a23f f243 5cee 6215 c5bf
00000400: e0da 919f fb8a c83f 2d97 514f 5c33 acbf
00000410: 90cf ebff a2c1 b8bf 907c 0339 4b84 bbbf
00000420: 9483 beb7 65c0 d03f c5b0 1dd6 15da 72bf
00000430: 2d83 abc1 5d88 c23f 0e79 a0cc 0969 ccbf
00000440: 441e 1c12 974d 4cbf 2dce eb46 6ec3 b83f
00000450: 3f38 1dac 5953 c43f 4495 d8c6 b5ad d83f
00000460: 9411 c230 6917 b13f 79f6 171b f29d cc3f
00000470: c0aa 98f5 ff2f 98bf eec4 dceb 3ff2 95bf
00000480: e806 d619 49b8 c23f 2ada 93a5 b180 a4bf
00000490: 686c 01c3 35e6 c7bf 5346 6be3 cd77 c9bf
000004a0: 9023 17b1 c2e6 b63f cf83 419d 33bd c2bf
000004b0: 4a11 629f 7e59 c03f ab23 8fe2 3c0b b3bf
000004c0: 2183 cb8c 9a61 ae3f 4270 e49f 8603 a8bf
000004d0: 495e 6791 a469 bdbf b1b6 98b6 252c 4ebf
000004e0: 35c7 e9ac 1921 cebf b954 da87 2cf6 923f
000004f0: 9ffb 27e5 160f a7bf 0351 1b78 6a19 be3f
00000500: 3df1 89a3 63e4 d33f 4015 6992 43be cbbf
00000510: 45eb a52e 8658 c8bf 2b0c b6da 297e 6d3f
00000520: 79c3 3bf2 46e0 c8bf d12c ec3a ae24 d53f
00000530: 6677 3bfc 7ec1 d4bf 8aff 5b93 ffdf 973f
00000540: 2c8a a6e5 9e0f d4bf 206e d678 aa1b cabf
00000550: 1e3a 7804 f624 a73f 38cc cf00 03aa b03f
00000560: 3c7b 954c ebd9 cd3f 6cb1 947e f8e5 a2bf
00000570: f354 68f7 c318 b8bf 18a2 6a4b 7844 6b3f
00000580: 7914 6028 fc4a c63f c222 9b92 8d63 d2bf
00000590: 39ec 6772 d9a0 c23f 07cc 7579 2ed0 b63f
000005a0: f18d 6693 f3aa 9b3f 51d7 e91c 7a79 cebf
000005b0: acfa d7c8 03a3 853f 6a20 67c6 29d4 be3f
000005c0: 23a7 a20b 0a2e a3bf f20b 1db5 fc73 cebf
000005d0: dbd9 a1d6 3f79 6a3f 28d2 026e 6f90 c5bf
000005e0: 40f9 46bb 8074 b93f a691 d934 7fe0 d2bf
000005f0: cc4b a555 9885 c33f 0db4 ec21 b189 bb3f
00000600: 103b c4cc d271 a8bf 8bea 970c ebfc b53f
00000610: 506c 0589 dae3 bb3f 9b01 5763 d692 8e3f
00000620: 46b5 4360 b766 963f 251e 5ec7 1fa8 b2bf
00000630: f725 cd23 c5df bf3f d5aa 4078 c6a9 b5bf
00000640: 3002 29e5 c9c2 873f 7a6f 0fec 85cd afbf
00000650: 0516 c5e9 14b7 d23f 6e54 6b4f 58cf 73bf
00000660: 1631 4775 5dd3 993f 2b4a 56f4 e795 c33f
00000670: 8a94 c8ae 7c4d cebf 0f56 45fe 5f91 943f
00000680: 5d68 f5a7 d4f4 c1bf 485d d233 04e8 c4bf
00000690: 8e47 e96e 679c cbbf e52c dcb5 47dc 9b3f
000006a0: 1942 77fd 7166 863f fd39 5de6 a84f c6bf
000006b0: 7d35 b075 6569 bf3f 5b2d 9d8d ab7f c23f
000006c0: d5a9 729c f0a1 c03f 2f6c 8e29 972b be3f
000006d0: 4f0c f056 7abd 93bf 530d 507b b9af b53f
000006e0: b38c 4919 b805 54bf df68 237e ff3c c8bf
000006f0: 453c 9a70 2e64 77bf 1dff 826d 3fb0 ad3f
00000700: 74f7 0dc3 6e65 d43f 3b0b bce5 bb57 963f
00000710: 9ea0 59cc be16 b73f b9b8 6b75 c140 b33f
00000720: 7f8a 17a2 50ce 9bbf 8f0f 17e5 d9b5 be3f
00000730: 0fc5 bca0 0d99 b3bf ed1a fe80 3b7b b03f
00000740: e6b4 0ee0 a4f3 b3bf a1ef 3c98 456a a13f
00000750: 6a5f 6e90 085b d7bf 71c4 0498 9ce0 c8bf
00000760: 91df 9275 154f bbbf ec40 5df1 7ea5 bb3f
00000770: b655 cc8e eb7b ce3f 11cd 1396 2605 c43f
00000780: aeda 37f1 5373 ba3f 8025 187a 71e1 b3bf
00000790: 5935 26b0 f5b3 bfbf cddf 303e f768 ce3f
000007a0: b551 612a 84e2 a93f 3367 e2a8 ee35 823f
000007b0: b41c f7d2 b100 c53f e7fa 79e6 8c4c b03f
000007c0: 3e88 f291 a89f c63f d4ee 9dc2 608b a8bf
000007d0: f960 9fe9 1755 d2bf ed3e f0a0 0a15 b9bf
000007e0: a214 9254 4a75 213f 912c 0ef8 fe63 cdbf
000007f0: d157 069b 170e c03f 9349 9c82 a09b c6bf
0.15047325050390928 -0.07095664102238265 -0.037508452983280385 -0.11421079492978439 -0.04735851525532626 -0.09538203192244671 0.20068356852916 0.11630797417389226
0.02366273778428442 -0.146979567756055 0.011505198907995727 -0.12572182790017455 -0.05409316988719975 -0.12049369263815923 0.3664023176031086 -0.16721731590489308
0.050132979848765004 0.045759415285965534 0.17199424350498352 0.40372548750616727 0.03556189410854543 0.12292753942197733 -0.05516873599011252 0.06273532791645488
0.04685354930077459 0.1492987591741558 -0.002928272748623541 0.16210602310493058 0.10456714699751103 0.18945237761141767 -0.06631009164347502 -0.10313536481488818
-0.2693715043491027 -0.1543998847633846 -0.14039135359086888 -0.31083053830349977 0.40808202611695676 0.15298444272436637 -0.11202480752214085 0.029154446659426552
0.46484147490201655 0.388207394948905 0.2973527784311824 0.2542741653947587 0.13538053023183447 0.2578031691063127 -0.1872469971421874 0.16656986626958553
0.0849163728409564 0.030505688883980114 -0.10116059324623276 -0.09691744606186113 0.29967245230422257 -0.24460250623258542 0.1816507655323755 -0.004528977511227497
-0.16912601786040068 -0.38346533604188254 -0.18058658207256098 -0.007775329677045114 -0.061840642257436663 -0.1643608189763459 -0.18221223087486052 0.34824917711846715
0.09022453589834847 -0.22357798576137622 -0.2965706214238357 -0.04995272202606316 0.3952712379212794 -0.06194617902273548 0.15210748956689923 -0.14084141516779522
0.0896966465443277 -0.3356220415088863 0.16584094086819012 0.14048898907246934 -0.08599583142509659 0.15475586384758863 -0.15428053389699103 0.049093220687048286
-0.13603560030744388 0.24979769884583394 -0.2269605818218238 0.12989398119088597 0.052042328154405196 0.09265780978976085 0.23761553746232386 -0.18184380606732886
-0.26168451462412123 0.04321298258889485 -0.33072375628239764 -0.15971236349777457 -0.07750470465040891 -0.38274357938707476 -0.06493639393050257 0.13775644705606044
-0.2209083535515371 -0.01909835999704572 -0.06550871597022241 -0.3764823906836266 0.24151973358342416 -0.036584800703365034 0.21222205645574924 0.01963898112899693
0.33971770569078674 0.23896684595959417 0.11708047381283711 0.06267749572041835 -0.07038038430878622 0.3110616862907491 0.13833754096940487 -0.09642918681984686
-0.22333123919593073 0.038596010156046384 -0.06724574548631562 -0.42164313935710307 -0.18725065219473994 -0.2123570224378312 -0.036293604525513654 -0.18019149561055742
-0.10866404783928149 0.0076850504914374885 -0.06167674504249284 0.28048740877546374 -0.0971963229000019 0.04508528471738832 0.03567558220584359 -0.16471516264621716
0.1917414216183806 -0.05507935016866692 -0.09670466182779891 -0.10748739377912586 0.2617430014016062 -0.004602513597870399 0.14478656727353592 -0.22195551387353202
-0.0008637416505913949 0.09673203689072159 0.15879364875803678 0.38560242098386177 0.06676347198851423 0.2235701210301391 -0.023620604863178185 -0.021431921740433894
0.1462489486839822 -0.04004435678682612 -0.18671295186763648 -0.19896863560147668 0.08945862601753007 -0.14639897516738506 0.1277311590421369 -0.07439022570828395
0.059338407217870655 -0.04690190030871168 -0.11489323186776192 -0.0009207901140990319 -0.23538514082934517 0.018517204086113213 -0.04503699824635209 0.1175753157834301
0.310814771371742 -0.21674389504384273 -0.19020154264202396 0.003600198504217574 -0.19434439494900937 0.3303638053336729 -0.3243100608068431 0.02331542336378293
-0.31345341135798566 -0.20396929645799933 0.04520386509476658 0.06509417314355026 0.23321286429833232 -0.03691078705955672 -0.09412789144728943 0.0033285474304032385
0.17416336032343674 -0.28732623402587987 0.14553373419025364 0.08911409821830328 0.027019315597170693 -0.23808218395032069 0.01056483227421031 0.12042485326594635
-0.03746062652619588 -0.23791464656287037 0.003231644329441991 -0.16847031470901297 0.09943394252966176 -0.29495220337983097 0.15251449758451796 0.1075697620223794
-0.047743403907693716 0.0858904748674069 0.10894552083247899 0.01492850771580905 0.02187620663692271 -0.07287787072538572 0.12450821041161207 -0.08462181506971984
0.011601998620904913 -0.062114892068819 0.29242441968048666 -0.004836411439744654 0.025220356257521358 0.15301227026482542 -0.2367397168574466 0.02008581151434013
-0.1402841396437137 -0.16333057909353443 -0.2157105723913983 0.02720748946653097 0.01093758635298152 -0.17430602310419366 0.12270197032213122 0.1445211831545333
0.12994201315934953 0.11785263790663757 -0.019277488285308227 0.08471259365619703 -0.00122206667324391 -0.18936151179406743 -0.005710774808576129 0.05798528873265083
0.31869095848366347 0.0218190535515632 0.09019081582084928 0.07520684353559916 -0.02715421666460793 0.11996232836741981 -0.07655415701153266 0.06438037776215895
-0.07793646307137045 0.034013914903396676 -0.36493124107936714 -0.19435460493835735 -0.10667547340824358 0.10799401657755298 0.23815674278800508 0.1564071877288389
0.10332226409068809 -0.07765874129122174 -0.12383971739310108 0.23757830177942055 0.050556307004316826 0.008891930130903702 0.16408369828261515 0.06366806628100684
0.17674739004456969 -0.04793836951918498 -0.2864436894865459 -0.09797731808816552 0.0001331952319426943 -0.22961413490370267 0.1254300600964471 -0.1766243589159556
