models/puray_train2test.pt (torch, 326573 bytes, 41 tensors)

module.feat_mlp.0.weight f8 [32, 3]
0	0x3fe06fa5f3fbcef4	0.5136289372735221
1	0x3fe66f29a20a284b	0.7010696568334053
2	0x3fddd1d22e3123f6	0.46593145857747176
3	0xbfe7ac8c62fa35a5	-0.7398130353118871
4	0x3fb53737b5ec93f0	0.08287380401141298
5	0x3fc5cc44c9e07ba0	0.17029628617544024
6	0x3fdaf388630c6a67	0.4211140601416105
7	0x3f77b9a3a20347d8	0.005792273703450555
8	0x3fe59b6c10d90829	0.675222428232023
9	0xbfb997de14e5c66c	-0.09997356424516973
10	0x3fe138dda5a0ae9d	0.5381916270175285
11	0xbfcfbba135e2eb4d	-0.24791350489780442
12	0xbfe426700027bf5a	-0.6296920779259196
13	0x3fe45a10f6d387bb	0.6359944172693227
14	0xbfc04fa357f2c2ee	-0.12743036074018427
15	0xbfbe15e69b5161bf	-0.11752167980137694
16	0x3fb3e5907d065bda	0.0777216248737739
17	0xbfcc31451247aef3	-0.2202535952813985
18	0xbfcc21cb42eb34e4	-0.2197813107253871
19	0xbfc4b4b043d265fa	-0.16176417647947955
20	0x3fb44bc833f0e1b1	0.07928134220208595
21	0x3fb680818fbf3533	0.08789834746786056
22	0x3fd498d7687df9e8	0.32182870106035333
23	0x3fc617f33f20b83a	0.1726059015504136
24	0xbfe38ed7f1f76546	-0.6111869550615345
25	0x3fe68fcf44cb468e	0.7050548881181429
26	0xbfd9bab58dbe46fe	-0.40202082483402524
27	0xbfc0eef88ab31500	-0.13229281208456456
28	0x3fd4c7a3fdc1188c	0.3246850946492337
29	0x3fc7355e833ecfdb	0.18131619842972566
30	0xbfbf0da053399e6e	-0.12130167037832404
31	0x3fdc29cac9241b3b	0.4400507892864202
32	0x3fd9f8ba7c7cfe85	0.40580618054443846
33	0x3fe5ca96d6f7387c	0.6809801291035593
34	0xbf98b4bf6e907883	-0.02412699806529207
35	0x3fe1ee10138b3771	0.5603104001727229
36	0x3fd10bdf1b66ef58	0.2663495795820743
37	0x3fed819c4a23b8bd	0.9220715950048298
38	0xbfa6f08b4ed91232	-0.04480395638941949
39	0xbfe27f78657abda5	-0.5780603391667013
40	0x3f90ca4d9554494e	0.01639672492917415
41	0xbf91952b51b06b2e	-0.017170597897442956
42	0xbfba2eced4a34edc	-0.10227673236232299
43	0xbfc709be50cffbde	-0.17998484559936306
44	0x3fe822426ef962e4	0.7541820685829319
45	0xbfe573b5e43f8869	-0.6703748186084911
46	0x3fa5f084ef254ecb	0.04285064143428271
47	0x3fe5cfde4ad087f2	0.6816245518896251
48	0x3fec9fdc6d6a1b27	0.8945142876626492
49	0xbfd979dd6a02f9ae	-0.3980630431432485
50	0x3fa9453d705b9063	0.049356384244476435
51	0xbfc2db48fba9cefe	-0.14731704986808575
52	0xbfe2bb5dc22239c6	-0.5853718558953964
53	0x3fe0df603f4cd157	0.5272675739602545
54	0x3fb4efc9cf2f34aa	0.08178387935841394
55	0xbfe670b24f2854bf	-0.7012568994565739
56	0xbf5873175b1404f2	-0.001492283638356459
57	0x3fe7661f8f0a5450	0.7312162202603165
58	0x3fe14ffb9edd1353	0.5410135367206784
59	0xbfd7ce9e8db32748	-0.3719860442912375
60	0xbfe540e7a0514d33	-0.6641729479983155
61	0x3fa93a2293a8ce10	0.049271660351589586
62	0xbfeaa1ffd62a12be	-0.8322753127000266
63	0x3fd5925b9bc4328c	0.33705797397195947
64	0x3fe4d6a44ebd3c86	0.6512013948321431
65	0x3fd4eb3cfbc1afa6	0.32685780130008835
66	0xbfd3cf1a14c4eff4	-0.3095154955697119
67	0x3fdad665b84a0a26	0.41933577534669764
68	0x3fe6f7243e38be43	0.7176686492220558
69	0xbfea083d345baab6	-0.8135057470911622
70	0xbfe88a2b5161cbec	-0.7668663587086235
71	0x3fe097a80bb2dd54	0.5185127476205857
72	0x3fe5b921bbb4f2fe	0.6788490930699422
73	0x3fbfc8f80d5a7152	0.12416029287345978
74	0xbfc0e4068cd56782	-0.13195878864899774
75	0x3fdddda171a64405	0.4666522607668074
76	0xbfe0736bf1afad37	-0.5140895576891243
77	0x3fe825447de38a49	0.7545492609754741
78	0xbfc84126ed3f5321	-0.18948828300804002
79	0x3fd5cafce9f18f69	0.34051440092138435
80	0x3fe62161b3bc1eea	0.6915749082990861
81	0xbfc38badbfda9a37	-0.1527001559054086
82	0x3fcce53c3d53250b	0.2257457065045759
83	0xbfe15cf16eb37a71	-0.5425955927019698
84	0x3fd07f379edae899	0.25776472581095217
85	0xbfd7080dba19a150	-0.35986655401076906
86	0x3fc736805e926376	0.18135075204625267
87	0x3f7cd1f6a36f49e4	0.007036174231830537
88	0xbfe005d24f1bc5aa	-0.5007106347167583
89	0xbfc5a64297e3a705	-0.16913635651081207
90	0xbfb4d46b8e864303	-0.08136627416230273
91	0xbfe43958cce93d32	-0.6320003511590697
92	0xbfed570cc9f4e8ae	-0.9168762154070202
93	0xbfe757110ac2bbe1	-0.7293782434625166
94	0xbfe6c839204d4836	-0.7119413023849634
95	0x3fd0f84fd38dc0e7	0.2651557508425086

module.feat_mlp.0.bias f8 [32]
0	0x3f940fb1cac1f860	0.01959111976656691
1	0x3fd3b0e38113965e	0.3076714287293266
2	0xbfc776014888530e	-0.18328872720362493
3	0x3fe088aaa900ce06	0.5166829396097803
4	0xbfc0a9d1aeba5027	-0.13018246680860665
5	0xbfdde661eaa0dfff	-0.4671864310544151
6	0xbfc22d5aa6b07777	-0.14200909747244925
7	0x3fd4ca42e603cf27	0.3248450514067706
8	0x3fb38c315bb07c3e	0.07635792244444503
9	0xbfe1ac024bcb77d8	-0.5522471886031282
10	0x3fe0c7d6bd16f7a5	0.5243943875463982
11	0x3fe0349cb2d79b20	0.506422375966256
12	0xbfbd9cde9aa0f31e	-0.11567488932719214
13	0x3f83ef735f4eec03	0.00973405966384711
14	0x3fb00cd672dab943	0.06269588760435334
15	0x3fdda973389f362c	0.4634674122761193
16	0x3fcbd48a312dcfef	0.21742370034519307
17	0x3f8dcd28ab7da01d	0.014551465733987407
18	0x3fc46bc8fee4f39f	0.15953934141171275
19	0xbfb8fb2284f81f18	-0.09758201357191998
20	0xbfceadbf7baa168a	-0.2396773675756559
21	0x3fbc9ae88a5dc5b0	0.11173871400912705
22	0xbfccc7ff32cd9879	-0.22485342007275103
23	0x3fde3e62abeee775	0.47255770483354037
24	0x3fb4e8aefab7a256	0.0816754686453661
25	0x3fd46191cd315781	0.318455171950852
26	0x3f97c6cb92052093	0.023219280993800395
27	0x3fd93847f4818af1	0.39406012418309816
28	0xbfc5792c74ada644	-0.16776042649444112
29	0xbfe2385ce211f54b	-0.5693802276070213
30	0x3f98f488c83edb48	0.024370324346558975
31	0xbfc271f7843d5016	-0.14410299260146137

module.feat_mlp.2.weight f8 [32, 32]
0	0x3fcf4c0717d87d81	0.24450768150652993
1	0x3fb49c923935530d	0.08051408669173217
2	0x3fdd6be5b9a86cee	0.459710532480769
3	0xbfc8099e2178a20d	-0.18779350885712667
4	0xbf818a59396ccb54	-0.008564660134288062
5	0x3fc691d641a7b5fa	0.1763255901891368
6	0xbfa491101fc27bc8	-0.040169242741505296
7	0xbfc6610a9039e308	-0.17483646433154143
8	0xbf985c960f998508	-0.02379068823063782
9	0xbf83f43bd814d30e	-0.009743182689456311
10	0xbfc9943ea490bda2	-0.19983656917018516
11	0xbf9cc13fc135e919	-0.02808093659175723
12	0x3fbe064079554582	0.1172828956817025
13	0x3fb29f2917381343	0.07274109665747823
14	0xbfc1fe7776e67ca3	-0.1405782061164916
15	0x3fb9c173435e6b5f	0.10060806650873876
16	0x3fc06497a72ce662	0.12806983626232965
17	0xbfbb3564eb1abacd	-0.10628348102430181
18	0x3fc517762d5362c6	0.16477849209947787
19	0xbfd9780259b944db	-0.3979497791488719
20	0xbfa9625ac66961ac	-0.049578510971233086
21	0xbfc901bcf8e180f4	-0.19536554481874868
22	0x3fb868cc9345497f	0.09534910769915504
23	0xbfc236c962be6dfd	-0.14229695626714536
24	0xbfa345fcc540e774	-0.03764333637123132
25	0x3f82fc8273a9e523	0.009270686297201685
26	0xbfcf9097f4bbb69b	-0.24660014581552478
27	0x3fc32fac5bdb3eb4	0.1498923729436591
28	0xbfbd95bcac33dfb3	-0.11556605533757995
29	0x3fb8d50f21b302d6	0.097001023986205
30	0x3fcce6b7172e6b74	0.22579086906338441
31	0xbfb29447b9b480c6	-0.07257507594886467
32	0xbfc755fcca8993ec	-0.18231162919542443
33	0x3fc6ce34bc9363c2	0.17816790778922892
34	0x3fc5284a971acffb	0.16529209497605266
35	0xbf99653502356d8d	-0.024800136813934826
36	0x3fc51f31261a23a8	0.16501440391973898
37	0x3fa48a8e5cf20216	0.040119599195353725
38	0x3fc28270af416e76	0.14460571820642415
39	0x3faef70f5733f240	0.06047866763581
40	0x3fd129aaab564c6a	0.2681681321348096
41	0xbfc82b62da1549aa	-0.1888240399226338
42	0xbfbadf2cc094ccc8	-0.10496787740412394
43	0xbfc7d3959ad1745c	-0.18614454326135188
44	0xbfc611fcd98f545d	-0.17242394087830606
45	0x3fcc1f3c94af14ea	0.21970326671559032
46	0xbfc01f3f0f5f0db9	-0.1259535622649375
47	0x3f798ec5fbcea5aa	0.006239674924395736
48	0x3f9b8296b00c3bcb	0.02686534356604024
49	0xbfb34044c697303a	-0.0751994118538172
50	0xbfc581f90157c801	-0.16802895131655762
51	0x3fad398691628ed4	0.05707951092452182
52	0x3fcf62505c9da43b	0.24518780252700076
53	0xbf9b816d6af1e0a5	-0.02686091389884439
54	0x3fbf7b096199f19a	0.12297114022107394
55	0xbfb05b2626dd560e	-0.06389082383005748
56	0xbfc4ba8cfcaaea54	-0.1619430764893247
57	0x3fbcdf94cd624839	0.11278657926803327
58	0x3fa654fbaaa9766f	0.043617119391211705
59	0x3fc14d0f124dd58b	0.13516415017845093
60	0xbfbdfb1ceac3a157	-0.11711292964503649
61	0xbfbe5cce46dc4be0	-0.11860360364907718
62	0xbfbb4022f01684ac	-0.10644739495775707
63	0xbfc24e60def278b6	-0.1430169190034058
64	0x3fc663ad6bf1a0e8	0.17491691370674478
65	0x3fa6b0ac307c4da1	0.0443166550814127
66	0x3fc6ca7c8c4d41b4	0.17805439806626355
67	0xbfc13d9e8d4d297a	-0.13469297313197243
68	0xbfb48a5fabb1b552	-0.08023641530754347
69	0x3fc6bab832bcb362	0.1775732276668363
70	0x3f73f9609b9be94d	0.004876496672063202
71	0x3fa375a4f6e5fb73	0.03800693048378081
72	0x3fc0bdcd615adc23	0.130792305504401
73	0xbfb2349a4f6c5424	-0.07111515463869061
74	0x3fb3c38795978550	0.0772022953238054
75	0xbfa20d5f03c5a8d8	-0.0352582637886642
76	0x3fbe53622b167100	0.1184598307795035
77	0xbfa1bbd9c0245f83	-0.03463631124958424
78	0x3fb73c6ba570317e	0.09076569355983641
79	0x3f95ae960eab4ab2	0.02117380585225232
80	0xbfc5eb9a2b7fec6c	-0.1712525093460927
81	0x3fc4c4664e703859	0.16224364118574178
82	0xbfcef6f2625b02e2	-0.24191121866717596
83	0x3f747683a40d967e	0.004995836469651514
84	0x3fca497f9c32dfb8	0.20536799551859786
85	0xbfc030a8504d4e83	-0.12648490830416756
86	0x3fbe37fb1e2d12e2	0.11804170119018978
87	0x3fa7304a9adb085f	0.04529030933692079
88	0xbfa983b0b133e7e2	-0.04983284152144997
89	0x3fa3f804cad2c2c7	0.0390016076647775
90	0xbfa4635e619a920b	-0.03982062283947493
91	0x3fbb725aa9e8db9d	0.10721365593131656
92	0x3fcd6a31f1dd230c	0.2298033171630539
93	0x3fb7f320ddd5d604	0.09355359474087527
94	0xbfc2a0805d02a116	-0.14552311460034478
95	0x3fa8a7a5f8bc6fd1	0.04815405522660366
96	0xbfc1be4d1bd93ce3	-0.1386200319270535
97	0xbfc08eefc4893b0a	-0.129362078633186
98	0x3fb788934a136363	0.0919277244423831
99	0x3fbb95ab6618555d	0.10775252573542589
100	0xbfae4e24ba84b4ab	-0.0591899373706409
101	0xbfc1d1ec5d082246	-0.13921885054175415
102	0xbfa685ca9d1aad53	-0.04398949783111541
103	0xbfbb15bd77fbff28	-0.10580047778421131
104	0xbfbc95bfdcdf811c	-0.11165999548348221
105	0x3fb42237e0026903	0.07864712923984389
106	0xbf7d9433763b62a7	-0.0072214136341350104
107	0x3fb496aed76461d0	0.08042423971745127
108	0xbfd07877be00e04a	-0.2573527675153896
109	0x3fbbe612098a71d2	0.10897934658937139
110	0xbfcb988d93b7e683	-0.21559304917154884
111	0xbfa8fbb4777c353b	-0.04879535635528006
112	0x3fc19015fe3c8cb1	0.13720965303318658
113	0xbf9c639db39d8e14	-0.02772375496659947
114	0x3fc2fd3d22db511b	0.14835323526370633
115	0xbf13502c77b5eb38	-7.367392929850676e-05
116	0xbf9a31cc06c720cc	-0.025580585397421626
117	0x3fc3dd98119818c1	0.15520001277054088
118	0x3fc20fabcfa62767	0.14110324515450687
119	0x3f767bf5e492be82	0.005489311713219204
120	0x3fbc2f14c3e5b71b	0.11009340078973333
121	0x3fc188abbf93ce3c	0.13698336462367589
122	0xbfcfac0fd9f2375a	-0.24743841306593134
123	0xbfa8ea5233447e7d	-0.04866272807907721
124	0xbf9c46f9f3b8f1bd	-0.027614503384244083
125	0x3fb7d5271dce3cee	0.09309620359111978
126	0x3fa8e6dcaf122349	0.048636337634042244
127	0xbf9bd32ed1d42da5	-0.027172786290106683
128	0xbf9badc2dec809c8	-0.027030033919808877
129	0xbfd5635c4ce6970e	-0.33418948659742476
130	0xbfae7204d271d651	-0.05946364468483679
131	0xbfb69063810b8bcb	-0.08814069653048688
132	0xbfba24e6548beba9	-0.1021255451595794
133	0x3fc4ea4468cafae4	0.16339926831093188
134	0xbfc120c00b350b81	-0.1338119559023561
135	0x3fb5834d2b454daa	0.08403475099958393
136	0x3fb8bfb5d71e891d	0.0966752672380022
137	0xbfaf16471acec98a	-0.06071684076541135
138	0xbfb882771608b520	-0.09574074066104687
139	0x3fbd9be25e16d080	0.11565985486123687
140	0x3fcc8fd46a579229	0.22313933556064683
141	0x3fa69d2c07de96f8	0.04416787715972065
142	0x3fa5b734d2ab633e	0.04241337844513858
143	0xbfc663186956c36a	-0.17489915030958098
144	0x3fb76b068c287cde	0.09147683069066967
145	0x3fa676bc65eb4526	0.04387463325623235
146	0x3fbd80bb19853f92	0.11524552701052773
147	0x3fd41235acf9949d	0.31361143009264386
148	0x3fd4f6fa08d1acf2	0.32757426129565126
149	0xbfb7e238d2672d82	-0.09329562317650722
150	0xbfc598c86ea6272f	-0.16872506525788242
151	0xbfbf809f4f383020	-0.12305637058324281
152	0x3fcc79fe1b52c66a	0.2224729188360926
153	0x3fb7dc687b4692e1	0.09320691117916226
154	0x3fb1e8de18b97fb7	0.06995952705028584
155	0x3fb099e3bf5061c0	0.0648481695246863
156	0x3fbcbf925c96cd9a	0.11229815254664857
157	0x3fb89594a5fae164	0.09603241970296988
158	0x3fca6abc9b734362	0.20638234701484764
159	0x3fb781f83ec13158	0.09182693035217449
160	0x3fcac37d945766f5	0.209090897972423
161	0x3fb4d651a55419dc	0.08139524732914744
162	0x3fda3deec0327e34	0.4100300671507029
163	0xbfbb4542a472758f	-0.10652557864019328
164	0x3fca82dd46ab7491	0.20711866331740628
165	0xbfb4acac131fa01a	-0.08075976817019673
166	0x3f347d209bd75467	0.0003126339541642043
167	0xbfc125c4edd4b587	-0.13396512616001763
168	0x3fc26613330deec7	0.1437400817193206
169	0x3fb239c695e78ed1	0.0711940875985946
170	0xbfb46ea087703f31	-0.07981303507426386
171	0xbfb5e2f65fbe264c	-0.08549442136259094
172	0x3fce59e243704905	0.23711803715611537
173	0x3fd06d769958d632	0.25668110823912393
174	0x3fd0dd113875e6ab	0.2634928752300804
175	0x3f97f673c5ad431b	0.02340107816718549
176	0x3fb843191869fcc9	0.09477383466763735
177	0x3f50c364d4da9b8c	0.0010231480295403743
178	0x3fb5bd8c4195648b	0.0849235210529448
179	0x3fd988745f3db215	0.3989535265052678
180	0x3fd3d4e7f8814e65	0.3098697592551843
181	0x3fbe7c3a531fd15d	0.11908306626702854
182	0x3fd640e66dbe06fc	0.3477111884786692
183	0xbfbd67dbdf96ef2e	-0.11486601074915079
184	0x3fd22d01d7bb1919	0.28399702136484134
185	0x3fc13e708363edcf	0.134718002467578
186	0x3fd20b6d420cc22a	0.281947435857577
187	0xbfae87fcece03222	-0.05963125602292886
188	0x3fd6c74cf1859475	0.3559143408404631
189	0xbfc7902f5bb1c7dc	-0.18408767678516724
190	0x3fd26fa918f6223e	0.28806521833078935
191	0x3fc740ea56b7ed53	0.18166856035518694
192	0x3fcb9ae879f80327	0.21566492038257332
193	0xbfc7dced47e40778	-0.1864296532658576
194	0x3facbcea40761a31	0.05612880741960103
195	0x3fa027e3d5cec127	0.03155433640438537
196	0xbfb76d6d147c2616	-0.09151345968361854
197	0xbfacbd82ba6fef2b	-0.056133351572468314
198	0xbfba027f07ac21e5	-0.10160058915437949
199	0x3fc96e45be35ebcb	0.19867774760845544
200	0xbfb01b52b71a2ba2	-0.06291691751736875
201	0x3fb8a15aae883437	0.09621207009350106
202	0x3fc5f4234690e150	0.1715129942474598
203	0x3fc243848842da73	0.14268547681213625
204	0xbfb66fe0cd078b40	-0.08764462476351031
205	0xbfc587fd9d1e1f13	-0.16821260616074393
206	0xbf9116e5eae84182	-0.01668891187915867
207	0xbfa94cda33bd8f94	-0.049414461914039226
208	0x3f9246b64869e3b7	0.017847870034959103
209	0xbfc7dc4d0bd7f1e3	-0.186410551817871
210	0x3f9bd0d5f4ec9b71	0.0271638327350518
211	0x3fbdb6b263b13959	0.11606898244756304
212	0x3fb2c45573f5930d	0.07330831604992856
213	0x3fbbc84286ea0aae	0.10852447313122113
214	0x3fa461efda5ea7b2	0.039809699446166205
215	0xbfc199afec0836ba	-0.13750266098980096
216	0x3f9ef805a00f02d0	0.03024300374431982
217	0x3faebea5cfdbc525	0.06004827654204296
218	0x3f927f1deefddfef	0.018063037597556727
219	0xbfcb984a5f5bf330	-0.21558503776750504
220	0x3fbcb5cb59566748	0.11214896136371266
221	0x3f7b552bc59bc60c	0.00667302225495937
222	0xbfdd18cbc65758bd	-0.4546384274411926
223	0x3fc08c77a96640bc	0.12928672572571098
224	0xbfbb5264fc4a8be4	-0.10672598990872434
225	0x3fa47c82b3d0022a	0.0400124401567193
226	0x3fb2a7986aa75e20	0.0728698025117116
227	0x3fc17182b5555718	0.13627656797569254
228	0xbfc2cc763f6cbc92	-0.14686468216811882
229	0xbfc3af23ca611043	-0.15378234273714683
230	0xbfaef3c6bf08945a	-0.06045361597015449
231	0xbfc5617d3c733d27	-0.16703763438861438
232	0xbfb6ecdab1256b3c	-0.08955160927636724
233	0x3fb98810689c106e	0.09973242334314289
234	0xbfc6bb31a9579eb5	-0.1775877072207003
235	0xbf9d6e9c6ef52f2c	-0.028742260238956138
236	0xbfa73c1abf6a2099	-0.04538043581584467
237	0x3f5323504e19e028	0.0011680874089545854
238	0x3f97946567ab47ba	0.023027023746926757
239	0xbfb585fe5921db03	-0.08407582927780415
240	0xbfab6a9596b0c85b	-0.05354754890903798
241	0xbfc3fb86f4b8bac7	-0.1561135001115501
242	0x3fb41334c3d51494	0.07841806202948681
243	0x3fb8f006f0928e9d	0.09741252301551602
244	0xbf937e7c8142bc4a	-0.019037194623418942
245	0x3f9a12bb8caa2901	0.02546208425568697
246	0xbfc64ae81dd78f21	-0.17416097123270283
247	0xbfc2d8966d7070ca	-0.14723472923004116
248	0xbfb0742a7eb900ff	-0.06427255243125173
249	0x3fc1546cda4caa2f	0.13538895281938454
250	0x3fc1d02ef0a386a1	0.13916575193348016
251	0x3fb1c81ed7d6710c	0.06945984620546514
252	0x3fc2269f751c4565	0.14180367677958397
253	0xbfca2c07d03444b8	-0.20446870485515034
254	0xbfa6863fac4a2ff1	-0.043992986470669744
255	0xbfc0f5ceecbe6864	-0.132501473996686

module.feat_mlp.2.bias f8 [32]
0	0xbfa3f1e5ee5b57e9	-0.038954911562242796
1	0x3fa4cb1e5c36f9e0	0.04061217189472521
2	0x3fbe2691a94eb29c	0.11777601607782134
3	0xbf91c2965db3150b	-0.01734385439774137
4	0x3fb90a5df2ae51bc	0.09781443762614733
5	0xbfbeeff4d05d9481	-0.12084894263314717
6	0x3fc151c6704c542b	0.13530807956036148
7	0xbfb851757a0b172c	-0.09499296407292651
8	0x3fcf3fa221bdccc9	0.2441294350388488
9	0xbf8daa5402dd4313	-0.014485031449710506
10	0x3fa8247654523220	0.047153184693432104
11	0xbfafa11dd24b48cd	-0.06177609626833345
12	0x3f9358aceabfa2d7	0.018892957523266
13	0xbf7be4d7eb18f0d0	-0.006810038977672586
14	0x3fb538142e1cb825	0.08288694501672518
15	0xbfa8af47fa9eeac7	-0.04821228918395586
16	0xbfb5cc0dcbccce67	-0.08514486528002295
17	0xbfc2593351ccb8c0	-0.14334718221784293
18	0x3fa36013f1998871	0.03784239124503664
19	0x3fbbad9120bd7515	0.10811717080419599
20	0xbfcb4b350efb025d	-0.21323264342756235
21	0xbfc52427df57a90c	-0.16516588597671278
22	0xbfb491f2134e305b	-0.08035195323299275
23	0xbf9dbc99e4598355	-0.02903976875529975
24	0x3fb6ae76820bd674	0.0885995929237085
25	0xbfc7817a38cd56d5	-0.1836388375619921
26	0x3fc2266209f766b2	0.14179635512009764
27	0xbfbaaa681ca4882f	-0.10416269969258062
28	0xbfc9a469b4629a49	-0.20032998378629177
29	0xbfb3ce69cf54adad	-0.07736836730753423
30	0x3fa17a1aebb98a6a	0.03413471343516934
31	0xbfc144ecfd717e88	-0.13491594672358453

module.feat_mlp.4.weight f8 [32, 32]
0	0xbfba2dc996b27d2d	-0.10226116112834367
1	0xbfb7eff1074de227	-0.09350496700597742
2	0xbfc306d17297cf8e	-0.14864557357179503
3	0x3faa0fb66b102baa	0.05090112740443627
4	0xbfd0497d6990d734	-0.2544854670444352
5	0xbf80804024d3ad7e	-0.008057118533961068
6	0xbfbfb96ccd9a3d90	-0.12392311114876109
7	0xbfb56b86b46d4c16	-0.0836719694610085
8	0x3fd410a67d3b9885	0.31351625661626087
9	0xbfa74bb65287feb7	-0.04549951322041806
10	0x3faa26ebc1aef928	0.05107819308567435
11	0x3faf0e1f430570fd	0.060654618197732525
12	0x3fb8abc59ea2a640	0.09637103197987873
13	0xbfd264afada59101	-0.2873954005974753
14	0xbfa6069ba96dba35	-0.04301916545124521
15	0xbfc454b3dfaf57e5	-0.15883491918674433
16	0xbfc432ed4dd4423a	-0.15780416774988898
17	0xbfca405f96c5be0b	-0.20508952009139167
18	0xbfc32aaf2b335f37	-0.14974012002380174
19	0xbfb7c40312917565	-0.09283465579342971
20	0xbfc294f316c9e350	-0.14517058003164118
21	0x3fc0ffea4c3e1edc	0.13280991289888433
22	0x3fb18d32af369256	0.06856076028504651
23	0xbfa5970eb7c114fc	-0.042168102198539587
24	0x3f9764c6bd3a8f8f	0.022845368671041973
25	0x3f943037090d3f60	0.019715175559496756
26	0x3fbc4a122d87653f	0.1105052338747514
27	0xbfb8f9c456f1c6ad	-0.09756114123026789
28	0x3fbe30cdabf933e7	0.1179321808678676
29	0xbfc0cfceb23e7c13	-0.13134177878689055
30	0xbfc7296929eded96	-0.18095125720342925
31	0xbfab2a6946ab4858	-0.05305794704112604
32	0x3fae2c31a5b41e1f	0.05893092296360813
33	0x3faf041f81476b27	0.06057833150017294
34	0x3faa8ba787512e0a	0.05184672858066726
35	0x3fb4f4a33e33fa4e	0.08185787457112179
36	0x3fc6469abda555c3	0.17402967701006675
37	0x3fd2b3585076d2b1	0.2921963487417925
38	0x3fa2fe67ddeec39e	0.03709721168650691
39	0xbfb46ed51f7a7f48	-0.07981616991537266
40	0x3f9e6dc0075aa6f2	0.029715538452967878
41	0xbfbc7762e061bb29	-0.11119668939657558
42	0xbfb1b5a6719ec6fe	-0.06917801164561507
43	0x3fb42a9b7a170a39	0.07877513628685841
44	0xbfc50bd4fc48f1c8	-0.16442358320808936
45	0xbfbac3803fc8523b	-0.10454560811224038
46	0x3fb118c6912074ea	0.06678429644712805
47	0x3f61335233f26be6	0.0020996671224344675
48	0xbf20f6edea776ff4	-0.00012942938086168943
49	0x3fb30a72f95cf9c3	0.07437819087952051
50	0x3fcc5d7d8c7bb7e4	0.2216031013444414
51	0xbfc2904fd4d4d3a8	-0.14502904789119708
52	0xbf9152dccb3f6dc7	-0.016917657761821105
53	0xbf5aa8b5aca74673	-0.0016271375812845462
54	0x3fb190aa1afd6150	0.06861365469865643
55	0x3fc71e32f10a8cfe	0.18060910005178948
56	0xbf814dfa33cc0802	-0.008449511247366818
57	0xbfaae23ca5d3b01e	-0.0525073006081984
58	0x3fb9d13b1a2a7472	0.10084885968031346
59	0x3fb82191d42857c9	0.09426223210934305
60	0x3fb05a5338dbcaad	0.06387825143955679
61	0xbfb65095192f603b	-0.08716709008092575
62	0xbfb38ddb4933df72	-0.07638330971883336
63	0xbfbc011c3113cae1	-0.10939193914581892
64	0xbfb9306fc019d202	-0.09839533271753712
65	0x3fc989e0c8605e46	0.19952020439153467
66	0x3fbe4add6b9dcaf5	0.11832984807351095
67	0xbfc4e91d5dc1bb62	-0.16336409643141808
68	0xbfb154e6855d5eab	-0.06770172840094328
69	0x3fc21bd5c6881589	0.14147445863651978
70	0x3f4dc8698ca3d5e1	0.000908900773792961
71	0x3fc24dc2115a9fec	0.1429979881988851
72	0xbfb4a226ab213b4e	-0.08059922864889055
73	0x3fc1a4a55947076e	0.1378370939183315
74	0xbfc1df9ca9d6a3ca	-0.13963659565823
75	0xbfb472918d4f290e	-0.07987317752773412
76	0xbf8da4cc47bd2bde	-0.014474483432101278
77	0x3fc99b8871a672a6	0.20005898999524624
78	0x3fc229921aa0611e	0.14189363765832125
79	0x3fc5b0a2676aab8c	0.1694529538120516
80	0x3fd2092c09403118	0.28180981543916195
81	0x3fd2d17a8b92c148	0.29403556471062986
82	0xbf832f30fa47e247	-0.009367354047740707
83	0xbfb4d774caa4489e	-0.08141260096843658
84	0x3fc2e50d1396ef5a	0.14761508423350272
85	0xbfc89ecb5da1a313	-0.19234602043004453
86	0xbfa24a29a1e92e36	-0.03572206593943543
87	0x3f958ff4350be5a5	0.021056953180026778
88	0xbfbd7bbb5533064b	-0.1151692469602718
89	0x3fc35956f5cd0d8f	0.15116393091203092
90	0x3fbfe782a4b3cfff	0.12462631722502236
91	0x3fab00b434f523bb	0.05273974558310309
92	0x3f96b62ee293987c	0.022179348544249397
93	0xbfbd1acf7bcdeb9c	-0.11369034550254614
94	0x3fb730f5f1768ae4	0.0905908312329689
95	0x3fba4309d5535d67	0.10258542497773747
96	0xbfb06bfcd13aa611	-0.0641477595151161
97	0x3fa58555ddfc4b4d	0.04203289351257542
98	0xbfa80a9b8bad37bf	-0.04695592956578264
99	0x3fc1712d420fb04b	0.13626638150833723
100	0xbf9a951e48281cf2	-0.025959466127486182
101	0xbfc45a3ad3bd3723	-0.15900359476875633
102	0xbfb685f407b32e70	-0.08798146427141673
103	0xbfc12a58ea9cfe98	-0.13410483794904304
104	0x3fbc14a87166f365	0.10969021576506817
105	0xbf5335364790404e	-0.00117235470520784
106	0xbfaacc32b9998c88	-0.0523391582071549
107	0xbfc32e70135563c2	-0.14985466903706707
108	0x3fb8a223fda6bba7	0.09622406904848778
109	0xbfaf755c74e0a6bd	-0.06144226958015284
110	0x3f9c73467a0c4fa7	0.027783490370964305
111	0x3f9449fb50154bad	0.019813467753305215
112	0x3f909dcea2e7ad21	0.016226986592227214
113	0xbfac19fb99522aba	-0.05488573309510998
114	0xbfb320ab828ea4b3	-0.07471725404197364
115	0x3fb216fc1e476245	0.07066322077970096
116	0xbf9c7f502348590e	-0.027829410699348016
117	0xbf70a7df705b623c	-0.00406634598558547
118	0x3faa0054a54a4185	0.05078377263737636
119	0x3faa5aad34e994bb	0.05147305746940264
120	0xbf9b5d50761af0a3	-0.026723153313228065
121	0xbfc8014995f90228	-0.1875392896927377
122	0xbf7b69587e50f1bd	-0.00669226234191139
123	0x3fc0a23077603a31	0.12994962529087808
124	0xbfc49caf1c6fc4f6	-0.16103161705499475
125	0x3fbb95554045eb43	0.10774739092987055
126	0xbfa546a7ccc7af35	-0.04155468344455785
127	0x3fa1623e354b6a6f	0.03395265961235771
128	0xbfbd2cff5be2a3ff	-0.11396785729688473
129	0xbfca7dd4436a384c	-0.2069650010275289
130	0x3fc04be67a5464ac	0.12731629346015916
131	0x3fb711a9b9a8cbcd	0.09011326582621777
132	0xbfc0fd06e7c6412b	-0.13272177044974262
133	0xbfc574fb8f297978	-0.16763252725918298
134	0xbf963ca00bdb8ecb	-0.021715641711934446
135	0x3fc42ceef6893543	0.15762126005066976
136	0xbfbc5792929e8d9d	-0.11071125106405195
137	0xbf9debd218ddfb86	-0.029219897048729425
138	0x3fa77d79ec35c7f5	0.04587918289588792
139	0xbf9d9dcda50ee79a	-0.02892228431640085
140	0xbfa9b9b2b18e6fbe	-0.05024488847195084
141	0xbfbf7d571b65975e	-0.12300629061573207
142	0x3fa2392070a0c4da	0.035592092274222956
143	0xbfc9c8ca758d22bf	-0.20144015064058426
144	0xbfbb590765df3049	-0.1068272231779598
145	0xbfcb10aa956821b0	-0.2114461164021697
146	0xbfc9fb7d79506438	-0.20298736976181586
147	0xbfc44a67a5101eff	-0.1585206562015102
148	0xbfb6c397ec4de6b4	-0.0889220191874312
149	0xbfbcdddcc2a84597	-0.1127603507268503
150	0x3fac648eb2dc983c	0.05545469220514618
151	0xbfc29e4875e71994	-0.14545541531533657
152	0x3fb0bd51f08d77d2	0.06538879511705822
153	0xbf9f43def3025094	-0.030532344419569826
154	0x3f94d7d9514bc443	0.020354648196136315
155	0x3fc3c957a903e88b	0.15458198311518276
156	0x3f61320b75ad429f	0.002099058515718191
157	0x3fafbfa9ef4f148e	0.06200915380717574
158	0x3f8f4921f8ca2a15	0.015276208310088394
159	0x3fa13ae4f9ad354b	0.03365245387849799
160	0xbfd2f1e876e43b0a	-0.29601489649296353
161	0xbfaa7415df73da06	-0.05166691162769514
162	0x3f8b4f7d6213a830	0.013335208468976928
163	0x3f834e1d10c1d71c	0.00942633349789506
164	0xbfceef69ddebfa23	-0.24168132148766217
165	0xbfcdfeb0b7d554a6	-0.23433503128277272
166	0xbfbd8e629e3e70cf	-0.11545387614609413
167	0x3fbd52798de932d5	0.11453971590635643
168	0x3fba176854fc2e7b	0.101919670818626
169	0xbfb0e9da77e5d021	-0.06606831957998384
170	0x3fc06a01c9d91ca3	0.12823507648338248
171	0xbfb0e92b692f012b	-0.06605788534125583
172	0x3f74338a022ed7b4	0.00493196401196443
173	0xbfd56b25bc873a4f	-0.33466475878677654
174	0x3fb280673900e0fa	0.07227177755055783
175	0xbf963124a903b636	-0.021671841445757255
176	0xbfc2612208c9d093	-0.1435892622863589
177	0xbfd2113cb02986b7	-0.28230206683484077
178	0x3f95d910b8f4fad1	0.02133585099113128
179	0x3fc5879a0cab51ce	0.1682007371770297
180	0xbfc8e6f466cc2944	-0.19454817790421874
181	0x3fb30c515f41bb39	0.07440670562367026
182	0x3fbed1389abaa137	0.12037996079982781
183	0xbfcbf74d2bccbbc5	-0.21848454130801379
184	0xbfa15b1ad52226e4	-0.03389819957471987
185	0xbfb0cd6359542d4e	-0.06563397341613106
186	0x3fa2e1ba9f0f01b2	0.036878425518355754
187	0xbf62046a9778997f	-0.0021993715161158773
188	0xbfcb46c6dc8733c6	-0.2130974365994957
189	0xbfc8e0df6d0712a1	-0.19436257194151543
190	0xbfd4cc2b28230d33	-0.3249614612543212
191	0x3fb5b90fb325250a	0.08485506175670224
192	0xbfd5f6d97899ae1e	-0.3431914975869591
193	0xbfc26dee4e422e08	-0.14397982426849887
194	0x3f90943ecd193e26	0.016190511005616547
195	0xbfc7dd1c0dff7e72	-0.1864352291440699
196	0xbf9b6e25b844f0e3	-0.02678736626806789
197	0xbfddaed9e985c262	-0.46379707150393845
198	0xbf940001df71b35f	-0.019531277907322116
199	0xbfbe70e1a0a53b85	-0.11890993282325553
200	0x3fc259b30dc5041d	0.14336240932792146
201	0xbfc284980a9bba52	-0.14467144506439183
202	0xbfbf5da1d3fb5ddb	-0.12252246308650376
203	0x3fc71b15741001ae	0.18051403205028066
204	0xbfb9911eef52c2ea	-0.09987061827520063
205	0xbfd47a28fd96c170	-0.3199560619787212
206	0xbfc47ffd6c9f4e34	-0.16015594295332536
207	0xbfca569d9aa4a0a4	-0.2057682995885034
208	0xbf7cc31a8df705d9	-0.007022002915108649
209	0xbfb62edd4b516c49	-0.08665259445972241
210	0xbfcbb8103bd489d8	-0.21655466958425396
211	0xbfc6d60a88e21dbc	-0.17840701755288346
212	0xbfbae4d4cec90703	-0.10505418823688832
213	0x3fc7be787ca65542	0.18550020300305375
214	0x3fad64b7aa8d46ab	0.05740903813297157
215	0xbf945dc048589c85	-0.01988888207975183
216	0x3fb136bdd6e5044f	0.06724153992128488
217	0xbfc100de4fd4fee0	-0.13283900163695872
218	0xbfaa8308e86cef8a	-0.051780966160065736
219	0x3fc5b7f85014839f	0.1696768179909016
220	0xbf9736dd47489e8c	-0.022670228458223238
221	0x3fa3a78046ba7dc2	0.0383873068178633
222	0xbfc3ece3c61e5f4b	-0.1556668012024097
223	0x3fc1123a9de90bb3	0.1333688040777737
224	0xbfc73b55d7d9510f	-0.18149827041146024
225	0xbfcb8d5d56cb0f9d	-0.21525160539578972
226	0xbfc54bcf41b427be	-0.16637602527799616
227	0xbfc312b4a1160c8d	-0.14900834908994334
228	0x3faf459efc65dd7f	0.061078041372577545
229	0x3fa899a931b94ed2	0.04804733974438381
230	0x3fc50b9791f5e113	0.16441626193023548
231	0x3fac94c59c905b3e	0.05582253967457128
232	0x3fc14bcac6b9b073	0.13512549117456593
233	0xbfaba27c495e7219	-0.053974040943306
234	0x3fad0bb856f807bf	0.056730042091671866
235	0x3faa231ff640c08f	0.05104923134820282
236	0xbfbccde5c860fc5c	-0.11251674787580285
237	0x3fa65b6e095cd63d	0.04366630424776161
238	0xbfc097916d56a734	-0.12962549055856132
239	0xbfd20367a0d6bf5d	-0.2814578123752563
240	0xbfb8cfe6814d8723	-0.09692230850990007
241	0xbfa5fc41e86987db	-0.042940196629174664
242	0x3fa5abfc020c2c0f	0.042327761888451325
243	0x3fb5d1dbb42e4900	0.08523343228288027
244	0x3fb6a99c673f2b81	0.08852555771515648
245	0x3fb18391eda21c1b	0.06841384936898047
246	0x3fb223eea17c274a	0.0708607811212946
247	0xbf864ab0bf8d96da	-0.010884648175941636
248	0xbf926ada59bdab22	-0.01798573658690395
249	0xbfc1cbd818742f2a	-0.13903332895312676
250	0xbfcc579c159c2ac2	-0.22142363600899811
251	0xbfc3102b905a6fe4	-0.14893097446918013
252	0x3fc775094c4200c5	0.18325916503454756
253	0x3fad4a9b28060090	0.05720982421462495
254	0xbfb356af67c20dcd	-0.07554146083025799
255	0x3f998264bb15aaf5	0.024911474150409913

module.feat_mlp.4.bias f8 [32]
0	0xbfb4eef6b3ecc2e4	-0.0817712964315081
1	0xbfb5d465dd5e4742	-0.08527218489169022
2	0xbfb2d2e379f9b371	-0.07353040435709858
3	0xbf99a9d68f59a22a	-0.025061943530461907
4	0x3fc7e007d44d9925	0.1865243708263701
5	0xbfb804382ec0b7ab	-0.09381438390184253
6	0x3fcbe6d3809739a0	0.21798175600856684
7	0x3fb36d4e06e7e993	0.07588660877801194
8	0x3fbc5860d7435c2c	0.11072354560325043
9	0xbf9f031ced0ba613	-0.030285312622174553
10	0x3fb19b4d9fdf44bc	0.06877598908546906
11	0x3fb66befe2befb84	0.08758448873321184
12	0xbf95a8fdf712df44	-0.021152466015990315
13	0xbfba2638f4c83117	-0.10214572883723282
14	0x3fa1b5db0b0eb457	0.034590573406014506
15	0xbfbb577fbcc94298	-0.10680387839353
16	0xbfc4f2be1806a84d	-0.16365791485924533
17	0x3fba9d5a4a95c564	0.1039635116665259
18	0xbfa6653e69219344	-0.04374117883052134
19	0x3fbef775949d4dba	0.12096342924387829
20	0xbf9fa30d1f5699e8	-0.030895428693520716
21	0x3fa8e93edfa04c10	0.048654522703280745
22	0xbf834d74f60f62c5	-0.009425081023367263
23	0xbfc33c46a4119861	-0.1502769757382252
24	0xbf85ebd255770e59	-0.010703700287996986
25	0x3fbf99f457cd8067	0.12344290870305628
26	0xbfb677f2fce2fd57	-0.08776777910224119
27	0x3fbb607224f8cee8	0.10694039728769733
28	0xbfa6cc8371b99f59	-0.04452906382795047
29	0xbfa944441ac70886	-0.049348953503355594
30	0xbfa55a6091087c2a	-0.04170514841484192
31	0x3f9f99751d87128d	0.030858831336234394

module.transformer.to_qkv.weight f8 [96, 32]
0	0xbf884d4a01abe762	-0.01186616723633777
1	0xbfb5dbf950aa66e3	-0.08538778514266769
2	0x3fb8f7cff92e4cf4	0.09753131707684642
3	0xbfcb00b7b35c6172	-0.21095939882139764
4	0xbf96b25f70d284e1	-0.02216481329071918
5	0xbfb55430f8ff5b46	-0.08331590727844426
6	0x3f7b52b140d6ea3d	0.006670658488867218
7	0xbfbee8dd264cce1d	-0.12074072060641368
8	0x3fc758ac8d66a1c1	0.1823936167177305
9	0xbf8a1cec0309bf84	-0.012750476687159347
10	0x3fb2649012894880	0.07184696629090759
11	0xbf658bf936e2f11f	-0.00263022112548418
12	0x3fbe1ce111e55a67	0.11762816130554087
13	0x3fc1cf2ab797cdd0	0.1391347309541815
14	0x3fa1a2da71193015	0.03444559698672848
15	0xbfbe33f5d313359d	-0.11798035052489415
16	0x3fb4f775f46c6851	0.0819009515511493
17	0xbfcbc756e04e825e	-0.2170208544967122
18	0x3fbe698f55d8a571	0.11879821630340871
19	0x3f9f37a418ff91e8	0.030485691095138906
20	0x3f94f54c786d2288	0.020466990328062568
21	0xbfae041f929c70a0	-0.058625208517896654
22	0xbf984c3d1de7f424	-0.02372832770378265
23	0x3fb66165aa44f28d	0.08742366225210159
24	0x3f70503ecfd6c06a	0.003982777937764673
25	0x3fc0f4ad8eca7137	0.13246697876173538
26	0xbf82a9beb906cb8f	-0.009112825414239882
27	0x3fcc849366bd38d7	0.22279589191970814
28	0xbf9ee12fc407895b	-0.030155893649756887
29	0x3fc4f4cd0c64a71e	0.16372073273787974
30	0x3fb41f34cd7d193c	0.07860116974652426
31	0x3fc0ec1964842070	0.13220517547620458
32	0xbfb0ac19e83e975e	-0.06512605590850515
33	0xbfc0fea8d6d8e908	-0.1327715920504675
34	0xbfbdd8cd20e4482e	-0.11658937504788078
35	0xbfc8642ee973ea05	-0.19055735014974587
36	0x3fa508f9bf5a6cd7	0.041084103210971605
37	0x3fc29c11c03bcb79	0.14538785826115566
38	0x3fb200cb5d5ec73e	0.07032462148233962
39	0x3fd23f62efa1d4e6	0.28511880303933734
40	0xbfc1e94b0bb94cdb	-0.1399320418591746
41	0x3fbd271e073362a3	0.11387813258932993
42	0xbfb579193ca62842	-0.08387906771363965
43	0x3fabe0264b132930	0.05444450060311323
44	0xbfd674cf6ff257bc	-0.35087953502931746
45	0x3f84d078b13fc3ff	0.010163252743923932
46	0x3fc502b39ad3d811	0.16414494571625984
47	0x3fc907d824903f62	0.19555188927960915
48	0x3fadedfcfcbe7452	0.05845633111241767
49	0x3fc98e343f8709d2	0.1996522245591011
50	0x3fc0b01e812f13aa	0.1303747301846248
51	0x3fca1149959cae38	0.20365257077479426
52	0x3fc9f674e9708925	0.20283376120011912
53	0x3faf7bcdb50c2479	0.061491421080128235
54	0x3fc033f303b27e95	0.12658536606339924
55	0x3fb90575bdf18d9b	0.09773956191343418
56	0x3fc1f9eb7d8b5167	0.14043944959724827
57	0xbfd3be1d9fccc454	-0.308478742651521
58	0xbfc5db640ca46916	-0.17075777642532647
59	0xbfb9fa61cf6be4ee	-0.1014767772102407
60	0x3fcc5e588fd3d4cb	0.2216292097361133
61	0xbfba41c5444c2f52	-0.10256607930585673
62	0xbfc74cbd5786e39e	-0.182029407251119
63	0xbfbc59d1312eb626	-0.11074550104850597
64	0x3fbfe3d936a00746	0.12457044204350351
65	0xbfba7f66517f87b0	-0.10350646485997461
66	0x3fa8349afe68aa7c	0.047276347690361015
67	0x3fa488675e942221	0.04010317830585942
68	0x3fc7d963f7c1d921	0.18632173154373624
69	0xbfd0429934fa8071	-0.2540648476951964
70	0x3fd3afb31b1f27a6	0.3075988545284595
71	0xbfd43cc8c24b77ad	-0.3162099740419489
72	0x3f8a3f94a8a81321	0.012816583058346933
73	0xbfc6e25c9b87abee	-0.1787830123351734
74	0xbfb014c27b9360d4	-0.06281676785454532
75	0xbfa09bba3137e193	-0.032438105114070435
76	0xbfd491ec3aaf3a4e	-0.32140641909510215
77	0x3fc4b7925ec1aa5b	0.16185216547758582
78	0xbfd2ba0fcc45ff68	-0.2926063055856418
79	0x3fbf711c64229bd8	0.12281968540865706
80	0xbf9e13651e35a417	-0.029370861023753827
81	0xbf757a1d4ee7debf	-0.005243410573249895
82	0x3f95225db68b4e0c	0.020638908640490825
83	0xbfc7dcba8165c3e1	-0.18642360037077224
84	0xbfb5f068fdb202d6	-0.08569961732610962
85	0x3fadc25e1953147e	0.05812353190553042
86	0x3fb678efc9f9f4bf	0.08778284722389439
87	0xbf91088c42462f72	-0.016634170098356056
88	0xbfb612eb5b39ec99	-0.08622618653491755
89	0x3fc94de18d0818f0	0.19768924127874454
90	0xbfc3b4468bb53419	-0.15393907376929475
91	0xbfb82161f59f2d92	-0.09425937887788496
92	0x3fb3a0efe131b1a9	0.07667445419219256
93	0xbfd43ea8df12bba8	-0.3163244417618736
94	0x3fd92eae303b8229	0.3934741469402377
95	0x3fc44b1f27bcccf1	0.15854253235156748
96	0xbfbd52e3a4de106c	-0.11454603934368074
97	0x3fc56fdcc7297a5f	0.1674762699576204
98	0xbfa67c4490e8dbed	-0.04391683834949576
99	0xbfd3e21436367d93	-0.31067376417373643
100	0x3fc46f98a61a7c57	0.15965564833183762
101	0xbfaeaf79ee97efa3	-0.059932527899916786
102	0x3fcbf172b0615006	0.21830590832053093
103	0x3f990a4c8e0888a9	0.0244533502283352
104	0x3fd02a4b3775adce	0.25258140960678765
105	0x3fc4dd94a6056d98	0.16301210505012587
106	0x3fc4fb9d03add1e5	0.1639286296809949
107	0x3fa433050d8f0aa6	0.03945174971115266
108	0x3fa586be4d3a98e4	0.04204363529906788
109	0x3fa25a1039beea46	0.0358433790674622
110	0xbf9ef51b5c093461	-0.030231883518628048
111	0xbfa465896474265d	-0.03983716346017439
112	0xbfc9c7cdff67e907	-0.20141005488387284
113	0xbfd4c99ab436ee8e	-0.324804950705336
114	0x3faf1c825c085793	0.06076438306278855
115	0xbfccca04069e5b74	-0.22491503070042607
116	0xbfd3995a49a9456f	-0.3062349051807222
117	0xbf7a2efc2e0e9c8b	-0.006392464711928568
118	0xbf9e230ea07c8bcf	-0.029430607362097846
119	0xbfb0394fbe8e3ae8	-0.06337450411067957
120	0xbfb425367a51f501	-0.0786928223260084
121	0x3fbe6ce5f0171b59	0.11884915458277358
122	0xbfb25754f941e5f9	-0.07164507947336309
123	0x3fd92adb5874e907	0.39324077261302687
124	0x3fac62706aea56ef	0.05543853097075934
125	0x3fb46ba66000ae1c	0.07976760715308057
126	0x3fae5752025b791b	0.05925995138908232
127	0xbfc5ca2ca805f63b	-0.17023237423193102
128	0x3fbf912585c74b4a	0.12330851093365172
129	0x3fc3d99868bfdbcd	0.15507798304289935
130	0xbfc2565905b961e9	-0.1432601240110352
131	0xbfc4493d9bc0042e	-0.1584851274965628
132	0x3fb2a0571aec5c99	0.07275909812266192
133	0xbfd070b536014fa7	-0.2568791415590063
134	0x3fd7de5ad0a84199	0.3729464566868273
135	0x3fc326bd871079b4	0.14961976141871747
136	0xbfc79e7321bd6a5f	-0.18452300212341563
137	0x3f9c9ba2b4e5e4e8	0.027937452593936124
138	0x3fa9ba636b6161f6	0.050250155313452824
139	0x3fb9474db08bb39b	0.09874425468633634
140	0xbfda604a8ea451d3	-0.4121271508204504
141	0xbfb13c23c7c92c9e	-0.06732391002258217
142	0x3fd73c8c1e183841	0.36307051600386236
143	0xbfc34eaede582bfd	-0.15083871704732124
144	0xbfb3493054fbd759	-0.07533552241133402
145	0x3fb85f50f6d662ca	0.0952044108038407
146	0xbfb3a3b40c49d6e7	-0.0767166643143714
147	0x3fd0eabf3f4c66b9	0.26432782346237677
148	0xbfcadf8ca01a2d7f	-0.20994718377583507
149	0x3fc8f3c648bc12ae	0.19493940879342148
150	0xbfae32805fa3c78b	-0.058979045557761976
151	0xbfc4331a4e5cca93	-0.15780953241627013
152	0x3fc8194b229c15d8	0.18827189626624263
153	0x3fcab10df55349fe	0.20852827528740642
154	0x3fadb2424c84e665	0.05800063308784046
155	0x3fcd3f74f71fceed	0.22849905077565982
156	0x3fb71f433516cfd6	0.09032077833290883
157	0x3fcfda716c2f4ffc	0.2488538530584491
158	0xbfd056eb08d26582	-0.2553050600195875
159	0xbfd8fa37bbc10118	-0.3902720769438175
160	0x3fdc12e0895457b7	0.4386521664722482
161	0xbfd68abfa6aca684	-0.35221854473875447
162	0xbfd96428b80f44f2	-0.39673822378706725
163	0x3fc5d037c1801b7a	0.17041680286657962
164	0x3fd0478912eda999	0.25436617706750436
165	0x3fd95eee1eebc184	0.39641907710667845
166	0x3fd5ee90f89a8f69	0.34268593099317585
167	0x3fd884589496548f	0.38307775984260045
168	0xbf8466c98eb5016e	-0.009961676280568734
169	0xbfe1b48d28522912	-0.5532899653929084
170	0xbfc7d8b30d82eb31	-0.18630064162956608
171	0x3fae0ebdae563479	0.058706214457836255
172	0xbfbf61eb9a462baf	-0.12258789555032366
173	0x3f9e7221bcc8d4e3	0.029732253215304715
174	0x3fe4b22960167104	0.6467482449257038
175	0xbfd0c0958f02b8b8	-0.26175440755731527
176	0xbfc1960edb81ce37	-0.1373919078647405
177	0x3fddc4f12966e9e7	0.4651453880611868
178	0x3f89d349e7682f1b	0.012610032438736199
179	0x3fd792e0abb21679	0.3683396984782586
180	0xbfa74666bcf5cef3	-0.045458994451932265
181	0xbfa9675ee173c662	-0.04961678030111895
182	0x3fb0f126b65fd303	0.06617967560289277
183	0xbfd2f4b8338b7ba1	-0.2961864951484419
184	0x3fd52638e9e2a0b6	0.3304579052005566
185	0x3fc32cb6602054a6	0.14980201429049095
186	0xbfd803b7336ed0c7	-0.37522678396932146
187	0xbfbc265dfcc6858f	-0.10996043607021576
188	0x3fa8217f36975377	0.04713056126971698
189	0xbfdb68182b3333ad	-0.4282284185290404
190	0xbfcb7559772176a4	-0.21451872174195785
191	0xbfce818dac84d847	-0.23832865642333642
192	0xbf9a5583bd195f70	-0.02571683732671154
193	0x3f90db92d9f30a4e	0.01646260695702955
194	0x3fc11d6e7929d325	0.1337106792085702
195	0x3f93953ea07cd05f	0.019124010606177296
196	0xbfc079d1e83e4a58	-0.12871764984136536
197	0xbfb53d3aed7a84cd	-0.08296554849450218
198	0x3fc1e5818baecd53	0.13981646843385906
199	0x3fac56b0a00ffe6d	0.05534889177215239
200	0xbfc812d45932bdd9	-0.18807463031178775
201	0xbfb2f39f22254464	-0.07402987083084295
202	0x3f9b1b51da95714c	0.02647140404347796
203	0xbfba3a006f50ab90	-0.10244753568319553
204	0xbfd8b30863c66d8c	-0.38592729324019426
205	0x3fc9fd1142642477	0.20303550473935036
206	0xbfb5226a5d0d7857	-0.08255638858597202
207	0x3fb7839b64ca6371	0.09185191355426327
208	0xbfbf9b1281cce198	-0.12345996540978488
209	0xbfc0166caa43eae7	-0.1256843406079817
210	0xbfc3851a4bcd7c68	-0.15249947263052666
211	0x3f87e100db858c82	0.01165962858130443
212	0xbfb44b7591d7e9ec	-0.07927641687994197
213	0xbfb8785a1156dbe4	-0.09558642314264848
214	0x3fc03488883d4ba9	0.12660318996730993
215	0x3fc4c190fe7af58a	0.16215717721744866
216	0x3fc53684c3d34307	0.16572627603320475
217	0x3fbd13810c3a3a3f	0.11357885883828887
218	0xbfa85ce32f2334e9	-0.04758367491158728
219	0x3f9b6df0df45e3b1	0.026786578776839046
220	0x3fc119b7d4a89b47	0.13359735377999923
221	0xbfc9a0b679b699d6	-0.20021706526786315
222	0xbfae67cddf559f38	-0.05938571311236135
223	0xbfcb6a4a86dff1f3	-0.21418124757464305
224	0x3fbc7908b5a2b683	0.11122183260405376
225	0x3f93f7d132d4b21b	0.019500035026043343
226	0x3fbab9275a52b16c	0.10438772158767556
227	0xbf99afdb956e2ac8	-0.025084906573776405
228	0xbfa426c1d49b46c2	-0.03935819359106808
229	0x3fc7154322203de5	0.18033637205415612
230	0xbfd13583d9da419e	-0.26889129900612285
231	0xbfcddec5acdc4351	-0.2333609670681889
232	0x3fb64d5491b4e6cb	0.08711746747294595
233	0x3fc297497d28ade3	0.14524191485666824
234	0xbfc86b7e1a88dc4f	-0.19078041358599981
235	0xbfc210000eef70f0	-0.14111328820479896
236	0x3fd0a7683ea1c8a5	0.2602177249565421
237	0x3fcfa4777a60de45	0.2472066257048359
238	0xbfb566f002999be4	-0.0836019522044889
239	0x3fc10bdd12204799	0.1331745470529853
240	0x3fc5e161459f041d	0.1709405507990888
241	0xbfb1b372d7a12bd8	-0.06914441837686469
242	0xbfce15e081268740	-0.23504263216187304
243	0xbfb010f25db7481b	-0.0627585867689792
244	0x3fc1d7f33338b5da	0.13940277100611703
245	0xbfcf1172d992f47c	-0.24271999000294275
246	0x3fc20d41076712ff	0.1410294805665657
247	0xbf8cb34288916567	-0.0140137861182434
248	0x3fbd2e992d150362	0.113992284304016
249	0xbfc2a7b003f869b3	-0.1457424182306802
250	0xbfc0e16795cb90a8	-0.13187880338876323
251	0xbfbf8ddf42afb522	-0.12325854662022498
252	0xbfced43ad163026d	-0.24085173820460018
253	0xbfd11f4c23403f2e	-0.2675352424857803
254	0x3fcc5893e93bbc20	0.221453179248301
255	0x3fc2d2954cdfd68c	0.14705148938780999
