models/puray_medium2test.pt (torch, 326616 bytes, 41 tensors)

module.feat_mlp.0.weight f8 [32, 3]
0.38319236059778544 0.7641753717175747 0.3906041675700693 -0.17120724111630495 -0.02319299093367562 0.062482082663364205 0.10253893571611779 0.11238317410769548
0.4203690382877378 0.21810132775719196 -0.022313834265312336 -0.0777069463046848 -0.8747898857950357 0.4928185139663398 0.08211688888801787 -0.13066584021814256
0.049174362480888995 -0.2291010486106215 -0.4774287445054769 -0.4730426898668159 0.3854035027004605 -0.0650733684512651 0.32307359698890925 0.17009892150140088
-0.981701744661946 0.47313603358769224 0.041346184477410515 -0.06621266460868856 0.40596346498572716 0.2102753658287295 -0.19883233992086205 0.47375326137722673
0.35195670889104363 0.5451247584741385 -0.42597930461285455 0.42411505232925384 0.23875137770164453 1.0403615084722266 -0.08806464322891099 -0.28186905787620603
-0.08427295554253768 -0.5713021681886844 -0.3091985943120452 -0.027833777154061348 0.7585057939520582 -0.5022298914427608 0.2549352012965065 0.4216982690390041
0.04146909280422004 0.05462765299820003 -0.1946361390367906 -0.0001150500756622092 -0.12854865207287994 0.19977691969482428 0.3455883747854559 -0.6997774327740593
0.10098833364116382 0.6377094013375917 0.748997231275843 -0.35950837399949526 -0.3779980903619689 -0.31260675716496744 -0.8536422452061228 0.19840363618340717
0.7996935808288902 0.18674098439538878 -0.2041207015995992 0.1650993741392726 0.40581613089919266 -0.40949039317502467 -0.4568765994034702 0.1655216955794182
0.3870052752506862 -0.324354534397982 -0.6250056854941082 0.31810241196847777 -0.2981550134000765 0.4189101010642205 -0.18167932877127974 0.4975315288579838
0.49715477302372413 -0.08344927249476455 0.1463392004818501 -0.5242207410859141 0.12903017592321195 -0.7214780161177669 0.30982670221072145 -0.020627367164154312
-0.521527610871073 -0.02472746035748226 -0.2752735990579054 -0.24281744473450712 -0.841586521225975 -0.9805622167594285 -0.1019054676246614 0.39919074327317544
00000000: bd0c 3640 3986 d83f a7f0 bde8 1f74 e83f
00000010: 9c43 599f a8ff d83f cd69 b76e 1eea c5bf
00000020: 34eb 3946 e7bf 97bf 720f 40cb a6fd af3f
00000030: b5a5 77df fd3f ba3f 2fc9 69c9 24c5 bc3f
00000040: 7798 ec89 53e7 da3f 6135 f78a beea cb3f
00000050: e9e8 ab11 70d9 96bf 5af7 0c39 9ae4 b3bf
00000060: 638f cb5b 47fe ebbf e651 16aa 568a df3f
00000070: 5b2a 39c8 9c05 b53f fd7b 3883 a8b9 c0bf
00000080: 2c6b 50cd 612d a93f c786 a1e3 2e53 cdbf
00000090: 3691 f44a 318e debf 05c0 a5d8 5446 debf
000000a0: 5730 f773 73aa d83f c8b7 56f5 a5a8 b0bf
000000b0: 462e 51e1 3cad d43f 4279 772c cdc5 c53f
000000c0: 74f9 f7c6 196a efbf f55e b45b dc47 de3f
000000d0: 392b 4abc 532b a53f 1749 132d 50f3 b0bf
000000e0: b102 5f2f 4efb d93f 27c5 b19d 4dea ca3f
000000f0: f172 ac8e 5673 c9bf 0e44 ff32 f951 de3f
00000100: 69de 926e 7586 d63f c45c 3c7a a971 e13f
00000110: 2b71 85b3 3e43 dbbf d8b5 df75 b324 db3f
00000120: b73f 8db7 678f ce3f af7c ee1b 52a5 f03f
00000130: f321 9a8a 678b b6bf e949 5584 240a d2bf
00000140: f111 fe93 e992 b5bf 2723 107c 1b48 e2bf
00000150: a085 a2e6 e8c9 d3bf 0744 672a 7580 9cbf
00000160: 2738 5bf1 ad45 e83f cc3f da6b 4412 e0bf
00000170: 24bb 0abc db50 d03f 6859 93bc 1afd da3f
00000180: bc1f c7da 6f3b a53f 4d44 2bde 27f8 ab3f
00000190: 5230 e445 d6e9 c8bf 7451 de3f e128 1ebf
000001a0: 0d88 4c40 4874 c0bf a1dd 4a44 4a92 c93f
000001b0: 6a34 e5b3 1e1e d63f 20ca 87a4 9364 e6bf
000001c0: 8b2e 4416 5fda b93f 2018 e38b 1d68 e43f
000001d0: 37fa a30a c9f7 e73f 6fd2 3d69 2f02 d7bf
000001e0: e986 03e7 1e31 d8bf ba0e a2c5 bf01 d4bf
000001f0: 309e b48a 0951 ebbf 0059 6854 4a65 c93f
00000200: 1f66 0ffe 1697 e93f 8488 66ea 20e7 c73f
00000210: f946 e78c a020 cabf d155 42ee f921 c53f
00000220: b2ae 9938 e4f8 d93f 5ca0 ad31 1735 dabf
00000230: dfb7 2f59 773d ddbf 8462 a59e d02f c53f
00000240: fa31 25c6 b1c4 d83f ea1c 6385 39c2 d4bf
00000250: 365c 60ec 0b00 e4bf b2bb 0b38 ca5b d43f
00000260: f745 ecc3 f814 d3bf 813b 0250 6ccf da3f
00000270: ca47 b7ab 4441 c7bf 8421 4b7b 8ed7 df3f
00000280: 0efb cb40 62d1 df3f 0a71 3d78 ee5c b5bf
00000290: 639e 1830 3ebb c23f 102a 5b93 6ac6 e0bf
000002a0: f7c6 e490 0f84 c03f d747 8010 5916 e7bf
000002b0: 8b0b 5b60 33d4 d33f f191 7d2d 571f 95bf
000002c0: 6bdf 14ac 5ab0 e0bf f4af 31c6 2752 99bf
000002d0: 98fa 5928 159e d1bf 3239 045c a414 cfbf
000002e0: 6a70 2ddb 46ee eabf ab99 9503 c460 efbf
000002f0: 1444 bb0a 7a16 babf a159 ce54 578c d93f

module.feat_mlp.0.bias f8 [32]
0.03224656318136241 0.1204008250129702 -0.46803928765450536 0.18988479118061977 -0.16657520936013956 -0.45392649384015876 0.021643555771693572 0.28484261359331636
-0.12268730288240677 -0.4982095415946786 0.5170885634551977 0.2390822183177177 -0.29430292997814017 -0.03527457552603826 -0.09391132173195439 0.28204691761365297
0.04758538180701611 -0.2555300870600097 0.17050853816103015 -0.21700049108161948 -0.3718564532470265 0.1871417837345207 -0.5202813642433789 0.0789056911809409
-0.03593532557939405 0.2117769669600134 -0.11727200293093946 0.18898890005096208 -0.08079260750829861 -0.5475332750539017 -0.09245439499954687 -0.007996042613876412
00000000: 5d71 8b1c 9f82 a03f 8e95 d7a5 96d2 be3f
00000010: fb07 6e0e 5bf4 ddbf 5d74 1014 254e c83f
00000020: f758 4322 5652 c5bf 1b36 75b5 210d ddbf
00000030: ee94 d570 ba29 963f 47fd 7883 dc3a d23f
00000040: a5ae 8361 6f68 bfbf 3113 ed45 aae2 dfbf
00000050: 4b9f a550 fd8b e03f c867 5d02 3f9a ce3f
00000060: b5e0 d7f4 dbd5 d2bf ca7b 8758 820f a2bf
00000070: c918 9087 920a b8bf d2a5 c583 0e0d d23f
00000080: 11f3 4175 1c5d a83f 0846 c4dd 9a5a d0bf
00000090: fb91 8b49 39d3 c53f e1ab 340e acc6 cbbf
000000a0: 7b29 6002 7fcc d7bf 6b6c 6d10 43f4 c73f
000000b0: 2d98 841a 25a6 e0bf 8e25 17d3 2933 b43f
000000c0: 90eb 4470 1d66 a2bf 92d5 91f5 811b cb3f
000000d0: 2b26 53b9 8905 bebf 8650 83cc c930 c83f
000000e0: 86b7 0107 d3ae b4bf 4681 ba80 6485 e1bf
000000f0: 3fff e45a 17ab b7bf 3532 31ac 3a60 80bf

module.feat_mlp.2.weight f8 [32, 32]
-0.08991836276823482 0.07414464638801656 0.1115805437494794 -0.17936523229377796 -0.020877123215123427 0.16055408552388778 -0.046356499413568654 -0.1418664142538466
0.009882776844970114 -0.009743182689456311 -0.16756470254956515 -0.020266106063183045 0.16609717248037245 -0.007390087359400899 -0.11649134212448692 0.12244440844302662
0.09466113890587559 -0.05693405103934829 0.1356550489568975 -0.12146881330645669 -0.16697096103582829 -0.1937246399085223 0.09291640765517895 -0.14742036622181
-0.13954092070175259 0.021604815557719544 -0.16787547831980668 0.14117115407227207 -0.11306573910252121 0.1437040146274602 0.0600131818840706 -0.09554057997123631
-0.09847152743512158 0.1347328524054462 0.1676122956980608 -0.0910046412587347 -0.03339800518636986 0.06376793825785922 0.12454722420729028 0.0006970044393603284
0.13337955204893326 -0.11602473952922444 -0.16480247246473984 -0.1817874583599378 -0.0918939389690383 0.11185027096744607 -0.15175593958439054 -0.0281820338200244
-0.012210742357044684 -0.0906917411228435 -0.1079665808070658 0.23104278820113447 0.02004975297407154 -0.1449594910702673 -0.13582068443878953 -0.06185368162449846
-0.09874257741443643 0.11449919246415076 -0.0892181593353412 0.08071188466796918 -0.10972349457451187 -0.07721755849620654 -0.1960674097502077 -0.18346711443884672
0.24686540393856457 -0.013886860843116518 0.0824995040330658 -0.1582403786471303 -0.36446260988181683 0.14945872625895618 -0.16997881107219381 0.038080094542964654
-0.059756351307262 -0.05043079184100083 0.06115827652636659 -0.03511444522014152 -0.044140435645923716 -0.33053601919542036 0.006652111388268303 -0.006706491879829152
-0.13041953681015078 0.08127622147401904 -0.2923478295083985 -0.47359005384805514 0.08805131860994642 -0.07406586592511887 -0.07852029323115728 -0.0017658430969747694
-0.09454230895441453 0.0321056278866537 -0.09520664038257004 0.08961631930326608 -0.14668432246495391 0.12314100823769357 -0.0491792274860885 -0.31724003227151104
-0.3478564702984852 -0.11324487138066806 0.08028906079465056 0.07581120816918957 -0.03943611578298003 -0.13921885054175415 -0.17771245679253375 -0.1713128550317461
-0.18736785714957327 0.042369284393300205 -0.0669773312006503 0.04331203593415232 -0.34087018618268583 0.060481522413502395 -0.20693914962687512 -0.047769727978212044
0.09342540625916469 -0.0517570140517511 0.15457519418461035 -0.2420463880015484 -0.20337072064252124 0.061502157576499586 0.12768204361026794 0.01505863939330037
0.10527176143114643 0.10124165826290236 -0.20376882809643382 -0.06117780088962404 -0.13472501826688135 0.1924414976934057 -0.018849919904543305 -0.10548068105382412
-0.1377734643807273 -0.1912583907457157 -0.11038245738375313 -0.14286256900523212 -0.09509980704888482 0.15291339422051736 -0.176022320786115 0.03210410508859587
0.06920397629497944 -0.09773981386249282 -0.08907457950572356 0.01093927732019455 0.010740873359075972 -0.19091360544581568 -0.07593156531109442 -0.08962364393108808
-0.054961962011636126 -0.07691454974161509 -0.0014712784333613144 0.07005980007341209 -0.15451912643353025 -0.18411738156667773 -0.16342114591004891 -0.10707888911472802
0.02610685769926237 0.005082722641668154 -0.04104960878902712 0.039741864287115805 -0.13897070696569638 0.10227437121378519 -0.18381906019077582 0.028926005636244496
0.019470945684019934 0.11121095736868898 -0.07045480773940528 -0.12347227846656704 -0.05103167397704298 -0.09247375105143461 -0.08932966098458978 -0.16985284556865304
-0.02636334855609369 -0.02294738037775119 -0.09871089065032033 -0.13044973956090747 -0.06918848103972568 0.11517631928453691 0.1310120121059975 0.04288914752467365
-0.04445241629491781 -0.12013539926203035 0.043154514425089004 0.13349038257613394 -0.042013875053410955 0.030092135624796467 0.010963007962411885 -0.09693714326276397
-0.025799985344894444 0.07133848266048598 0.03429599620984791 -0.04601690676249525 0.13886344634010783 -0.09737789687856026 0.1822950620451714 0.0048756732879064926
0.08478729839335791 -0.15997030484349115 -0.20161060441747577 -0.02017548638257944 -0.3849910816863845 -0.10749021597673304 -0.13030617618495088 0.14485378385056014
-0.2315275728713738 -0.08775908764347197 0.1428129874354107 0.1443922425527628 -0.3699970641382179 -0.3627218633976015 0.03476320566899271 -0.03526269510005321
-0.06212018245694413 -0.13503145276321585 -0.0005737156612959052 -0.2774268935099049 -0.07993455564483254 -0.004484631392366616 0.04034597022113999 -0.10632444938872881
-0.09790737074035588 0.07422257259579909 -0.1910769275716278 -0.2690366570320658 -0.47065953954156675 -0.02528031772939293 -0.5702202625576276 -0.3409983630972119
-0.24394174697913834 -0.04035726537601218 0.1549487059949334 0.10275968313815918 -0.2794587504818279 -0.15378234273714683 -0.0016147151006889106 -0.32576483223784775
-0.15037836866442297 0.09740642584046844 -0.39750607530767995 -0.06345668936146309 -0.09763017219831917 0.04451571501875871 -0.007054608250411619 -0.2322503413351968
-0.022858231401734628 -0.12284937737915573 0.09749824638213814 0.24396242460267664 0.11740958535988903 -0.09735304277623255 -0.1735901223881927 -0.19176875384440853
0.016456581344981132 0.07307967193628928 -0.0021844649277518754 0.026073998878917252 0.2117242217268235 -0.1650339836026437 0.14416781425960157 0.033608357122631785
00000000: 3741 66cb e304 b7bf c9f6 68bf 24fb b23f
00000010: 0c1f 46e2 8a90 bc3f 47e0 5e9f 70f5 c6bf
00000020: 7329 c605 d060 95bf 7e3a 4849 098d c43f
00000030: 8d6b e001 0abc a7bf e07e cfbc ad28 c2bf
00000040: 9614 beda 6b3d 843f 0ed3 14d8 3bf4 83bf
00000050: 6d09 b59a c272 c5bf 87d8 085b a3c0 94bf
00000060: 5371 e111 ac42 c53f 4d11 5f78 1145 7ebf
00000070: 041b b168 60d2 bdbf f842 d749 8458 bf3f
00000080: 8187 cd5f b63b b83f b84f 7cbe 7526 adbf
00000090: d050 6707 255d c13f eb99 a284 9418 bfbf
000000a0: cfe9 83f0 4d5f c5bf c411 6b10 f8cb c8bf
000000b0: 500b 24a4 5ec9 b73f 2df0 d7a9 abde c2bf
000000c0: a712 6f15 7adc c1bf 82ac 06a1 921f 963f
000000d0: e98a 9794 f17c c5bf 9b82 f078 e511 c23f
000000e0: 444f be53 e0f1 bcbf 117e 90a5 e464 c23f
000000f0: 45be 0a3b 0cba ae3f 4fd6 6af2 5875 b8bf
00000100: 92c7 eb15 6e35 b9bf 9c9b 6315 ed3e c13f
00000110: a01f 37d8 5174 c53f f48f fd85 144c b7bf
00000120: a6df 0d18 8b19 a1bf 79d1 5979 1853 b03f
00000130: e223 c7ae 53e2 bf3f 0d16 d8a2 e5d6 463f
00000140: 9cad 00c7 9412 c13f 6110 ce1d ccb3 bdbf
00000150: 969b c456 3f18 c5bf 6b4c 3dba cf44 c7bf
00000160: 8098 9276 5c86 b7bf 729a da27 38a2 bc3f
00000170: 068e be16 bd6c c3bf 27f9 5d46 c0db 9cbf
00000180: c9c7 aa18 f201 89bf 38d1 23ee 9237 b7bf
00000190: 0196 a0a5 b2a3 bbbf ad77 a661 cf92 cd3f
000001a0: c51c 4425 ec87 943f 0420 b258 088e c2bf
000001b0: d278 e47a 9262 c1bf 12c8 6d27 49ab afbf
000001c0: a4be b78c 3147 b9bf c14b 0daf d14f bd3f
000001d0: c3fa 8d54 00d7 b6bf c725 0cb9 88a9 b43f
000001e0: 85e4 ccc4 d616 bcbf 740d 6ba8 87c4 b3bf
000001f0: 2e23 58a4 bc18 c9bf d202 34b4 d97b c7bf
00000200: 1309 371a 4999 cf3f be82 52e9 b670 8cbf
00000210: de1b c2ff af1e b53f 3219 9981 3841 c4bf
00000220: 53a9 83fb 5a53 d7bf 0028 b1aa 7621 c33f
00000230: 60b5 489d ddc1 c5bf 1c99 61f1 3b7f a33f
00000240: b39a 2f6d 6298 aebf 4c43 5693 10d2 a9bf
00000250: caf5 1e3b 2350 af3f e1e5 ac43 85fa a1bf
00000260: 2d95 0f3f 9399 a6bf f909 268c 8027 d5bf
00000270: 2a98 ca8d 3e3f 7b3f d451 b734 4478 7bbf
00000280: def5 ad5e 96b1 c0bf a161 2cb9 84ce b43f
00000290: d3e3 b2ab d3b5 d2bf e93f 3fa8 4c4f debf
000002a0: 38a5 ccfd 878a b63f 67f7 e507 fbf5 b2bf
000002b0: e009 80eb e719 b4bf 56e9 7c96 7bee 5cbf
000002c0: 792b 0cbd ec33 b8bf add9 941b 2670 a03f
000002d0: b41f ce5e 765f b8bf 886d 9858 18f1 b63f
000002e0: a154 e947 8dc6 c2bf 7f67 2d4b 2b86 bf3f
000002f0: a1fd 630b 052e a9bf d5a3 e522 a94d d4bf
00000300: 4893 e8c8 4743 d6bf c70a 05ab 9dfd bcbf
00000310: b6ee 56ea d28d b43f 54c5 c103 5d68 b33f
00000320: 136a 2377 f830 a4bf 4622 085d ecd1 c1bf
00000330: f303 0223 48bf c6bf 5c74 df62 94ed c5bf
00000340: d4b6 6381 abfb c7bf acf6 a545 6db1 a53f
00000350: f084 1427 6d25 b1bf 3d81 b8c3 fe2c a63f
00000360: 1e82 752f d1d0 d5bf 367b 8e21 6ff7 ae3f
00000370: d169 f467 fb7c cabf 377b cf16 4675 a8bf
00000380: f5a5 7f38 baea b73f 79bb 6135 e57f aabf
00000390: 2adb e5b5 1ec9 c33f 1f71 4a44 60fb cebf
000003a0: 7fd1 0f41 0d08 cabf a258 d9f6 357d af3f
000003b0: 91d8 cb9c e257 c03f 1c5b bb5d 10d7 8e3f
000003c0: ad01 8a14 17f3 ba3f a362 3b2b f9ea b93f
000003d0: b028 4fd2 1815 cabf 27d0 1f5c b252 afbf
000003e0: 9162 b45d ab3e c1bf 9143 7e49 eca1 c83f
000003f0: 3bc4 16b6 644d 93bf 4769 7c2b c800 bbbf
00000400: cecb e295 8fa2 c1bf f051 abaa 277b c8bf
00000410: e4ec 8354 0642 bcbf 199a d916 5249 c2bf
00000420: bc80 2101 7658 b8bf be13 a685 aa92 c33f
00000430: ab39 923f e687 c6bf f381 d802 f36f a03f
00000440: 21aa f00e 5ab7 b13f 0579 0ef8 7905 b9bf
00000450: 04cd e175 97cd b6bf 5929 a8f2 5467 863f
00000460: 1e30 769e 4fff 853f 2b28 e065 db6f c8bf
00000470: f5c7 be45 4070 b3bf 25e3 a13b 93f1 b6bf
00000480: 7a5a ba6a f923 acbf b30f ba03 acb0 b3bf
00000490: 0d51 4b30 fd1a 58bf e260 1466 70ef b13f
000004a0: 6bba 5161 48c7 c3bf ca1d 3a8a 2891 c7bf
000004b0: de49 94ee fbea c4bf fcfa d6a6 8569 bbbf
000004c0: 2521 1490 c1bb 9a3f 4864 54f8 9ed1 743f
000004d0: e661 864e 7404 a5bf f25b caae 0b59 a43f
000004e0: 6584 c2c8 cac9 c1bf 2c09 9537 a72e ba3f
000004f0: a64e f309 6287 c7bf e5a8 d860 c79e 9d3f
00000500: d67f bd0b 31f0 933f 7df9 da40 5278 bc3f
00000510: d932 1687 5309 b2bf 97fc f915 e19b bfbf
00000520: ed43 95d5 d220 aabf 8f1d 8118 5cac b7bf
00000530: 34d8 7d04 4fde b6bf a2c9 6cf0 bcbd c5bf
00000540: 8325 725f fefe 9abf 5358 01a1 847f 97bf
00000550: 0727 1aef 1d45 b9bf c9c8 97ba 93b2 c0bf
00000560: 7356 5317 56b6 b1bf 1bca 99fc 317c bd3f
00000570: ea6f b069 00c5 c03f cf8e f1fb 90f5 a53f
00000580: c000 6e94 77c2 a6bf 5a1d ec8a 31c1 bebf
00000590: 31d3 4238 5918 a63f ee5c bf7d 3616 c13f
000005a0: 854e aab6 d782 a5bf f34d 8009 79d0 9e3f
000005b0: f994 5005 c673 863f 03cc 1464 dfd0 b8bf
000005c0: b8a5 2cb5 4f6b 9abf d419 f921 3d43 b23f
000005d0: 60c7 35ac 3e8f a13f 8f4b 372b 878f a7bf
000005e0: a4ff 5104 47c6 c13f 6959 7202 c2ed b8bf
000005f0: 1b68 dad0 7155 c73f f6a3 1495 83f8 733f
00000600: dc35 b7d1 9eb4 b53f 1b25 d12d e879 c4bf
00000610: 23fb 3f54 60ce c9bf d2ba c6f8 e1a8 94bf
00000620: 560f 46a2 b1a3 d8bf 5192 4292 7a84 bbbf
00000630: d830 976e dfad c0bf 6885 2b9c 918a c23f
00000640: 536a cd0c b2a2 cdbf b102 5b2b 6177 b6bf
00000650: b854 3d2b b247 c23f 27b5 c7eb 717b c23f
00000660: ffbc 852a 08ae d7bf 688f 35c3 d536 d7bf
00000670: efa6 e79e 7bcc a13f e274 72b4 f30d a2bf
00000680: 1af4 2570 37ce afbf 1d52 c6ec b548 c1bf
00000690: dae6 5000 adcc 42bf 88fa a9ba 5cc1 d1bf
000006a0: e099 504e 9776 b4bf 5224 a312 7a5e 72bf
000006b0: 6618 401d 3aa8 a43f c4c9 e340 1438 bbbf
000006c0: 3cff 5d1b 7510 b9bf 8687 ec21 4000 b33f
000006d0: d25b 7871 3575 c8bf 5e2f d886 e537 d1bf
000006e0: a569 7830 491f debf 705b 8567 15e3 99bf
000006f0: 0c73 6690 3e3f e2bf e27d 5fcc ead2 d5bf
00000700: dac6 b3b0 7b39 cfbf 9655 e41d b5a9 a4bf
00000710: 1523 67f4 5bd5 c33f bffb 6c66 754e ba3f
00000720: 62a1 79f4 a6e2 d1bf 4310 61ca 23af c3bf
00000730: 5d30 3023 9b74 5abf bd80 29bd 54d9 d4bf
00000740: 7342 b82f 993f c3bf 18b2 67a5 a0ef b83f
00000750: 5f19 5a52 bd70 d9bf 2819 8595 b23e b0bf
00000760: 39d3 b17c 4afe b8bf 9dc6 5388 c3ca a63f
00000770: 98b6 8bfb 4ae5 7cbf 377f 4212 61ba cdbf
00000780: 2968 42f1 2568 97bf 736c 2d8a 0e73 bfbf
00000790: 22ee a023 a5f5 b83f ca88 8f25 293a cf3f
000007a0: 8b8e 5bf9 8d0e be3f 8ed7 e306 21ec b8bf
000007b0: 3c70 487d 3338 c6bf 3505 14e7 e08b c8bf
000007c0: 52fe b87a fed9 903f 6801 f870 59b5 b23f
000007d0: 8706 91ad 27e5 61bf 9ef3 d771 24b3 9a3f
000007e0: b53b 0b80 c719 cb3f 76a6 2665 d51f c5bf
000007f0: c4bd b047 1774 c23f 6290 6d55 1d35 a13f

module.feat_mlp.2.bias f8 [32]
-0.042189844381555604 0.01326247655639461 0.10292356839493387 -0.0549985175064094 0.05021262336814239 -0.12339008181096606 0.11720198849194809 -0.1666067343905779
0.08413912636985318 -0.017877978203882792 0.0014658907786711702 -0.08043463616960711 -0.05035402850754573 -0.056712853564376636 -0.017265701628362905 -0.17789874381986792
-0.004770771981467942 -0.10373261642151821 0.04148939566028441 0.14674427477201224 -0.25145034771415425 -0.16430991968958192 -0.11941764905144836 -0.09615202302422157
-0.005127354146603061 -0.1737817912680458 0.08349824168522704 -0.10416269969258062 -0.12472651914909594 -0.08076092977527641 0.033889961214910475 -0.1567676599170724
00000000: 2129 af43 e899 a5bf 5ae6 9678 5b29 8b3f
00000010: 9f6d 3ef0 3259 ba3f 627a 0904 c428 acbf
00000020: a4d1 6c0e 78b5 a93f 9c63 070e 7e96 bfbf
00000030: a95d 9913 f300 be3f 2f1d c095 5e53 c5bf
00000040: 5e91 124c 248a b53f 192e d1ce 9a4e 92bf
00000050: 50b5 0c3d 6404 583f 406a d043 5d97 b4bf
00000060: 49d2 52d3 00c8 a9bf 84c7 a496 7709 adbf
00000070: 5662 589f 19ae 91bf 2458 5ad3 62c5 c6bf
00000080: a078 315a 848a 73bf 4016 0f83 388e babf
00000090: 7ec3 fb1a 193e a53f 20b1 8232 84c8 c23f
000000a0: fb01 0033 c317 d0bf 6ad1 bc81 1b08 c5bf
000000b0: b8bd 3db1 2792 bebf 3a51 5542 6b9d b8bf
000000c0: 1da6 fea5 6b00 75bf a37a 1153 7b3e c6bf
000000d0: 02c2 4f09 2460 b53f 2f88 a41c 68aa babf
000000e0: f874 b0c0 13ee bfbf daea 2d90 bfac b4bf
000000f0: ec57 2966 065a a13f ff06 3572 f610 c4bf

module.feat_mlp.4.weight f8 [32, 32]
0.10332499650447814 -0.038698739091005185 -0.07098917883272061 0.10380952890935344 -0.07980512976672316 0.20950976857870976 -0.20796127719975546 0.06301863648662999
0.37555058697130794 -0.07619837546583041 0.20098536863565994 0.08778957785719843 0.15142865199317015 -0.16735307430922325 0.04660727833959259 -0.06704387413319965
-0.14873937359116313 0.131425928776516 -0.13017495223417652 -0.10237733450128199 -0.17744486571196016 0.13262426477840958 0.3069943395302209 0.19050140934802268
-0.08132855526237528 -0.004880523057602721 0.09079631857686371 -0.09756114123026789 0.14578492133432477 -0.1250077246060979 -0.12541952205907178 -0.02423183644431198
-0.09897584274687812 0.08148347317913154 0.10528325716289262 0.03827864857676698 0.08689979280550034 0.12363089440894293 -0.009048496164944174 -0.07846493884574915
0.06264590551357584 -0.11138971839328486 -0.050200546862034706 0.06208694771577793 -0.17672250643343246 -0.07558227661477852 0.12079440846100636 0.06591335257295795
-0.0172823512713512 -0.03624141184086136 0.21030565209953717 -0.09725036325900498 -0.09059524322730661 -0.0017641364660011432 -0.009724828049686515 0.1775591447536155
-0.025122328851573637 -0.08360423513107403 0.1395488262422175 0.09426223210934305 0.005670955698300443 -0.08678177765918205 -0.07511990532535368 -0.1640721483722628
-0.1492637100886552 0.07594097970788213 0.08498159590517135 -0.10951220505944279 0.018899441565729733 0.1494199626465408 0.17543972611401235 0.12535368693395504
-0.04016258880571773 0.05323662493267228 -0.146221478642943 0.0026372413800056114 0.027436089492077997 -0.03684553734417288 0.1214013649777319 0.16811874806865454
0.20618733830900352 0.15983501520934135 -0.010233812300204597 -0.06529868512125575 0.0037413925630601394 -0.19848249793676204 -0.035678246946412494 -0.08226058863128742
0.0723360172172445 0.11284287579857791 0.11276182190268418 0.05273974558310309 0.06437935895103193 -0.09456108005683918 -0.12181681764472636 0.16176016252229145
-0.038397628508839224 0.05373588450707369 -0.037665423190838314 0.10910599098201798 0.0045386432972541685 -0.05673778042878909 -0.022939975124061984 -0.1528179381069053
0.02370370975116411 -0.008052157263091731 -0.046273148270338356 -0.1482444681363524 0.1361820323698635 -0.025943359771434322 -0.07468388996326328 0.12338200721047089
0.05345262756741734 0.06094109608775895 -0.06966898791963731 0.08062872329926385 -0.14815278463118978 -0.003638684911978844 0.013070643253009516 0.06073744585312486
-0.07138619088302905 -0.15786314019586917 -0.011817946090631913 0.12994962529087808 -0.09244586825498188 0.10864672104086405 0.03679179750514219 -0.034734467542265536
-0.023718071731415408 -0.1574359250994252 0.09380984454927306 0.08865028517383673 -0.12427229986376956 -0.046717537670267095 -0.014657098164744135 0.13779872585566383
-0.1603559047483648 -0.02587901120783908 0.05450234148281074 -0.0649125713560535 -0.08819850851443561 0.013164098906607724 0.005387285994612712 -0.18824553384001727
-0.11060252671976076 -0.15199246401533667 -0.19103084063562362 -0.15806314278607766 0.0469933471573611 -0.1130429382576682 0.028960301043003622 -0.06440865934079233
0.07723724563070315 -0.021008545402695904 -0.07047370179129846 0.15458198311518276 -0.04519099856376627 0.06804538240190473 0.11870221839188366 0.055732369225082505
-0.11060208140081508 0.04930920138333766 0.05837515894055138 0.10358776537319056 -0.0685861731370572 -0.12034816805763915 -0.07126719798573358 0.09019981804658961
0.1280867036605796 -0.09416036998911878 0.21817302537703365 -0.012977041315365583 -0.03885318174818261 -0.20957173216413766 0.07581705446960929 -0.037196895616592306
-0.10951972840934404 -0.021371023991681583 0.07735495259690375 0.1779312583694505 -0.05680905505416086 0.07405382973205334 0.26990493290074463 -0.0024545029041325647
-0.004210889711618211 -0.08175298526938402 0.029114066409139248 -0.0021993715161158773 -0.15956323846502662 -0.18635093988729853 -0.18157106554868288 0.04234574981202843
0.0200342598263811 -0.11339979689675524 -0.02684839275186491 -0.058208991286202036 0.15835899528946668 -0.12494262868111161 -0.005662969462942507 -0.12129118961509641
-0.05453271224644011 -0.1538206155522925 -0.0567137235018099 0.21765098712681452 -0.052570030427882906 -0.04278699902317782 -0.1597947847132237 -0.04860079797359316
-0.06911878120959854 -0.004089325971027909 -0.137127310789701 -0.18218133700926298 -0.12240001413719981 0.18544448198610308 -0.06683807613700873 0.11434840560814066
0.1308341207655253 -0.14404544553870224 0.06378848526889148 0.1696768179909016 0.02263902765180408 0.041151377658554984 -0.024698542510740298 0.07314815193521948
-0.10391485840978855 -0.18122096976621632 -0.1856290004314174 -0.17773401767567604 0.06795882934021824 0.139237949782955 0.08839315549337368 0.011190682073582245
0.10571506435844885 -0.04624269058002386 0.025561107304032837 0.019578641952583197 -0.13091477226031517 0.07430338316615108 -0.1173298003932627 -0.1217749241863832
-0.061178464379677555 -0.040035517874128054 0.00010212758079037821 0.0017152762531862317 -0.05277823025673568 0.06904170861560209 0.043894214606653166 -0.012048791141099486
0.05896722863983631 -0.09428582030584798 0.030214283039495422 -0.14893097446918013 0.11661425233907168 0.05200488518743877 -0.07592950969156873 -0.02864755093082948
00000000: 9996 d8c8 8173 ba3f e0a8 9535 52d0 a3bf
00000010: a1d8 74c9 582c b2bf 6ec8 ade3 4293 ba3f
00000020: 48af 66e6 1b6e b4bf a179 1e52 37d1 ca3f
00000030: b923 34a2 799e cabf 79a3 bf46 fd21 b03f
00000040: 8643 4254 0509 d83f 7052 a29a bc81 b3bf
00000050: 7fe0 a178 e3b9 c93f 4089 d3b5 6079 b63f
00000060: cd77 fe99 0362 c33f a686 8556 d36b c5bf
00000070: c6bf 72c0 e8dc a73f 869a cc8e c929 b1bf
00000080: 1acd 994c e409 c3bf 1685 f898 90d2 c03f
00000090: cc54 4da5 92a9 c0bf 63df 88a7 6635 babf
000000a0: bcb9 896b 83b6 c6bf 5b8d f0f7 d4f9 c03f
000000b0: 0ab9 1596 cba5 d33f eaee 7ea5 5962 c83f
000000c0: 6234 15bd f2d1 b4bf ba68 b76e 99fd 73bf
000000d0: 0484 e272 6d3e b73f adc6 f156 c4f9 b8bf
000000e0: f1bf b08e 14a9 c23f c11c 77cc 4000 c0bf
000000f0: 6b07 c334 bf0d c0bf 8f8c 3304 3bd0 98bf
00000100: 121f b117 7b56 b9bf 6a07 78d4 19dc b43f
00000110: 35bb 54f2 d7f3 ba3f be69 8b4f 4299 a33f
00000120: 0af9 2098 103f b63f c8fa 4238 46a6 bf3f
00000130: f9f0 d998 0488 82bf 4aa2 393a 4716 b4bf
00000140: b7bb 68e3 8f09 b03f 631c 9c5d 0984 bcbf
00000150: d40a 07d6 e2b3 a9bf 9f3c e543 dcc9 af3f
00000160: 94a3 ccd4 d79e c6bf 25bb 372e 5c59 b3bf
00000170: 3c33 e1e1 61ec be3f 99aa ab8d b2df b03f
00000180: d2a3 08f6 76b2 91bf 7d17 3cfd 3b8e a2bf
00000190: 463a f7ac 4beb ca3f 43b7 b859 66e5 b8bf
000001a0: 589e d5f6 3f31 b7bf cf85 561b 53e7 5cbf
000001b0: 2b05 7653 9cea 83bf f647 e90f 42ba c63f
000001c0: 8678 44f3 aab9 99bf 45ef b14f 1667 b5bf
000001d0: c7e7 7366 bcdc c13f c957 28d4 9121 b83f
000001e0: 7724 2e94 6d3a 773f 9857 efa0 5437 b6bf
000001f0: 9ca8 a6e0 0e3b b3bf fcbe b8ef 5000 c5bf
00000200: 2abb a7c0 121b c3bf 8684 4538 de70 b33f
00000210: 7cb2 2c97 5ac1 b53f 3e3f 3eeb fd08 bcbf
00000220: b9f8 bf0d 605a 933f 15dd 777e 3120 c33f
00000230: bf18 0a17 cf74 c63f ee3c e8f0 960b c03f
00000240: 1af2 e2da 3090 a4bf b80b 12b6 d441 ab3f
00000250: 0842 5faa 62b7 c2bf a62e 522f b29a 653f
00000260: 83f8 64cc 3418 9c3f 5625 cb13 6bdd a2bf
00000270: efe4 44ec 2814 bf3f 9750 6646 ea84 c53f
00000280: 7577 71c1 5864 ca3f 5a36 8a49 7975 c43f
00000290: 836a 2409 77f5 84bf ec4d 1125 6ab7 b0bf
000002a0: c718 65d6 44a6 6e3f 76bf bbde df67 c9bf
000002b0: fb7c a04f 6b44 a2bf 7bcc eba9 070f b5bf
000002c0: 825d 45fc 9c84 b23f 2a38 244d 45e3 bc3f
000002d0: 2b35 4f71 f5dd bc3f bb23 f534 b400 ab3f
000002e0: ad6c 3b69 2a7b b03f 498d 51aa 2735 b8bf
000002f0: 950b e30f 632f bfbf f518 ea97 8eb4 c43f
00000300: e2fb 609d daa8 a3bf 23b6 2815 4583 ab3f
00000310: 6fdc 96e1 e148 a3bf 8ec0 10c7 5eee bb3f
00000320: 7989 7ac8 1c97 723f 724f c7fe bb0c adbf
00000330: 8031 b7ab 937d 97bf d2a5 34c7 898f c3bf
00000340: 4554 b308 c945 983f 479a db40 a67d 80bf
00000350: 7114 0235 1db1 a7bf b0b1 3abb acf9 c2bf
00000360: 916a aaaf 696e c13f 9512 1167 e590 9abf
00000370: ba26 eec0 7b1e b3bf 4941 e295 f695 bf3f
00000380: 541c 938e 245e ab3f 9acf 5bdd ab33 af3f
00000390: e306 a9a8 d3d5 b1bf 3846 b081 15a4 b43f
000003a0: 7db1 66a2 abf6 c2bf 2315 5116 e0ce 6dbf
000003b0: 2c91 790a c8c4 8a3f 1ada 297f fa18 af3f
000003c0: 0c87 3a8b 5d46 b2bf a64b 3100 dc34 c4bf
000003d0: 3fa3 b8df 0134 88bf 313a 6077 30a2 c03f
000003e0: 6633 ce4c 88aa b7bf 592a b081 45d0 bb3f
000003f0: 245e 17de 5fd6 a23f 75a8 4654 b7c8 a1bf
00000400: 4877 a4d9 8c49 98bf a53e c242 dc26 c4bf
00000410: e5c8 6106 ec03 b83f b54a 9afb c8b1 b63f
00000420: 32ae b637 4fd0 bfbf 400b e370 5ceb a7bf
00000430: 3cb9 2c6a 8a04 8ebf 8682 7d7e 63a3 c13f
00000440: 14af 4ed3 8a86 c4bf 3e75 290b 0780 9abf
00000450: bfbc 721c bbe7 ab3f f4d1 123b 1c9e b0bf
00000460: 5c1f a06d 2d94 b6bf 7311 4872 c7f5 8a3f
00000470: 1ab4 9392 fa10 763f efff bafd 6d18 c8bf
00000480: 5ec8 1d7b 7250 bcbf 0e98 1733 7d74 c3bf
00000490: 9958 87d6 b273 c8bf 270e 7cbe 693b c4bf
000004a0: fa43 5712 830f a83f 4845 dcca 61f0 bcbf
000004b0: 20b4 72e7 c4a7 9d3f 19aa 72fd 157d b0bf
000004c0: 6359 04f4 d1c5 b33f 5bb2 c39d 4383 95bf
000004d0: 73f3 6b84 900a b2bf 8be8 03a9 57c9 c33f
000004e0: cd56 cf49 4623 a7bf d15b 0f14 6c6b b13f
000004f0: a8ae f4c1 4463 be3f 8ff7 4cfe f388 ac3f
00000500: 816c 7c02 6b50 bcbf 07a8 aa3e 0e3f a93f
00000510: 16d1 184d 59e3 ad3f b627 8b50 ba84 ba3f
00000520: 32da 940a dd8e b1bf 18ea f035 23cf bebf
00000530: 1254 a02c 913e b2bf 3881 9dd4 5517 b73f
00000540: 2b27 a325 2565 c03f f6b9 aedd e41a b8bf
00000550: f48e 6efc 17ed cb3f fcfd 6200 b593 8abf
00000560: 2b71 e871 90e4 a3bf 3ed0 e71b 3fd3 cabf
00000570: d00f 6d19 bf68 b33f 0b3a 5fb4 780b a3bf
00000580: 7cf1 c823 7c09 bcbf c755 8124 49e2 95bf
00000590: 625b 96bf 88cd b33f 6603 d193 73c6 c63f
000005a0: 9b08 2693 1316 adbf 99bc d718 31f5 b23f
000005b0: 119e f556 1f46 d13f 701e 7036 771b 64bf
000005c0: 084e 9319 703f 71bf 7816 157e c3ed b4bf
000005d0: d9c3 52ec 13d0 9d3f 7f99 7897 6a04 62bf
000005e0: 1cf2 6c75 916c c4bf 1b89 32fc 58da c7bf
000005f0: 413a 377e b83d c7bf f06f 2295 57ae a53f
00000600: 68f7 036b dc83 943f 4d6b 0be3 c407 bdbf
00000610: e216 4723 257e 9bbf fe94 d0a3 91cd adbf
00000620: c2d8 e588 1b45 c43f 08c8 0f78 3dfc bfbf
00000630: 5fee 43ca 0d32 77bf 0695 b07c f00c bfbf
00000640: 453f 522f b6eb abbf 27b4 9fd8 64b0 c3bf
00000650: 0d6d 59c7 9409 adbf b46d d3cf fcdb cb3f
00000660: a3fd df82 75ea aabf ad3f ff72 2de8 a5bf
00000670: 7713 35cf 2774 c4bf dd50 b62b 34e2 a8bf
00000680: ada8 d5b8 c4b1 b1bf c895 ee14 f8bf 70bf
00000690: fd76 9d41 638d c1bf 3cbb 32d2 b751 c7bf
000006a0: 48cc bf79 9b55 bfbf 044f ad10 a5bc c73f
000006b0: 96d1 22d7 4c1c b1bf 0acc 6fe6 ef45 bd3f
000006c0: b2c5 f126 2cbf c03f 24fd dcc6 1470 c2bf
000006d0: 415d 1732 7154 b03f 9f83 1450 f8b7 c53f
000006e0: cdcd 826d af2e 973f 592a 751a cb11 a53f
000006f0: 17b7 5e21 934a 99bf 6e19 5358 d6b9 b23f
00000700: 5942 7006 2a9a babf 1e66 3fad 3f32 c7bf
00000710: c863 05eb b0c2 c7bf 1ee0 a600 fdbf c6bf
00000720: 609d 7df5 bf65 b13f 6006 5794 8cd2 c13f
00000730: c0c6 0810 efa0 b63f 582f 35ec 23eb 863f
00000740: e433 1d78 2410 bb3f 93c4 7037 1fad a7bf
00000750: e374 aedf b02c 9a3f 83b6 8b6b 6c0c 943f
00000760: 86ee b5b4 d0c1 c0bf 5347 aee8 8b05 b33f
00000770: 8907 8967 5309 bebf 1c78 da34 a42c bfbf
00000780: e0de 759f c852 afbf 7e46 e50f 897f a4bf
00000790: 0bf3 617a aac5 1a3f e57b 4eda 631a 5c3f
000007a0: a170 c989 bf05 abbf 7f60 90a8 b7ac b13f
000007b0: 7938 7070 4d79 a63f 4a44 425f 09ad 88bf
000007c0: b573 16dd f330 ae3f a8ad b092 1d23 b8bf
000007d0: 925c 1b36 7ef0 9e3f e46f 5a90 2b10 c3bf
000007e0: c336 0b80 6eda bd3f 557d 3962 62a0 aa3f
000007f0: d635 edc8 1d70 b3bf 3d02 6f99 c855 9dbf

module.feat_mlp.4.bias f8 [32]
-0.03275909279800939 0.03511166702661417 -0.04808682858957114 -0.03508438964652999 0.10066210970690195 -0.05699345764738384 0.06709272679333479 0.009241160477076385
0.10098816296644358 -0.021389728872946823 0.060284592952779714 0.029409888353296002 -0.041961536809994426 -0.08413904650640282 -0.026135625776943165 -0.09279742649986093
-0.05756938180093138 0.03086815959906574 -0.023327537226399353 0.06766165820736748 0.019957850695846144 0.043255848712500974 -0.0067242987912642885 -0.057669619554488113
-0.036466792315763025 0.03795812087357346 -0.01088068683540854 0.022627305199137592 0.02766238745085287 -0.038061419196942815 0.014626592066247878 0.05164003685938647
00000000: d39b 6dc0 ccc5 a0bf 10b9 2c0b 28fa a13f
00000010: b035 5238 d69e a8bf 3891 43c4 94f6 a1bf
00000020: ba33 23f5 fdc4 b93f 40ea 5c19 3f2e adbf
00000030: 5178 602b fd2c b13f 1584 3590 07ed 823f
00000040: a457 3939 5cda b93f d01f eb67 30e7 95bf
00000050: 18a6 5e46 9fdd ae3f f12b a032 a01d 9e3f
00000060: 08e1 9388 fb7b a5bf 89c6 0ff5 228a b5bf
00000070: fecd e327 4cc3 9abf 2b49 f877 92c1 b7bf
00000080: 0c00 2ce8 bb79 adbf 5edf dc1f e79b 9f3f
00000090: e036 ef85 2ce3 97bf 219b 3141 4652 b13f
000000a0: 2c00 26b0 d46f 943f be6d 296f a125 a63f
000000b0: ba29 5a36 f08a 7bbf de27 eb53 df86 adbf
000000c0: 74bf c580 c6ab a2bf b60a 8a2f 3f6f a33f
000000d0: 7bc4 ed10 9d48 86bf a3c0 4ebf 9c2b 973f
000000e0: d107 b965 8753 9c3f fd63 614d c97c a3bf
000000f0: 199b 9cf4 8bf4 8d3f 735a f31a 9070 aa3f

module.transformer.to_qkv.weight f8 [96, 32]
-0.00140692033390157 -0.2767295776421854 0.15549502249972721 -0.3261909519883879 -0.028120294135490585 -0.11306951582401818 0.1270501654744981 0.18683524036333485
0.05245252581524128 -0.060256195139388076 -0.09714503404205681 0.03872038428272829 -0.044411085845332814 0.16162945079582003 0.18607585899169785 -0.16868858196112216
0.027041211373248185 -0.05923530839248777 0.3124528397921614 -0.05692036592954831 0.018422628127396624 0.006929607466304924 -0.1937500700882635 -0.030343438004962763
0.08615449422954145 0.10037754261135018 -0.10233534725394286 0.032606656431301 -0.02812931895971678 0.17819509025530866 -0.13065166424867566 0.006658301027656178
-0.2675216182332602 0.023177410730651757 -0.20901652387238207 -0.2870299851797618 0.20662673480679475 -0.09085848332883467 0.22657112209142433 0.30671916187473536
0.21035788858238405 0.11738835795973838 0.15504089651483696 0.11769964209051882 -0.0460123057329558 -0.2116339822330452 0.05171312521549241 -0.013591047305538994
-0.14148196018523473 0.03751226129262393 0.0952758000191874 0.36770824331733126 0.10263764830240507 0.27240818130862726 0.0009501619598808662 -0.11198289996370664
0.15283912681035883 0.10560038072819392 0.05915482251265967 0.18360660139778706 -0.10111448483153547 0.1302204275777585 -0.4628338842910697 0.07148363543476997
0.2644589978501775 -0.20030233632900307 0.03437082973023262 0.21255049951920277 0.24450621237166004 -0.2233327284858394 0.45368319330078033 -0.1023543677212137
-0.38007811792842133 -0.024164635703398597 0.028135683864293815 0.278797662032628 0.5084699958649793 0.2977358216667109 -0.4417453375855051 -0.05416996075535517
-0.40732283183666423 -0.3438365565652789 0.46269612803871407 -0.3797763562612971 -0.2149008857247178 0.14389653547018622 0.257383293181285 -0.20959162479231874
-0.040923772948847026 0.5481196278088889 0.4272211590597041 0.5274368884130078 -0.0646823898409199 0.4240626581258949 -0.2695447163057127 0.18621787695963993
0.19847726884802364 -0.05503684737836296 -0.10952370299351026 -0.07692616407207407 0.2988818811440263 0.11198614435239015 0.457377793160751 0.04812795141594275
-0.26955542069096533 0.16051720004327946 -0.02832353877883626 0.4631449828890479 0.5247291984786292 0.31308692197170324 0.02594197227470442 0.05125407765415968
-0.34459715481066366 -0.35674044717375336 0.495895189518893 -0.37750560946134026 -0.18050290313703238 -0.02564098190935898 0.2784429263555326 -0.07417442934687511
0.126604812446641 0.32341513874266536 0.17785670544827084 0.5748427178876585 0.143934776605381 0.3496248463255393 -0.18547914603656931 -0.12859470155735353
0.24301490633689063 0.1538144089473001 -0.34503567231208426 -0.11290558005607407 0.18521321696821896 -0.00708463657911201 0.19046046635141722 -0.1607486203688121
-0.1568825269181884 -0.00267238352274285 0.2198270564929808 0.2568859740224005 0.1571939503546185 -0.0205754345683204 0.16234928578457508 -0.16195202724478538
-0.006597517505834314 -0.08567765973314485 -0.14351621980514176 0.33381754836617467 0.03801383689862807 0.2214635711335193 0.16019122210774606 -0.15913306044906683
0.14129582617987071 0.10734247004158112 0.22140713906206883 0.1850539983199358 -0.18926199242002845 0.19520581613215562 -0.20399541698982995 -0.00987686321967244
-0.2125376143964943 -0.21392003234173768 -0.2755549642530088 -0.29886566461300196 0.19730497619905218 0.11223558087009118 -0.47253059474365794 -0.08394107370227642
0.4320983460286859 -0.30317742024494093 0.3112784432811683 -0.45797557496171615 -0.6673116661337384 -0.28451375213031077 0.20474017361919555 0.06787043017115883
0.3176291223967283 0.22674745748888248 -0.6861953121204223 0.38190534644723556 0.19164414758610832 -0.36055502441960363 -0.3726027856637458 0.11697204222459498
-0.5221053985184448 -0.60998287159246 -0.6884428269449533 -0.4150535369537172 -0.07626827467345935 -0.9155254464281611 0.5190071721139798 0.09563725725397113
0.10584378644920168 0.01638295796947714 0.145194222587424 -0.007937823768493536 0.08055921890168086 -0.21000402889073236 0.3283060592386234 0.09640988458603322
-0.31977330531934606 -0.006765363795120009 -0.06948639624327321 0.1570130536550542 0.2576870390472396 0.10649553752194758 -0.13377236726434083 -0.11921271137048169
-0.3599992949708419 -0.22145856698346264 0.23803060101863271 -0.002060991381869334 -0.1646029824071289 0.13867638872740173 0.18715169024805361 -0.0866492169378905
0.2722583171635287 0.5908790930557329 0.3135609456056098 0.32911577403887166 0.05375617678730312 0.2739090204957697 -0.5235046401263727 -0.23371833492428795
0.07912126155313504 0.030600921825644434 0.07661564239405372 -0.0809873074050236 0.06371841780010394 0.06760272964822198 -0.018204111429352635 0.027147233433863306
0.030245454853047297 0.10442108732842345 -0.1498576927542222 -0.1889950606101144 -0.0741702406737412 0.04211214282922296 0.019147780335273812 0.053771245707528496
0.06990950895896704 -0.021216440465681868 -0.17816765478677737 0.059035333276237896 0.0585564665371402 -0.1027347761235261 0.06497775134632078 -0.0623936085791488
0.04507860317351253 -0.10457565369686413 -0.2322398220805362 -0.04785306514491163 0.09590570449064949 -0.29899303429156066 0.2999582265066283 -0.05075169034426353
00000000: 56ac 9e34 0d0d 57bf f4c7 73f9 efb5 d1bf
00000010: d3de 29ca 42e7 c33f 8ca3 c203 50e0 d4bf
00000020: 09d0 a9fe 90cb 9cbf ab82 a3b0 1ff2 bcbf
00000030: ac09 d508 2e43 c03f bfe7 8c97 37ea c73f
00000040: 3e28 f0b5 0edb aa3f 0198 0267 e6d9 aebf
00000050: d3ef 2d38 7fde b8bf 31a1 5d80 28d3 a33f
00000060: ff33 92c2 0cbd a6bf c886 9e1a 46b0 c43f
00000070: bbe3 7870 55d1 c73f 39a6 5d63 9697 c5bf
00000080: d623 f8f9 b0b0 9b3f 0be0 a020 1754 aebf
00000090: 3dc7 1c32 3aff d33f 419b 498c aa24 adbf
000000a0: 2a10 41a5 61dd 923f aa02 1257 3862 7c3f
000000b0: f83a 5063 cdcc c8bf 83a0 84a7 5912 9fbf
000000c0: 878a 1e8f 380e b63f acc2 c4b6 57b2 b93f
000000d0: 7634 ae39 a632 babf 9f39 02d6 d1b1 a03f
000000e0: 9483 f6a3 eecd 9cbf 2027 7ac2 18cf c63f
000000f0: 37da 8e98 31b9 c0bf f440 9212 bc45 7b3f
00000100: fb3a 52fe 121f d1bf 0c5e 60b4 d1bb 973f
00000110: 8280 2daf 0dc1 cabf 5961 d403 b35e d2bf
00000120: b9ba 3cae be72 ca3f 4425 7666 8042 b7bf
00000130: 6ee3 cc53 4800 cd3f c4be 5368 49a1 d33f
00000140: a95e f5dd 01ed ca3f 8343 5ed6 290d be3f
00000150: 7b70 094e 61d8 c33f 5599 8751 9021 be3f
00000160: a256 acc8 ec8e a7bf e4e2 3484 d216 cbbf
00000170: ed23 268b 247a aa3f 19c0 907d 9fd5 8bbf
00000180: 741a fcb3 141c c2bf bad2 e69e ce34 a33f
00000190: e4c1 2ead fe63 b83f 831f e127 8888 d73f
000001a0: f813 ccfe 7546 ba3f 8189 78b9 226f d13f
000001b0: b768 9445 8922 4f3f 0c2c 0e4d e9aa bcbf
000001c0: 608f 9985 3b90 c33f ca38 ac65 a008 bb3f
000001d0: bd63 2f78 8a49 ae3f 68a6 2ace 6b80 c73f
000001e0: 6dda 808d a3e2 b9bf 9fda db1e 10ab c03f
000001f0: d3b0 2003 129f ddbf e73a 6464 c04c b23f
00000200: 8990 b96e e5ec d03f 1038 ecc7 81a3 c9bf
00000210: 4d66 41ab 0d99 a13f f37a 17d2 da34 cb3f
00000220: dc0d e7c4 fa4b cf3f 748f 7cb6 2a96 ccbf
00000230: 4c30 7e3b 2509 dd3f 8c22 f755 e533 babf
00000240: 1761 9b2b 3353 d8bf 6d6e 4340 9dbe 98bf
00000250: ede1 30c8 99cf 9c3f d468 2826 d2d7 d13f
00000260: 4d98 67de 6245 e03f 5fff 398c 1a0e d33f
00000270: 3bc6 853c 8e45 dcbf 7e5d bd43 2abc abbf
00000280: e1c3 69c8 9311 dabf 027f 670b 6b01 d6bf
00000290: f05f 7a38 d09c dd3f 99ec 7b7d 414e d8bf
000002a0: 25d8 084a df81 cbbf 6013 eda0 336b c23f
000002b0: 8906 b0c6 f778 d03f 3ccf fffa e5d3 cabf
000002c0: c871 e3f4 f5f3 a4bf 0e84 772c 328a e13f
000002d0: 6b85 946a 9757 db3f 0803 4e53 c3e0 e03f
000002e0: 806e fe6c 068f b0bf 49c1 06b4 d723 db3f
000002f0: b7ed 557b 3840 d1bf 3a71 bcc5 fcd5 c73f
00000300: 08d0 5901 b467 c93f 4949 2127 ca2d acbf
00000310: 1b73 7ed2 be09 bcbf 2773 e5de 6eb1 b3bf
00000320: f75a 3878 e120 d33f 2e41 99bb 1fab bc3f
00000330: 68b1 e281 ad45 dd3f 23bc b512 3aa4 a83f
00000340: 23f1 1461 6540 d1bf e6d0 50de d38b c43f
00000350: 3261 0c83 d800 9dbf fb27 b4da 2aa4 dd3f
00000360: ab1a 57e3 94ca e03f 091f abba 9d09 d43f
00000370: a4eb 0d4a 8890 9a3f 805d 9f76 f93d aa3f
00000380: 7836 8d39 e10d d6bf 4f63 71e2 d5d4 d6bf
00000390: 308d 4e2d bfbc df3f 305a ac49 0d29 d8bf
000003a0: fe3e e718 b81a c7bf afbc f32a a141 9abf
000003b0: 9cf8 9f47 02d2 d13f df89 3e6c 18fd b2bf
000003c0: a0bd 7c24 9634 c03f 5496 fb68 d5b2 d43f
000003d0: 0527 a32e 02c4 c63f dc7a 358e 1c65 e23f
000003e0: 8c7a 236b 746c c23f f794 35e4 4060 d63f
000003f0: db95 28d9 c7bd c7bf ec58 d08a ca75 c0bf
00000400: 4527 94c9 1c1b cf3f 4f86 0ac8 30b0 c33f
00000410: 5d29 2280 1015 d6bf 8e72 e04d 61e7 bcbf
00000420: 8e2d d512 11b5 c73f 3cd0 94a6 c704 7dbf
00000430: ec82 1431 0261 c83f bc3a ae29 6993 c4bf
00000440: f9b6 3605 ba14 c4bf 813f a4fa 64e4 65bf
00000450: eae6 3401 4b23 cc3f 578c 4ede d170 d03f
00000460: 2179 f36d ee1e c43f 72a6 490a ba11 95bf
00000470: 74a2 7c84 dcc7 c43f bfc4 4412 d8ba c4bf
00000480: beed c19e ff05 7bbf 753a 8d9a f8ee b5bf
00000490: d51a 414f bd5e c2bf 5312 4447 445d d53f
000004a0: 06d8 8cb4 8c76 a33f 070d a315 eb58 cc3f
000004b0: ac8e 075e 2581 c43f 40aa 2bdd 785e c4bf
000004c0: 017e 404c fb15 c23f 56ea 4cce cb7a bb3f
000004d0: 66ae afb2 1157 cc3f da9a 6373 d9af c73f
000004e0: eeef e8a9 bc39 c8bf 8d67 2312 81fc c83f
000004f0: 79aa 4096 851c cabf 14dd 1f24 523a 84bf
00000500: cf5b 80bb 6e34 cbbf b2fa 6e4b bb61 cbbf
00000510: 53e5 ed49 b1a2 d1bf dd3f da73 9d20 d3bf
00000520: 6076 0e1a 4a41 c93f dddb 4895 78bb bc3f
00000530: e323 b2f6 f03d debf b7a7 5786 297d b5bf
00000540: 5654 36d2 7fa7 db3f 619c 3544 4267 d3bf
00000550: 07ea 756b fceb d33f 96f3 34c9 784f ddbf
00000560: e213 c9fe 9d5a e5bf 255d 2a2b 7935 d2bf
00000570: 5e97 ef0e ed34 ca3f 2359 f3dd f45f b13f
00000580: 4ddf 3c19 0954 d43f d4d5 2e89 0f06 cd3f
00000590: 2639 07df 4ff5 e5bf a923 4a1f 2371 d83f
000005a0: ae12 2da1 cb87 c83f 7c9a 9261 5513 d7bf
000005b0: 19c1 b45a b9d8 d7bf bea5 e637 e1f1 bd3f
000005c0: e174 7661 16b5 e0bf 5883 93cc fa84 e3bf
000005d0: 9d9e 5c40 b907 e6bf bd8a d3b5 3c90 dabf
000005e0: e3e1 7151 5186 b3bf 7312 6205 fc4b edbf
000005f0: bdce d3ed b49b e03f 8a58 2fec ae7b b83f
00000600: b1bc 4811 9418 bb3f f038 c3b2 b1c6 903f
00000610: 7d62 ca6a b995 c23f 1490 e5ab b441 80bf
00000620: 42f3 926a 879f b43f 6995 0e7a 69e1 cabf
00000630: b18b e06a f702 d53f bce2 4e75 51ae b83f
00000640: 1bbf 1e74 2a77 d4bf 51e8 ed83 ffb5 7bbf
00000650: beba 6147 dcc9 b1bf ae2c 3ff5 0019 c43f
00000660: ebe6 53c7 f17d d03f fda2 d3a2 4a43 bb3f
00000670: d421 41f3 731f c1bf 7d8c 9a68 b984 bebf
00000680: 93e6 9e7b 3a0a d7bf b376 4e1b c158 ccbf
00000690: 8c3f 6967 c977 ce3f 1391 a352 36e2 60bf
000006a0: 909f 21e5 b511 c5bf a4e1 27dd 25c0 c13f
000006b0: 66d5 802a 96f4 c73f 4fe5 f8a0 a42e b6bf
000006c0: a901 1226 ae6c d13f 7f10 9245 7be8 e23f
000006d0: 9373 abed 6111 d43f 3b0f 869b 3b10 d53f
000006e0: 1bd8 84fa ed85 ab3f 58f5 46b3 b987 d13f
000006f0: 63b4 94cd 8cc0 e0bf a0d9 7c7e 7bea cdbf
00000700: 68fa c97e 4a41 b43f 7dd7 df19 d955 9f3f
00000710: 38ca 712e 159d b33f c217 b28c 95bb b4bf
00000720: 1bb4 9aa8 d94f b03f 0e9e f598 694e b13f
00000730: e19c f73c 19a4 92bf aaed 19ff 7bcc 9b3f
00000740: be32 c91d aaf8 9e3f 5e9d 1623 57bb ba3f
00000750: ab79 b770 892e c3bf 7c86 367a fd30 c8bf
00000760: 0eb9 0726 d2fc b2bf b496 6e08 b98f a53f
00000770: d0ef 52c9 799b 933f 17db 8e9b e787 ab3f
00000780: a57e a8ee 96e5 b13f 4b23 c037 c3b9 95bf
00000790: 2ed2 419d 32ce c6bf c1b5 7513 e139 ae3f
000007a0: b11f 7ef9 1cfb ad3f f8c7 9c87 d34c babf
000007b0: 7004 00c5 61a2 b03f 645b a718 0ef2 afbf
000007c0: b05a c2ec 8a14 a73f 75fa 9554 78c5 babf
000007d0: e916 55d4 08ba cdbf 031b 9f6b 3280 a8bf
000007e0: 9f84 49b8 468d b83f 5ae6 00ae b322 d3bf
000007f0: b8c6 40fd 8332 d33f 019c 7d24 20fc a9bf
