models/wo_epsilon.pt (torch, 326315 bytes, 41 tensors)

module.feat_mlp.0.weight f8 [32, 3]
00000000: 0f47 1cdb e6a2 e33f 1ed2 3ee7 239d e23f
00000010: 3b02 9996 20b1 d63f 940a 79ba fcb8 e3bf
00000020: ef36 d130 4263 43bf f893 724a 3ef0 b83f
00000030: 56ac 6325 f34a b6bf 25aa 7635 1aa9 d5bf
00000040: 3afa ef94 96a3 da3f faad 9aa3 715a a33f
00000050: 0c5e aabf d661 dc3f 237f 1fc1 d3de c1bf
00000060: b00f 060e 8b4d e8bf cfd2 9ab0 b8fa e23f
00000070: 57ff b8d7 e2e3 a63f 8394 d869 ecfa 983f
00000080: d079 b16b 7609 bbbf 7971 3009 21b7 a3bf
00000090: 927c 1342 1712 e2bf 80d6 e47b 098e dcbf
000000a0: 8b3c cd7f d5a0 d6bf fae9 aa9b 7bcd ae3f
000000b0: a12d a9f9 0149 ce3f 376c bc00 8a92 bf3f
000000c0: c750 f0a2 a87e e2bf d37b 558d fed1 ec3f
000000d0: 757e 875f bb5a e0bf ba71 5d1d d71a cfbf
000000e0: 3185 9ea1 9659 e33f 6d72 e58a d571 d63f
000000f0: 92a6 4fc0 f98a d3bf bd4c 6815 763d e33f
00000100: 9812 af23 0fec d43f 2dc0 135b c6af cf3f
00000110: 24cf a67f 9d8d 59bf 7c5b dcc1 76b9 d93f
00000120: b9d1 ba47 c0b5 b33f edc9 92f0 91bd ec3f
00000130: 5bad d9b3 646f cb3f 8547 4c8a 2c45 dfbf
00000140: bb86 6df9 5a42 d4bf dc9e 514f c46c d0bf
00000150: 3ffc 29b6 19de d3bf da50 51fe 535e c73f
00000160: d00b 5667 6ed2 e83f e9e7 dbae 36fa debf
00000170: 0b96 2aa2 656e b73f b5d7 fc85 a105 dd3f
00000180: af54 2974 9d97 e23f 7c2e c19a ab33 d3bf
00000190: 5160 69d7 2623 d23f 63e3 6aff 69e9 ca3f
000001a0: bdee 43b7 a077 d4bf 6da8 0318 e5a4 de3f
000001b0: 5faa a26d 466a dd3f b2df 8b36 e240 e9bf
000001c0: 5872 a5df badd c7bf 17e8 7a2d 048b e63f
000001d0: 17da 024f 2d7a e33f fe04 0c72 74aa e3bf
000001e0: 6536 068c 8b6d e3bf 5681 d2d2 6a92 e23f
000001f0: bc8c 0e30 07ae e8bf 81fe 70e8 9b29 c23f
00000200: 3bb1 630b ee69 e23f e687 67e5 e0a0 df3f
00000210: 074a f0ac 5b8b e1bf 9984 7816 b64a dd3f
00000220: ad84 a3af e0ac e83f 5247 bc20 c8df e5bf
00000230: 590a f7e7 f653 c9bf 86c4 b1fa 7098 dc3f
00000240: 9b27 3b22 4a02 e83f a051 2d68 6db3 b9bf
00000250: aa07 76fe 2e4a d9bf f5a9 2ffb 50ab d73f
00000260: 722a 4a1f defa d1bf 70c7 1e58 2e7a ee3f
00000270: 965a f39a ddb4 bf3f 4e59 f5a2 bf4a d03f
00000280: 9990 4ddf e67e e63f 1e8e 0197 180f c1bf
00000290: 3c9d 6780 7fc1 ba3f 0aa2 f195 8ec2 dbbf
000002a0: 601a 540a c1bf d33f a3d7 1d05 88b8 e0bf
000002b0: 0b0e ca58 caba d13f 674b eccd c840 d73f
000002c0: 4847 745e de3a e4bf bddf e5d9 3937 d3bf
000002d0: 643b 7619 b873 b9bf 0859 9648 6bb3 d1bf
000002e0: 490e e8e7 bd81 eabf 78cb f167 a2a8 e6bf
000002f0: 5d05 6c8c 6b7b e6bf 1a53 8f5e 5cf2 e03f
0.6136354712964208 0.5816821590911478 0.3545609923058099 -0.6163314477965565 -0.0005916665264835401 0.09741582219665179 -0.08708114302469147 -0.3384461900811025
0.41623463196438915 0.037799407216279904 0.44347161023458237 -0.1396126454337657 -0.7594657205486239 0.5931056451141447 0.04470738299687465 0.024394697151497013
-0.1056131375239382 -0.03850653874562488 -0.5647083559560022 -0.446169253339896 -0.35356652718196163 0.060161459686657495 0.2366030186698085 0.12332975881547346
-0.577961271514618 0.9006340752056253 -0.5110756746107216 -0.24300660070265484 0.6046860844254863 0.35069788517083716 -0.30535739689239805 0.6012525957215967
0.32690790638688716 0.2475517220223095 -0.001559642607941344 0.4019448178454963 0.07699205161299617 0.8981408785533042 0.21433695585015297 -0.4885970449987485
-0.31655001028239454 -0.2566386007879211 -0.3104309348054279 0.18256616514066232 0.7756874101909208 -0.48402182651591247 0.09152827462329342 0.4534686859582238
0.5810076969888963 -0.30002870667224335 0.2833954909924659 0.21024823161658465 -0.31980150124557466 0.47881438584466346 0.45961151796897143 -0.7891703667983079
-0.18645416183689423 0.7044697654994277 0.6086641829668363 -0.614557478664352 -0.6071222052430129 0.5803732030508779 -0.7712436617479379 0.1418948063819592
0.575430891270606 0.4941942444112314 -0.548261487742196 0.4576850146714349 0.7711032324260906 -0.6835671080936925 -0.19787489248672577 0.44680428010821804
0.7502794903350493 -0.10039409440407221 -0.39515280580246304 0.3698313191404446 -0.280936747127874 0.9524146767709976 0.12385354073499352 0.2545622912779394
0.7029909478556134 -0.1332731950125074 0.10451504597550793 -0.43374981539685165 0.3085787392487074 -0.5225257968838729 0.27702578230693636 0.36332912549658264
-0.6321861119088021 -0.30024572638603414 -0.09942198392512364 -0.27657587135890127 -0.828337624494858 -0.708085253731368 -0.7025659315697045 0.5295850607750225

module.feat_mlp.0.bias f8 [32]
00000000: 612a 14eb fef5 bfbf 19e4 d126 f99c d83f
00000010: d5c2 d9d7 f8af e2bf 0f86 70a5 6824 db3f
00000020: 93f0 cf27 d470 adbf 8f71 ecbc 4707 e3bf
00000030: 4313 1730 1008 843f 5146 3c67 9251 d03f
00000040: 12bd 11d2 acfa 78bf 7c23 7815 4518 d5bf
00000050: 1412 79bd 7816 dc3f dd9b 61f6 479d dd3f
00000060: bae3 633c 43c1 c0bf acd6 dfd0 e7d7 b5bf
00000070: 49d5 5d5c b6c2 aa3f c7ba e2dd 9dd6 db3f
00000080: 2dc0 d604 9f07 c43f 0588 6244 5771 abbf
00000090: d6a2 bb5f 052d c23f eb09 960a 09bc acbf
000000a0: e963 b25e 61a9 ccbf 112a a070 06c0 b63f
000000b0: 78b5 45f0 0813 cbbf 3023 95f7 da13 d53f
000000c0: 16bf 1fd3 c676 ad3f 47e4 f7be 1b3c c33f
000000d0: a66c 82a7 c382 a9bf fbb1 2ef8 c927 d03f
000000e0: 08e4 5350 a7a5 b7bf 6ca1 dfa1 47f9 dcbf
000000f0: b42d a018 ff06 b5bf a306 7474 13bf babf
-0.12484734763362716 0.38458088675503316 -0.5839809623558617 0.4240972152348101 -0.05750143991460379 -0.594638699523374 0.009781004397959264 0.254978752914302
-0.006098437385943416 -0.3296063146267938 0.43887156012741113 0.46272467671081846 -0.1308979077219002 -0.08532570695373448 0.05226678731461704 0.4349741618015454
0.15648257957718795 -0.05359909734512772 0.14199893164120309 -0.05612209562515943 -0.22391907810086245 0.08886757135056934 -0.21151839954420004 0.32933687379822896
0.057546818992589774 0.15027186226487485 -0.049825777242597 0.2524285243660242 -0.09237142287373967 -0.45271483238186394 -0.0821380076524097 -0.10447808831306786

module.feat_mlp.2.weight f8 [32, 32]
00000000: 2405 c857 0321 b63f cdc9 0655 774e b53f
00000010: 4ca7 0fb5 ba35 f0bf acbc 7a33 d3d1 cdbf
00000020: 8b6f 237d 9ab0 ac3f d6f1 b946 0d7a c43f
00000030: dc7c 72f6 c463 ba3f 9f66 c50b baa5 d0bf
00000040: d9e0 8c00 920f 9c3f 3c3e b264 c0dd b03f
00000050: 619e 49b7 791c d0bf fa9f e949 553a b8bf
00000060: eac4 dae0 0a5b c73f b745 27c6 f002 cf3f
00000070: a6aa aa0f 2db9 c33f d1ae 7649 b19b c33f
00000080: 9ca1 6483 fea2 b93f bb38 e2f5 37a5 c83f
00000090: 24fb cf78 2446 ca3f 9e3d c67c fb21 dc3f
000000a0: 33f4 da47 4df1 c6bf 5151 91bc f9d0 a5bf
000000b0: 9cd6 e588 0023 e2bf b943 1151 64b9 a1bf
000000c0: 162d e569 9ece aa3f dcf5 59ca 6241 b43f
000000d0: d27c dda1 db79 e6bf 296d a066 e0cd bf3f
000000e0: e05c eaa9 2d1b b93f ee2c 2a5a 4264 d23f
000000f0: 9523 d68b 7f7d c83f 3112 b4fe e443 d43f
00000100: 264b 42f6 80e0 b9bf 4c63 4cad 7622 c73f
00000110: fe06 4f5c 5d2e c53f 1db8 ccc0 8637 c1bf
00000120: c999 2073 c313 a5bf 804e 8ba2 71d9 c23f
00000130: 3ae7 cfee 884c d43f 2c0b e865 c766 b5bf
00000140: 15aa deae fd1f a4bf 96a7 1d2b a030 c0bf
00000150: d5a5 33e9 bcea c3bf 76a1 b54f a807 d1bf
00000160: 7f53 75be c959 bd3f 4832 517e 4df0 d83f
00000170: f687 6475 9cc2 a33f 0537 f089 3ba8 84bf
00000180: e28b 172f 2ac7 d3bf 8c4f 6fb3 7572 d0bf
00000190: 8348 9105 9c89 bebf edcb 3d21 9b2e d8bf
000001a0: 63ca 386a 9cef b5bf 28e3 a067 ea57 cebf
000001b0: 146f de87 64be b63f c1ad 9cb1 c679 90bf
000001c0: 5351 659c 02a2 bfbf 25d8 20f8 b3e6 b63f
000001d0: b51d 753f 18ce ddbf ab54 8e75 c057 b63f
000001e0: 9999 6d1c 4b0a d4bf 3855 67ff 92b3 bc3f
000001f0: f706 98ad 2d2b ab3f a4e9 c356 fc67 d03f
00000200: ff83 f372 d4f8 a53f 2ad5 e71d 3851 ad3f
00000210: 46ae 148b 0d5d 843f c3d0 8131 ec6f bbbf
00000220: 04a5 a0c8 3250 973f d29d e260 a223 a33f
00000230: 2a02 41fa 41e3 d1bf d447 a4d7 954e ab3f
00000240: b164 b6bf 2ddd c03f a9f0 3bb3 9181 ecbf
00000250: 7cbf b17f 0636 bd3f 1302 f009 5fff 9abf
00000260: 1ae8 5dd7 83bb 9a3f 1c73 460b c817 d1bf
00000270: 287a e570 97f3 a33f c23e 6dfc 3c5b a53f
00000280: ae47 52ad 7976 cebf 9dc9 e692 c086 86bf
00000290: 107e 4da5 d797 d9bf fbd6 27a7 b304 c6bf
000002a0: 97cb 7e8a 5fac cc3f df8e ecab 6989 bdbf
000002b0: b55a 2585 13ba c93f 7e18 f18b bb0d b53f
000002c0: 60d7 657b a874 c9bf ec91 83d6 5910 97bf
000002d0: 0739 8fbc 38d1 c0bf 4d20 5333 1d1b c13f
000002e0: 25ac 38c3 7cd4 c23f ca3d deca 811b b5bf
000002f0: 32c5 e868 3678 b2bf 652b f18c cfa3 a9bf
00000300: bf5a 8807 10bc c9bf 21c7 705a ebb9 c7bf
00000310: 4b8a d215 c778 b73f bc04 de1a 1479 c33f
00000320: 740e a767 8c3e 83bf ec0a 5ef2 17ce c1bf
00000330: 7f4d bbb9 ac2e a7bf 2a92 42c6 ad2b b9bf
00000340: edb2 325d 28ea a0bf 7dca 5bd0 a548 da3f
00000350: 5864 9364 bf22 9ebf fed5 cc99 5359 8f3f
00000360: 5684 9cf3 070e e9bf 4298 b308 bc47 df3f
00000370: 65ec 331c b4bd b23f 9362 bf1b a463 b0bf
00000380: 0e4c 215b 3245 bd3f a90e 982f 913a 9b3f
00000390: 28b1 588b 6c68 b83f bfde 4ba1 c1d1 b0bf
000003a0: 1725 40a0 0a90 d43f 6ffd 77c3 974a d13f
000003b0: 7a94 fa79 8f74 d33f ced2 e901 522d 7dbf
000003c0: 6aec 2c44 ab1e d23f d637 8c01 002b b33f
000003d0: ca23 f989 80ab 953f 196f c260 498f 843f
000003e0: 5a90 dd12 927a cebf 8353 94a1 c4e8 bb3f
000003f0: f071 1bf7 eb1b de3f 4693 b80e e03f e4bf
00000400: 8171 e511 12ae c53f 7cc8 f949 9bbe d3bf
00000410: 5761 b853 2d0c e9bf 35e2 aad5 fd8f bcbf
00000420: 4d13 15c1 5009 87bf 0cd8 f581 aee6 bf3f
00000430: 7c30 e616 b93b 8bbf ab5d b957 6dce a63f
00000440: ca43 262a 6dd8 b53f 9861 07de c006 d1bf
00000450: 9587 30fa 8a68 c5bf 7488 c924 58a7 ad3f
00000460: 3329 7f02 0634 e13f 6a39 a263 6e68 cabf
00000470: ccbe 26f8 e4f7 c63f 5f93 2978 5320 c6bf
00000480: 537a 3f6b 2112 aa3f 5201 4bc6 eacd aa3f
00000490: d6db 723f e1c3 c23f 2605 cd07 4edb d33f
000004a0: d066 4058 2c27 d9bf ee4e 974d 2eba b3bf
000004b0: d100 7770 5c04 ccbf fab1 e15f c80e a6bf
000004c0: f0b3 d342 9c85 cb3f 8916 d99a e65e b13f
000004d0: 1a83 7cd1 eecd db3f d687 71d1 4de7 8c3f
000004e0: b933 a499 f0b4 c93f c771 80f6 8acb d33f
000004f0: 0103 4772 14ac bf3f 8e61 e030 0bfb b33f
00000500: 0ff3 d567 bacc d13f 6d21 82b5 27e3 c13f
00000510: 2c45 9810 a6fe d9bf 2b0c a641 1ec1 b0bf
00000520: d865 c6a1 a22e d33f 204f 406e 829c c1bf
00000530: c372 33ab e5d6 c63f 482f 2743 9873 bdbf
00000540: b3b9 b550 eee4 d13f c6d9 bf32 4ba5 7a3f
00000550: 0cc3 d110 b7b6 a6bf 0f4e 15f5 7aaa b3bf
00000560: 52d3 9c1e a942 d73f b9cb f935 98ea d53f
00000570: 893b 5396 bf50 d63f 3fba 5e68 7e9e b73f
00000580: 72e3 3d8c 2e3c c13f 7a1e 6a6d 6ed2 d43f
00000590: d5e9 b972 f2b2 c23f f811 c42e 86ab d53f
000005a0: 99f6 1fc3 d1e6 c93f cdc8 222f 9976 c93f
000005b0: 31e3 e70b c981 d33f 620a 9a9c 009b 6cbf
000005c0: f228 18d0 8987 d03f 5f18 7265 a78f c93f
000005d0: adbd 2e59 14d9 e03f 6792 efc1 2b50 84bf
000005e0: cb19 c723 3477 da3f a57d 0949 f465 983f
000005f0: 7ec6 fdda 6bb0 d43f 5038 d7b5 5d52 d93f
00000600: 8b61 41fc 6e82 cc3f 3a73 d9a8 dd94 d2bf
00000610: 5acd ad8e 5ce7 e6bf 4733 879e 42e0 a83f
00000620: ab49 ed9c 6a4f bf3f c7f4 9cc2 d827 bbbf
00000630: 7917 6f42 7238 9cbf 3428 b55b 99cf c83f
00000640: 9765 cfca eee9 d23f 1044 0235 3fd1 c9bf
00000650: 8aa1 16fa d6bf c13f 109d b750 bf8e b83f
00000660: 8d98 4114 2762 bc3f 2c01 662e c011 9bbf
00000670: 4ac6 82b1 98f3 b4bf ff26 7d11 4ed4 bebf
00000680: 5227 6dac a4ee 993f b570 ed31 e798 d23f
00000690: 83f0 5992 2f5a 9ebf 55ac 5038 c8be c13f
000006a0: 7f76 4b2e ad69 cd3f efc6 5659 a67f cb3f
000006b0: 0572 0d51 5b1f b33f 260e b9a0 58ac c7bf
000006c0: cf36 eaa4 30b0 a53f cc94 4f55 a964 a73f
000006d0: 8c07 6dbf 323b c23f 5a2e 2e28 6420 cebf
000006e0: 0457 892d 7069 d13f c824 7dc9 9724 cbbf
000006f0: 4e93 2b71 99be e2bf 46e2 4d1f a5f8 cc3f
00000700: 25ae 59f8 45ba bcbf 837e e53d 9a55 a43f
00000710: d538 df68 43a9 c03f 6135 5872 a9e0 c03f
00000720: bfb8 9a62 ed59 c1bf b5e0 05e1 5bab c3bf
00000730: d55b e231 0ec5 afbf 1ab7 42b1 59fc c5bf
00000740: 6d87 76cf 4dc7 b5bf 0cfa 5cfe 1184 bd3f
00000750: 89ba a8fb fb02 c7bf 99b1 2aa6 4cb6 a1bf
00000760: 012c a10b 6ac2 91bf 3784 d7d4 d3f3 833f
00000770: a275 dab1 b13e 933f aeaa 5638 a210 b6bf
00000780: 5749 b6da aeb2 aebf 7e2a c70f d0fd c2bf
00000790: fa3d f9f3 13e3 b23f b88c 0458 64b6 b13f
000007a0: efc3 b5a7 1c72 acbf bdc7 7947 e8d9 953f
000007b0: 0fdb 6cf4 4606 c3bf c779 dab5 4334 c3bf
000007c0: b1d2 e617 88e4 b2bf 7ffc 8af4 d6a4 c03f
000007d0: a55a 53f7 0f02 c13f d405 d2cb 49ee b03f
000007e0: f49b b91a 8c29 c13f b22a ee5e ed9a cbbf
000007f0: 27a8 4d11 d9ad b0bf be32 85bf 3c24 c0bf
0.08644123929118003 0.08322854829638189 -1.013117511053184 -0.23296585096020317 0.05603487756317723 0.15997472718653566 0.1030848600080278 -0.26011515759965137
0.027403146060550696 0.0658836599197849 -0.2517380037229256 -0.09464009336954851 0.1824658964083377 0.24227723765811301 0.15408862366651482 0.15318885886278236
0.10014334400023589 0.19254207140006038 0.20526557826084357 0.4395741194247992 -0.17923894890364664 -0.04260998179293785 -0.5667727159295342 -0.03461755265801209
0.05235762636820078 0.079122709657859 -0.7023752366475497 0.12423517709287481 0.09807095907523289 0.287369335223686 0.19132990196183344 0.3166439521158138
-0.10108190548116322 0.18073924505076844 0.1654774380422665 -0.134507030621024 -0.04116640835154645 0.14726086079337009 0.3171713192128781 -0.08359953153562277
-0.03930657157555487 -0.12648393731370494 -0.15560113322071226 -0.2660923746502911 0.11465130710469217 0.38966691337262604 0.038594140367663884 -0.010086503169101766
-0.30903105353189464 -0.2569860698979418 -0.11928725372243502 -0.37784460302572037 -0.08568742364222141 -0.23705797252639482 0.08884266202079188 -0.016089539137437606
-0.12356582945114285 0.08945774848766115 -0.4657040233327863 0.08727648611086873 -0.31312825943168715 0.11211508498611955 0.05306380027833584 0.2563467833821511
0.04291404631818096 0.05726027836855459 0.009943109328182886 -0.10717655380887252 0.022766870017368226 0.0373812430637447 -0.27949571074353463 0.05333393342347362
0.1317498384567322 -0.8908165455500426 0.11410561196839625 -0.026364788991488263 0.026105937976787265 -0.26707650281041295 0.03896783116464447 0.041711717428027054
-0.2379905792518548 -0.010999207003668238 -0.39989272253839747 -0.17201848661323269 0.22401041281190423 -0.11537800261845231 0.2009910965086498 0.0822407929091202
-0.19887262368473113 -0.022523311345951244 -0.13138493735318255 0.13363995557870326 0.1471095994214419 -0.08245097353778089 -0.07214679776440816 -0.050077901797144254
-0.20105171554378917 -0.185361308250827 0.09168667109273902 0.15213252364995877 -0.009396645463204602 -0.1391019757685038 -0.04527797476989814 -0.09832273569424702
-0.03303648126288814 0.4106840643645809 -0.02942942668309842 0.015307095652683064 -0.7829627759966893 0.4887533268905636 0.07320714653535416 -0.06402040173942174
0.11433710789542337 0.02659060338011324 0.09534338380826013 -0.06570062816524123 0.3212915959307607 0.27017778481236737 0.30398928558344773 -0.007123298970885995
0.28312188775789215 0.07487487829004577 0.021162041112152065 0.01003892256294807 -0.23811555787244992 0.10902050919351151 0.4704542077213594 -0.6327972686309316
0.16937471269455887 -0.30850870346251447 -0.7827364573632093 -0.11157213655941052 -0.01124823655357834 0.1246136729513127 -0.013297506343200143 0.044543663939005405
0.08533365515746918 -0.2660371940851518 -0.1672528955105547 0.05791736077368706 0.5376005219234571 -0.20631198754240226 0.17944013706936912 -0.1728615128260129
0.050919575063507104 0.05235227270668709 0.14660277937011185 0.31026030313303676 -0.39301594370190873 -0.07705964464485834 -0.2188830899376684 -0.043081533150004916
0.21501496565852518 0.06785432129353287 0.4344441457524667 0.014113052324493152 0.20083434583685092 0.30929826805529753 0.12371948041892368 0.07804937308572432
0.27812061443528163 0.1397447239180666 -0.4061675226267478 -0.06544674971341695 0.29972139166201606 -0.13758879073486074 0.17843314036772115 -0.11504508628348475
0.27959783441374525 0.006505292647480626 -0.04436275558771827 -0.076820072970172 0.36344364156257314 0.3424435164553717 0.3486784904497929 0.09226217315765782
0.134649103619974 0.32534371075642066 0.14608603097788256 0.33859400336248724 0.202356548572358 0.1989318351894042 0.3047964683787994 -0.003491879648948968
0.2582726032420758 0.19969646886255796 0.5264989606711673 -0.009918538909866116 0.4135256146804777 0.02382642455847663 0.3232679022395145 0.39565222509270814
0.22273051564367238 -0.29033605088425285 -0.715742376966243 0.048585969783380416 0.12230554896567607 -0.10607676268860465 -0.027559075646216045 0.19383542039787616
0.29552812390974154 -0.20169820869753652 0.13866698466632627 0.09592815132747412 0.11087269062554324 -0.0264349010772104 -0.08184198697815606 -0.1204270165154888
0.025324414276190872 0.29058246494038126 -0.02964090662725073 0.1386347079254359 0.22978749046790267 0.2148330627656416 0.0746972153551227 -0.1849470886974
0.04235984814759563 0.04568986097710023 0.14243158671348188 -0.23536350213940943 0.2720604366962649 -0.21205422724077594 -0.5857665262561598 0.22633804348494574
-0.11221730530967784 0.03971559529850046 0.13016550656033724 0.13185613711577118 -0.13555686297099176 -0.15366695868920535 -0.062050288762456475 -0.1717636218576722
-0.08507238688482995 0.11529648265875653 -0.179778573875826 -0.034593959125547254 -0.017343193969548313 0.00974240773479283 0.018793846588427983 -0.08619130969479258
-0.05995699329209241 -0.1483707501450517 0.073777434409969 0.06918933056708709 -0.05555810496560542 0.02133906303647114 -0.14862906393838002 -0.15003248576699788
-0.07379961570297656 0.1300305074746326 0.13287543846555142 0.06613599039157886 0.13408042244847673 -0.2156655038382574 -0.06515270874447819 -0.12610587455346506

module.feat_mlp.2.bias f8 [32]
00000000: 1fa2 be55 9959 b4bf 1ae9 16be e7bd 723f
00000010: f6e8 4ff0 ec64 c13f 6ff7 021f da36 acbf
00000020: bc20 1fbc 878e ad3f f995 5a1c e3be b4bf
00000030: 21ef 3b7d 0b23 b53f a78f e35b 0975 b9bf
00000040: ad5a 9384 c247 c83f 5cca 7013 ddb8 a4bf
00000050: f9cd 1db0 e9fb 913f af9f 4a8e a852 b8bf
00000060: 3424 2ebd 5884 94bf e587 3a70 f683 a9bf
00000070: 2b91 de2c cb86 a83f cec0 a21f a046 a5bf
00000080: c85f 23d3 16c2 babf 9650 a014 a554 b9bf
00000090: 17a2 920a 9845 b53f 3ab0 5492 3a8e be3f
000000a0: 9cff 74df bb21 ccbf 2ed2 4e5c 1414 c5bf
000000b0: 60af 3a9c 657c b2bf ba09 4bd0 efc8 a13f
000000c0: 8ed7 8ab1 169f b33f 2905 c6ac dc22 c5bf
000000d0: f0f2 0d8d 2399 b03f 2f88 a41c 68aa babf
000000e0: 3368 5598 35df cabf f27e 4e83 c654 b3bf
000000f0: 26e2 02d0 3895 9e3f 7f03 5e16 9ba8 bbbf
-0.07949217170119781 0.0045756390040259335 0.1358925031088984 -0.05510598782119202 0.05772804423719566 -0.08103770677788437 0.08256599242662023 -0.0994420861566697
0.1896899363843735 -0.04047289717017996 0.01756253373555514 -0.09501126741326858 -0.020036112352986815 -0.04983492012003391 0.047903393962118145 -0.04155445467165607
-0.10452406553974847 -0.09894782785005626 0.08309316881298688 0.11935773918656958 -0.21977947627055705 -0.16467527873250404 -0.07221064628782647 0.03473615090981093
0.07664625010042256 -0.16512640415388916 0.06483671373093691 -0.10416269969258062 -0.20993680895009134 -0.07551232057312143 0.029866111465454058 -0.10804147049021927

module.feat_mlp.4.weight f8 [32, 32]
00000000: b36a 82dd 6b77 cc3f bd95 ce21 41f4 bbbf
00000010: dfbd 6891 9db2 95bf a496 26c8 218b 8f3f
00000020: f48b 74d3 5d80 b23f 7a98 d6f0 d74d d43f
00000030: 6c70 6c27 0036 b3bf 876e 7f8e aa7e b1bf
00000040: 2c0d ed07 ade9 b63f 788d a709 63e7 c53f
00000050: d741 9b51 dce3 c23f 1ff6 a7fa 1eb4 963f
00000060: cff9 c4fd 95b6 b83f bca2 2a8d 06b0 bdbf
00000070: f2a7 0595 34d7 143f d3e6 71e8 808a b53f
00000080: 3fc9 319b 6ee2 823f 44eb b538 749d ae3f
00000090: 81e2 4d55 a9c0 c7bf 585f 7e6c c3ea c0bf
000000a0: 7a02 cd6b 71a6 b7bf be3f 5bd0 25fb c03f
000000b0: 60e0 67b8 e248 d03f 03b0 80a6 565b b83f
000000c0: d18d ba60 eb62 983f 5081 dccf 1c44 a83f
000000d0: a859 dfe0 3fce d73f adc6 f156 c4f9 b8bf
000000e0: f696 b019 e5b7 933f 87ae e12c 4cf8 c0bf
000000f0: 6d9e 58ee 4483 c1bf e0d5 a4fb 140f a23f
00000100: ab47 456e 446b c73f eb05 041d 1a6b b43f
00000110: 443b d889 304e b03f ceb4 f301 7116 88bf
00000120: ca8b 2caf 3a09 c0bf a590 ca10 64bc c23f
00000130: 97fe 6f7a ee66 77bf b9ad bce9 5853 b5bf
00000140: 1d39 eb0c 7b8f 9c3f c7b5 9431 b12e c4bf
00000150: a334 3d9c f6e7 b7bf 794a 8eb5 baa5 b53f
00000160: ab13 908f 1def c4bf 6972 45d5 c70d b5bf
00000170: 8a77 16df b98c b93f 7eec 8217 f580 853f
00000180: cd15 21ee 4d56 9a3f e616 1ef2 2e3b b7bf
00000190: ae5a 0d73 daf8 c43f 6bb1 6407 fd11 9b3f
000001a0: 6e9f d99b 9701 653f 0b0d a02e 30c5 5ebf
000001b0: 8280 b95c 5660 a1bf ed83 60a1 7ad6 d73f
000001c0: fa60 7fbe dbfa 5d3f 0941 ad3b e41e a9bf
000001d0: cbc7 5dac 4f5d d93f c957 28d4 9121 b83f
000001e0: 9ff3 a715 3f29 a73f 1dd8 4f1c 4c54 b6bf
000001f0: 5ab1 d61c 9f4f b3bf 7444 4c3b 3965 cebf
00000200: cee8 b086 0654 c8bf 881a 8fcf 231f 623f
00000210: f47b cf8d 83d4 9d3f 5692 50ec 0886 b1bf
00000220: 7b59 39da d392 b7bf 823e b602 e3cb b43f
00000230: e9ff 82dd 2a11 b0bf ce73 df03 0599 c03f
00000240: fa84 5c37 b168 b5bf ba18 82fb 1069 a6bf
00000250: 6c25 26d5 44ad c7bf ce4b bf1e d59e afbf
00000260: 3b52 6ad5 1d89 8ebf ee65 7ca7 4a3c adbf
00000270: f1ec ba09 742d bf3f 76b6 8b4b f986 c33f
00000280: ce52 8aa9 2289 af3f 4e84 4fd0 9c98 c63f
00000290: 5efb 2fe1 9893 b8bf 7022 c337 e4cc acbf
000002a0: eb8c 9cac 7b56 b63f a758 7511 d758 c9bf
000002b0: b786 b708 04f4 86bf 34da cab1 1c86 aa3f
000002c0: 9d90 4576 2e53 c03f 6db1 9e6c 5a6c c23f
000002d0: e883 a5e2 10e9 a83f bb23 f534 b400 ab3f
000002e0: 6b29 7332 cd75 83bf 9ddc aaa2 86e2 bdbf
000002f0: d777 eb1f 8271 c0bf f09c 7834 80e5 d23f
00000300: 655b 059d 23d6 bc3f 4949 9cc7 7cb0 c03f
00000310: adf6 3fa6 dc2a abbf dd39 95ae 0cfc b53f
00000320: de57 1f98 70ed 62bf 4a03 53ae 26f3 b5bf
00000330: f3cf 6e73 cd39 a5bf 0dbd 4245 b31c c1bf
00000340: 7619 f56d 4f14 bb3f acdd a467 d588 ac3f
00000350: 1154 9c57 b314 a9bf 8ffe fc20 35fd c0bf
00000360: 9ebb 7326 b875 b83f 875a eb75 ad81 9cbf
00000370: 62f0 7ac0 31f6 a4bf 20ef f4b5 7a89 843f
00000380: f47a 79da de51 9e3f 7d9a b748 2da5 acbf
00000390: f61f 0151 2c8e a1bf 6081 6d54 f0f6 983f
000003a0: 01dd e91e 0318 aabf 82fa e4f5 013b 6dbf
000003b0: eee9 3d86 2eb7 af3f ca35 e7d9 05c9 c23f
000003c0: 2ede 55ce 835b b5bf 0454 f2f9 496a c5bf
000003d0: f73d 5637 7cef a5bf 313a 6077 30a2 c03f
000003e0: b331 7158 51d5 d1bf be56 d5ed 09a9 bb3f
000003f0: 320e 4027 d4ae a33f ee40 10e6 cac3 abbf
00000400: 8fa1 00f3 43ca b0bf 0b20 b2d0 e0d7 bdbf
00000410: 3d0c 1903 0307 c13f ba40 9240 a7da b43f
00000420: 486c c43e df78 b7bf 5978 c535 d836 a7bf
00000430: ecbb 5582 5cdd a43f fd78 1f49 326b c53f
00000440: b27d 6134 64e6 bebf 7196 dd19 4ed0 ac3f
00000450: 1c66 c5c6 ee7d ab3f b7e9 6e43 a40a acbf
00000460: 1b02 aa4d b1d8 a9bf af7e c2c6 7dc1 9f3f
00000470: 0400 50d4 1afb 603f 38b3 a936 b7de b8bf
00000480: 854d ba3a c632 bbbf 9406 c086 6a23 c1bf
00000490: b3dc 6edc 2956 c5bf 3113 61c0 241e c5bf
000004a0: d79f 2423 caeb 97bf 76af 8c7a 4ce7 bcbf
000004b0: b4b5 4f32 da47 cd3f 6637 0368 03f4 c6bf
000004c0: 3a8e c6a5 e9e8 ae3f 6192 0ac3 2273 a4bf
000004d0: d854 fbd1 59c0 cb3f 8be8 03a9 57c9 c33f
000004e0: 650e d5fd c77d 9ebf 6410 50f9 b5b9 ae3f
000004f0: 5eb0 096f 0fc6 bc3f 075b ef1f 2bdf c13f
00000500: 62a9 ae16 fab4 d1bf be18 95e5 1ded c3bf
00000510: 8e5a 12ef 2acf 803f 8c3a 07e3 81e4 96bf
00000520: 6245 93e5 b713 c0bf bded 0848 10ad cfbf
00000530: ee25 bd46 5abc b3bf 4b64 1be1 b336 c03f
00000540: 800b 5141 575c c63f b0aa 8bba a1b0 b5bf
00000550: fb95 3527 54d4 be3f adcf b177 d102 b3bf
00000560: 661d 274a 6ffa 743f a1e0 282e f0ed c6bf
00000570: 5242 43e9 cfd6 b0bf 973d ad2e 07b1 bebf
00000580: 99bf f438 b4b5 c9bf 1401 6f43 4b8e cfbf
00000590: 2668 126c 3007 bf3f cf5e 5864 bb1e b13f
000005a0: 17b3 5996 1eee c2bf 9835 7b5b 9404 b33f
000005b0: 98bb aa28 a1c7 c43f e11a 8e0e 4d25 bcbf
000005c0: 1405 f6de d076 a4bf 1911 5b31 d95f b8bf
000005d0: 6baa 3cdc 322e c8bf 7f99 7897 6a04 62bf
000005e0: d758 a03b 147b c9bf 5ea2 d79c a933 c9bf
000005f0: 894c a0c7 d0c2 c6bf 8a38 7374 67a1 c53f
00000600: bbee 582a d976 bb3f 40be 0992 9e67 c6bf
00000610: 3fbf 544b 7958 b0bf 83df c72f 6a3f d2bf
00000620: 06d0 811e 5728 cc3f b9f2 7b5e ad47 c8bf
00000630: 4cd0 909b 8b1e 4abf 36d5 1984 5156 b8bf
00000640: 4a3f 2722 5aea a3bf 7213 28cb 6b63 c8bf
00000650: 8a1f c378 2f6a b3bf b699 0c22 c89d c13f
00000660: 88e8 7d8c f21a b9bf 942e bfa2 0bfc 92bf
00000670: f423 5595 1a8a c1bf 6607 0f50 e0cc c3bf
00000680: 92c1 6c68 1756 35bf 028b 1b56 8242 bb3f
00000690: f41e 3247 c1a8 b3bf dc3a a8d5 ba33 b9bf
000006a0: 78bb 038f b1e4 b0bf 968e 94b8 03c5 c73f
000006b0: 36c6 0f91 3aa1 9b3f b4b6 6343 730c d03f
000006c0: 014d dc08 6623 b43f 79b7 c7df 6c8d c2bf
000006d0: ece3 29cc 8929 a1bf 9f83 1450 f8b7 c53f
000006e0: bcf8 a4e3 dce4 c23f b2a0 ee77 236a a33f
000006f0: d857 b9bf 4e6d 98bf f14c b607 d987 c43f
00000700: 0420 8d76 85d1 c6bf 46a7 355b 4fc7 923f
00000710: e552 613d f3c7 d5bf 6ce2 aaea 7e92 94bf
00000720: 5d03 cdac 409e c6bf 69c3 81a5 07c5 c13f
00000730: 3cb7 cf66 93ae b53f 422e eab9 bec3 b43f
00000740: fc37 0ab5 eacf b33f a0b2 940d 9017 b73f
00000750: c3ab 72c6 3297 c13f 81c9 405d 321d a03f
00000760: 48d2 bb3e e9b8 bcbf de20 42fc 009c b53f
00000770: ca96 b9f8 2383 c0bf ad5b 48c3 803b bbbf
00000780: 684a e086 fe60 a8bf 19c3 d0d8 d315 873f
00000790: 54bf 0999 90fd ac3f a8ee a6e8 75c4 af3f
000007a0: 29a2 b527 f2c7 9f3f 58f4 ca86 497c b13f
000007b0: 331e 70d8 11a2 bd3f 4009 f02e 956f 70bf
000007c0: 86a0 2da0 6368 cc3f cbaf 43c4 8841 b5bf
000007d0: 67b1 0878 226e bfbf e46f 5a90 2b10 c3bf
000007e0: f15b d781 834d c93f b060 afa6 0827 ae3f
000007f0: 383f 45ec 49b7 abbf 3749 e534 740b c3bf
0.2223944503392282 -0.10919577670445953 -0.021189176559515018 0.015402091904273725 0.07227121746522852 0.31725119132386903 -0.07504273378839493 -0.06833902338933671
0.08950311130052019 0.17112386676226854 0.14757875427905162 0.022171482132753547 0.09653603978674784 -0.11596718737076633 7.950075565124596e-05 0.08414464640545853
0.009220947371635034 0.05979502861278843 -0.1855670610928151 -0.13216440961400155 -0.0923834694085687 0.1326644198766171 0.25444858559013106 0.09514371457106567
0.023814847735264714 0.047394657491397596 0.3719634719867835 -0.09756114123026789 0.019256190960866136 -0.1325774401806152 -0.13681851995464758 0.035271316259620766
0.18296103843982556 0.07975924690619933 0.06369307866428381 -0.011761553642339353 -0.12528165391367302 0.1463742334354993 -0.005713397556064279 -0.0833030291220699
0.02789108530378669 -0.1576749317259056 -0.09338322939329884 0.08456007893100005 -0.16354722509291028 -0.0822415252382115 0.09980355926970055 0.01049987295151866
0.025719850215201668 -0.09074681674072912 0.1638444005754613 0.02643580777764624 0.0025642357930343784 -0.0018780680206880753 -0.033938120669291486 0.37246576079820565
0.0018298288286953666 -0.0490638087127327 0.3963202651276531 0.09426223210934305 0.045236560243189 -0.08722377482612882 -0.07543367818897675 -0.23746409793287493
-0.19006425453864612 0.002212114279674996 0.029130988626885526 -0.06845145959284457 -0.09208416059241202 0.08123606506546291 -0.0627619543838588 0.1296697873030141
-0.08362872697445659 -0.04377034254234631 -0.18497524650255615 -0.061758670810057134 -0.014909966540735833 -0.05710061354166017 0.12178731191209004 0.15255657376058068
0.061593135066834045 0.17653236552635793 -0.09600215432872747 -0.056250697905459 0.0872571274199349 -0.19802368500194698 -0.011207610622423798 0.05180444402997289
0.12753849768626405 0.1439316778536396 0.04865315214806981 0.05273974558310309 -0.009502032377345334 -0.11673776122448705 -0.12846399839958053 0.29525761722693655
0.11264250358122536 0.13038596865278354 -0.053061385435268484 0.08587722074773958 -0.00231048575458724 -0.0857414413067207 -0.04145662340252434 -0.133688362902355
0.10577866014964407 0.05573145761666906 -0.048986057705555315 -0.13272728071932646 0.09554625452777407 -0.027838430711961706 -0.04094081377613247 0.010027846029167231
0.029609186253192157 -0.05594769966756006 -0.03428781975577515 0.02437949672037243 -0.05096444847452553 -0.003568176106596711 0.06194444073385684 0.14675973071864085
-0.08342765605436206 -0.16730618194984015 -0.04284275222300587 0.12994962529087808 -0.27864488255434167 0.10804807716825857 0.03844321231011029 -0.05422815378563138
-0.06558632548024533 -0.11657528967964496 0.1330264821172892 0.08146138502547987 -0.09168811113743047 -0.04534030586613431 0.0407513531780451 0.16733387537437486
-0.12070299414471355 0.05627674165479569 0.053695165409134854 -0.054768689376448014 -0.05048135827110319 0.031011548286754727 0.002072861100259617 -0.09714837154906497
-0.10624350484640928 -0.1338933141669726 -0.1666920019467618 -0.16498240846171933 -0.023360403437578583 -0.11290433875973158 0.22875525910005268 -0.17932169512499313
0.060370732771187055 -0.03994091635585018 0.21680758240714826 0.15458198311518276 -0.02977669226426229 0.06001061123245746 0.11239716015706011 0.13962306079221085
-0.2766709538942874 -0.155673729992662 0.008207641049279315 -0.02235606144113915 -0.12560175618868202 -0.24746898190811165 -0.07709278323195409 0.12666939250519457
0.17469301881109445 -0.08472643665633472 0.12042737920054229 -0.07426175281744803 0.00512164566538984 -0.17913629773989206 -0.06577777333155524 -0.11988873376434693
-0.20085766583497103 -0.24652996819168804 0.12120344770883715 0.06687518310388472 -0.1478918298847922 0.07428862794332358 0.1623422096795053 -0.10994416814183296
-0.039968993393822455 -0.09521253066038006 -0.188909871614061 -0.0021993715161158773 -0.19906857406085152 -0.1968891158897063 -0.17782029864665486 0.16898816286124357
0.10728223117706197 -0.17503721361889468 -0.0638500031388931 -0.28512053171242985 0.21998108853915727 -0.18968741525158864 -0.0007970983198277797 -0.09506711459274161
-0.038897339505295905 -0.190534090230496 -0.0758390111760702 0.13762761747893898 -0.09806743555046371 -0.018539602096821442 -0.1370270947611797 -0.15468982609859977
-0.000325566019841816 0.10648359873043137 -0.07679374683550205 -0.09844558445204704 -0.0659895872265518 0.18569990647039408 0.026982226470812352 0.25075990277296545
0.07866513935396215 -0.1449409573246461 -0.03352003686172353 0.1696768179909016 0.14760933986139502 0.03791914786353469 -0.02385447545233163 0.1603957450539393
-0.17826908386837215 0.018338432256690206 -0.3403289889732107 -0.020090087006538956 -0.1767044872049394 0.13882537442580237 0.08469506511729902 0.08111183203635
0.07739130897445529 0.09020328837932334 0.13742670717087266 0.03147275341361234 -0.11219651967605515 0.08441167982721562 -0.129002090881093 -0.10637669341700358
-0.04761500736653518 0.011272101453955895 0.05662204616680691 0.06204575028411102 0.031036170648265724 0.06830272236671087 0.1157542375004759 -0.0040126636004081395
0.2219357044334666 -0.0830312232171188 -0.12277427130238082 -0.14893097446918013 0.19767803039459822 0.05889155420999381 -0.05413275727425887 -0.14878704626841863

module.feat_mlp.4.bias f8 [32]
00000000: 9808 8c52 cd8c cebf f303 6f7a 884f bdbf
00000010: 90d4 6044 0690 babf 385d 82ee 55d2 8d3f
00000020: e3ff 54ba ae5f c53f 8466 c700 cd71 a13f
00000030: 6177 3b36 3364 c43f 065a cec0 5956 56bf
00000040: 5b56 7fa7 61c7 b63f 8812 1154 4372 b5bf
00000050: 8d8d f2ff 264f c63f 688f b046 e4fb d33f
00000060: 8514 c2c7 a61d a73f 2b5c 9868 d405 94bf
00000070: db7c 9421 ea95 9c3f 5d67 54f4 fe8e c3bf
00000080: c161 07ca 007c c4bf 4d8c 37ac c09d c53f
00000090: 8de1 743b e4f2 a7bf bceb c3d6 0d46 c83f
000000a0: c5d3 1068 ee76 9c3f d251 e5b1 4109 cb3f
000000b0: a706 298b 073d c33f d19e 464b 964a c2bf
000000c0: d1c7 9a71 8d25 c1bf 6e2a 6d70 8c0c c43f
000000d0: 551f 80bd aed1 abbf fc4e 2957 601f d03f
000000e0: 89db 2596 4cc2 c2bf c932 5a6e 702b c6bf
000000f0: a6ff 7fc4 759e c8bf 4f20 588a fe07 b73f
-0.23867193728080305 -0.11449482907393342 -0.10376013917341909 0.014561339703773699 0.16698249910586957 0.034071356148797555 0.15930786274014522 -0.0013633610244362395
0.08897981967251083 -0.08377476503762626 0.1742905378097074 0.3122492494896876 0.04514809788182909 -0.019553488620740616 0.027915628718912493 -0.15280138902817955
-0.16003427376450755 0.16887672814400148 -0.046774990327722234 0.18963788019740757 0.02779743681113069 0.2112199896461236 0.15029997153219662 -0.14290121722773688
-0.13395851180172128 0.15663295259067261 -0.05433412612188585 0.2519150592026873 -0.14655453998031145 -0.1732006586866162 -0.1923358163330679 0.08996573331398959

module.transformer.to_qkv.weight f8 [96, 32]
00000000: 5c08 a085 0d67 d63f 853e ebc6 617f cbbf
00000010: 172c 50a1 b55a bb3f 03ae 14fe 7332 923f
00000020: 7a1d 9ed6 c76e dabf e9a2 227c eed3 a23f
00000030: 243d 2398 151d a5bf 530d 3e8d f728 b0bf
00000040: 8bff 8fc7 99a6 c3bf 6c18 86d6 8b4c c6bf
00000050: e8f3 12ea f551 cdbf fe92 0e87 5472 903f
00000060: c824 784e 369e c2bf 8394 34c6 a854 c63f
00000070: 5100 aabd 1d4e 9abf b952 1108 f687 a53f
00000080: b4fa ca5c efb7 d43f 49c2 ec5d f435 c4bf
00000090: 9168 03c8 21c5 d43f 00d5 339e 0039 9e3f
000000a0: b834 527b e47f d23f b206 c166 074e d0bf
000000b0: 5568 ced3 f20a b53f c0f2 62e6 e6b1 d33f
000000c0: b9a1 e80c fa9a d03f 000d 9fa7 5950 cfbf
000000d0: 7aa5 18a8 9187 95bf 25f4 3889 00bb bdbf
000000e0: 0e78 b119 4d00 833f cfa2 4242 5046 c03f
000000f0: 5119 8fce d48d bfbf d88c f226 2d00 d1bf
00000100: ec88 288e dcb3 bbbf 654f 301e eaaa aebf
00000110: e207 e912 53df bebf a42d b6df 2281 c5bf
00000120: 7bd2 f298 6359 cf3f 94e4 3840 9f57 aa3f
00000130: f3a5 d733 9388 ad3f 8144 7898 8458 af3f
00000140: d336 acd9 b5fc 9d3f 8a19 2b75 63f4 b63f
00000150: 1897 ed2e b352 bfbf 70c2 0968 3621 953f
00000160: b4ae c335 6239 ab3f 9ebb 5d1d c800 b2bf
00000170: 506e b04c 9235 923f 5c73 bf6d 6da3 c3bf
00000180: 18a2 f9ca 3d88 5dbf 89bc 0625 c5bd c13f
00000190: 7db2 b39a e883 cf3f 4cae 65a6 9e07 ce3f
000001a0: faf1 22c3 66ab c43f e8c1 e381 f84e 863f
000001b0: 526f 9cfa e2cd c43f 2e97 ef8a 41d5 b3bf
000001c0: e397 5744 8ca1 c03f bb0e 0a4e a6ab 103f
000001d0: 10a7 baae 434f 9a3f 3e2c 391d e6db b93f
000001e0: f830 c65d e98d c23f 9bfd 5267 0790 90bf
000001f0: 88ab 521e 3f92 c2bf 0216 e1aa 41a8 babf
00000200: f766 65d5 6b18 c23f bd4b 2ad8 a163 a0bf
00000210: b511 d943 db7b bbbf fd88 25e5 8e93 c33f
00000220: a075 20b9 af33 b33f 799c aa90 df40 c4bf
00000230: e35f 016b 4380 4d3f a17a 4fd1 f2d1 c8bf
00000240: f234 566a f5a1 c1bf d94a 5797 d846 c5bf
00000250: e250 1fe0 7a77 b03f 49c6 174a 9664 91bf
00000260: ab2a f698 4acf a93f 7b19 cfdd effa c93f
00000270: 17d2 b460 7a79 c3bf 80e5 9796 2b9a be3f
00000280: 3556 b89e e764 90bf e363 2737 3dcc a3bf
00000290: 9a13 f680 879c d0bf 88a3 54f3 5e40 b0bf
000002a0: 6fc2 4407 dd6a babf b418 83d0 1f7b b73f
000002b0: 252d cf91 fe51 c83f fca9 2316 bcca b53f
000002c0: a555 f5c7 c0ed c6bf 6f78 55c3 b272 acbf
000002d0: 4a1d 052f 6257 a1bf a16c e965 e2f8 b1bf
000002e0: 2f12 a29f 09b0 b7bf efea a9b7 cf21 d0bf
000002f0: f0fb 7003 faea 8ebf e7ae 6349 89bd cc3f
00000300: 4e1a 9c4f 742c c9bf 43d6 1e06 3723 aebf
00000310: 97b0 b594 7642 ccbf 501f 703b 529c c3bf
00000320: e0ce cd9c 29cb d03f 3a16 97c7 872e d13f
00000330: e1c1 f430 030b c33f 15a8 cbbe 5a2c 97bf
00000340: 97fe cfcc 8f1a ca3f 7ce7 b7d9 8a51 b3bf
00000350: baf4 c7c7 c2d7 cc3f d07a 4395 5be8 d03f
00000360: 356a 819f 6e58 d03f 78cc db5f 358b d33f
00000370: b7b2 2053 fb22 cb3f f43c 445e f10b 99bf
00000380: 83b1 a44b 06b9 cabf 7d52 865f c15c 7fbf
00000390: c3d8 0bf0 0f7c c9bf 5fec d08c ba96 8ebf
000003a0: d0b4 5a92 5ff4 c2bf 668a e6c3 2c95 af3f
000003b0: 658f b553 459a c33f a1a5 e9c3 d49b 9ebf
000003c0: af6a 44c6 14ec 97bf 6fa2 97bf c6a7 c73f
000003d0: 9aae e7d0 70f9 d4bf 4231 82ae 4ac2 d23f
000003e0: b057 2e08 463e d0bf cc9c dbc2 7184 c8bf
000003f0: 3428 381b d7f1 c0bf ff83 4fe2 7c54 b03f
00000400: 93a7 140b 6107 c83f 944c a040 f821 9d3f
00000410: 8469 f657 fab7 bfbf b67a 8c3a a820 d0bf
00000420: a8e5 4572 e080 d93f cbda 62d6 0569 cdbf
00000430: d98e 003b 9e0d c53f a8c5 b883 1483 9c3f
00000440: 6dfa 702d 419d a3bf b414 5d84 a69b b83f
00000450: 1fca 2fca bc0b b3bf 6904 c7fb fc63 af3f
00000460: 091f 5d7c 0ad2 a1bf a8e8 0150 3c6a a8bf
00000470: bc2a 4a92 19d5 d33f 0ebd 41bb b06e c7bf
00000480: fd1d cfcd 858a abbf 0355 9309 d8a6 c03f
00000490: 8171 2ce7 e919 cebf 73d4 5939 3449 b73f
000004a0: 71bf 3806 0ea4 bdbf e6b5 cf58 01a6 a3bf
000004b0: 6eff 40b9 12ae c0bf f6c1 da85 a422 c1bf
000004c0: 8322 f5a4 4be9 d23f 2a9f 70ba c891 c63f
000004d0: 3c36 24d5 e785 aebf 2e03 8ef0 5aac a83f
000004e0: 4e0d ffd4 da32 a3bf 772e 19c2 145e ce3f
000004f0: ca46 4002 962a b2bf 0021 c9b0 0bf9 a23f
00000500: 4947 e521 4fe5 99bf add9 3acf d242 d4bf
00000510: fde1 491b 925d dbbf 4dd2 b6e6 cf47 bbbf
00000520: 8dea 75e2 7c68 c63f 3b1d 552a a5f8 c43f
00000530: d19d f6d3 9b4c c03f 78b6 3596 1495 c23f
00000540: 3f9e 7f0f 4eaa cabf bc5c 613f 041e d8bf
00000550: 6aa2 f83c da55 cb3f 0448 35b6 275d cb3f
00000560: 9332 66b7 a88b ccbf d7a0 970c d851 a4bf
00000570: 5036 8881 0b82 d03f 53a0 37bb ac4d acbf
00000580: 00a8 b094 24a3 503f c050 3a4b 8e8d d03f
00000590: 04d0 df2d 8c4e 9a3f 0518 41c0 32e8 d43f
000005a0: 258e b011 dcef b23f 5cae 51c1 1292 c03f
000005b0: 59dc a91e 56a7 c43f 75a4 2bec a54c 99bf
000005c0: 0dc5 5326 67cd d2bf 22cc f67c b4cb c33f
000005d0: 5ba4 1ded 1cb7 9abf 774f ec42 468c cc3f
000005e0: 2416 8031 f061 aebf 361b 2141 8506 d4bf
000005f0: 0a16 13af e517 cfbf 1714 f0b5 eef4 d33f
00000600: f943 a981 6838 94bf a690 8958 d506 98bf
00000610: dd60 f651 99be ce3f 1cf7 cfd0 0cab 8bbf
00000620: c77c e75f fec3 c4bf d4c8 a257 3eb4 bbbf
00000630: da30 3bba d2b1 c2bf 1232 943e 0cf7 7abf
00000640: d64c 7607 dde3 bdbf 8f5d d314 9abb 9e3f
00000650: 5060 3760 484f 393f 2f16 9229 962e b5bf
00000660: 2722 ea82 622e cfbf 5a45 c72f d8eb a03f
00000670: 0090 767d a0d7 88bf a6d1 2096 06b5 b43f
00000680: 7017 6c53 742b bdbf 66c6 37c7 ac83 dcbf
00000690: 6413 86d4 c7d2 d2bf ffc9 6086 c9c8 c2bf
000006a0: 54bd bf56 88d5 c3bf 5867 59e3 63de d0bf
000006b0: 1bf1 2d91 aa84 b33f 0a5f c665 7094 c63f
000006c0: 04d1 1df6 58ec ba3f 1165 679a 7c41 d1bf
000006d0: 5baf afd7 409c 833f 71d3 774c e151 93bf
000006e0: 3e47 f6c8 20ef ba3f 39a0 bc18 0cc3 cabf
000006f0: 209e d1be 8375 93bf 3bf3 7daa 142f d0bf
00000700: 1ec3 d74d c9f5 d83f 73bb d35c 0927 cc3f
00000710: 770f ff83 eb4d d73f 2a85 2944 6714 b3bf
00000720: 9ed2 0f5a 1547 d6bf 2442 b8f9 ede6 b8bf
00000730: b824 93c5 5f73 b2bf 8596 2e93 fc1d c13f
00000740: 0fca 7155 72e0 b4bf a6f8 3419 bcb5 c93f
00000750: 3028 f74b 5342 e3bf 2ede 4038 cf25 d4bf
00000760: a355 c67a 1854 afbf 8318 1a74 f50b b8bf
00000770: 8f3f ed00 2431 99bf e2dd 3e54 2bca c83f
00000780: 6e78 646d ebbc b93f bfe8 c525 c41b ddbf
00000790: 39bf 54b8 17b1 c53f 8e41 fe64 d5a6 bbbf
000007a0: 0f13 50f8 de6b afbf ce31 e7cd 23f5 d6bf
000007b0: 2967 dfb7 497a 2e3f c5ca fdc7 6534 81bf
000007c0: 152a 93de 25fe d13f 00e4 7b35 c5d7 e0bf
000007d0: be2e 2e1d 4bfd 5b3f 16e4 3128 c5a1 c5bf
000007e0: 0224 da95 7332 c23f 16a8 97b9 af91 533f
000007f0: e542 5d5c 02cd d33f 9c68 e0bf e763 e3bf
0.35003984498337615 -0.21482488835180305 0.10685286701497919 0.01777058828626644 -0.4130115123629917 0.036773159650072725 -0.041237521001330074 -0.06312510679531629
-0.15352174991857867 -0.17421100592418115 -0.22906373910328104 0.016061135047169543 -0.14545325118550623 0.1744585960197221 -0.02568861456029509 0.04205292557222635
0.32372650205426656 -0.1578965624444371 0.3245319798712752 0.02951432195273629 0.2890559391315253 -0.2547625068146814 0.08219831152965303 0.30773327349360713
0.2594590307294556 -0.24463959393151669 -0.021024967083723457 -0.11613467550428476 0.00927791819247761 0.12714579806676915 -0.12325792353576516 -0.2656357651087098
-0.10821321936285572 -0.05989772432817978 -0.12059516154934571 -0.16800342486781716 0.2449154373949972 0.05144975336993088 0.05768260963288787 0.06122221337512546
0.02928432599133297 0.08966657267146708 -0.12235565086083644 0.020634508228285886 0.05317217737487337 -0.0703244277662933 0.0177824839885104 -0.153424910152263
-0.001802502007104084 0.1386038237373877 0.24621303132825637 0.2346075355993541 0.1614807560744252 0.010892812217634565 0.16253316151493863 -0.07747277872075806
0.12993005120296094 6.359293502993916e-05 0.025692994632357247 0.10101164067707288 0.1449557979470979 -0.01617442672863732 -0.14508809071170625 -0.10412989065033432
0.14137027663928567 -0.03201013339744161 -0.1073586502689697 0.15294061840820197 0.07500742215821399 -0.1582297760371352 0.0009002999486353826 -0.19390711994397683
-0.13775508587097068 -0.16622455014893125 0.06432311984764597 -0.016985271713514192 0.050409632846898 0.202970488839309 -0.15214471551884465 0.11953995157809594
-0.016009921133522027 -0.03866759584679593 -0.2595537909876896 -0.06348222199143383 -0.10319310595947127 0.09172247734668099 0.19000227088540914 0.08512473621855315
-0.17913064731207587 -0.055562578529802724 -0.033869808425658635 -0.07020392406541244 -0.09252987048427806 -0.2520636838523122 -0.015096619825383656 0.22453418811289014
-0.19666913878627884 -0.05886241864884003 -0.22077829610077934 -0.15320804502720842 0.26240005791554033 0.2684649895785217 0.14877357378419645 -0.022630136389956663
0.20393559933289815 -0.0754629880465511 0.2253344989293618 0.2641819913532517 0.2553974683447991 0.30537161217871 0.2120050578972916 -0.024459620836805265
-0.2087715024330344 -0.007656817783204259 -0.19909857960710128 -0.014935929701200999 -0.14808268209654907 0.0616849888931668 0.1531454714523718 -0.029891323525964023
-0.023361515618584402 0.1848076282033335 -0.32772465134505924 0.29310862581111874 -0.25380087660721085 -0.19154188169998176 -0.13238037900038224 0.06378918194924664
0.18772519150780606 0.0284498967594798 -0.12390103004000791 -0.25199323384905925 0.3984910121867764 -0.22976754158090382 0.16447809105840497 0.027843781032236642
-0.03830913238242748 0.09612503749402174 -0.07439784942815962 0.061309724554583785 -0.03480561035263292 -0.047685513273749536 0.30988158498864116 -0.1830655016269493
-0.05379121911351701 0.13009167163424004 -0.23516582286618973 0.09096075439613731 -0.11578452731987256 -0.03837589463351403 -0.13031229062653032 -0.1338697103106054
0.2954892264283801 0.17632397750389234 -0.0596153686220586 0.0481899660726469 -0.03749736642887545 0.23724612691363564 -0.07096231036146175 0.037056317644386993
-0.025288807338547135 -0.3165785812119804 -0.4275861040582923 -0.10656451590222922 0.17506371553084357 0.16383804862037174 0.12733791208050474 0.14517457327331207
-0.20832229382289033 -0.3768320673893404 0.2135575101576877 0.2137803687751899 -0.22301205592193138 -0.03968691972460341 0.2579373135530192 -0.05528011117331801
0.0010154587969375406 0.2586398825308258 0.025690260219519714 0.32667225622969936 0.0739724677264851 0.1294578021946674 0.16135670182458986 -0.024706451930715596
-0.2937867998399078 0.1546540842224156 -0.026089145634078253 0.22303083675125965 -0.05934095958950206 -0.31289798126492785 -0.2429167847496248 0.3118244911896126
-0.01974643031491394 -0.023463567284480867 0.2401916170317752 -0.01350984585041775 -0.16223125155281634 -0.1082190479235437 -0.1460517319995976 -0.006583259420278613
-0.11675816948109072 0.030012519379707888 0.00038619534481432616 -0.08274210467251274 -0.24360305206597951 0.033049350578617534 -0.012130025700407998 0.08088723340262635
-0.11394431149173356 -0.44553679900045606 -0.29411502603789175 -0.14675253926687046 -0.15495399699964685 -0.2635736198623042 0.07624307674808899 0.1764050003955549
0.10516887673094649 -0.26962199285988314 0.009575373251173571 -0.018867035190811735 0.10521130472468784 -0.20907736976482896 -0.019002970239311634 -0.2528735794983736
0.3900016079124259 0.21994130165645806 0.3641308583285005 -0.07453008092990801 -0.3480885867605056 -0.09727370592759904 -0.07207296918490413 0.13372761904354405
-0.08154978357359986 0.20085860472494693 -0.6018463596058208 -0.3148077058171762 -0.061188473689223664 -0.09393247684974608 -0.024601519161762616 0.19366971601060273
0.1005389349051897 -0.4548197144391785 0.16946693897761536 -0.10801442828802107 -0.061369865237827274 -0.3587121496937272 0.0002325263012029008 -0.008400721708061618
0.28113695846391923 -0.5263391537292819 0.001708339074613471 -0.16899933302536913 0.1421646577548757 0.0011944023193515333 0.3093877698893677 -0.6059454677190561
