models/wo_ms.pt (torch, 323604 bytes, 41 tensors)

module.feat_mlp.0.weight f8 [32, 3]
0	0x3fd3f92a34c7bfb8	0.3120828166420284
1	0x3fe576225b14b246	0.6706706789896735
2	0x3fe08d9c0f80bfce	0.5172863295356309
3	0xbfe8368e8fe09aeb	-0.7566597757439387
4	0x3fa09af05f491eb7	0.03243209040789224
5	0x3fc930ee37ecd94b	0.19680574160310935
6	0x3fdea930b514e222	0.479076554143406
7	0x3fb708dcbaa6993e	0.08997897679237085
8	0x3fe03a1982934e2e	0.5070922422696122
9	0x3f880da6869712b3	0.01174478624569395
10	0x3fddd73124e9b8ba	0.46625927548201285
11	0xbfcc9c93e6620bf7	-0.22352837323350602
12	0xbfe05d7304dd8165	-0.5114073843979382
13	0x3fe31b63b1481ea7	0.5970934355290937
14	0xbfc40c7159b2a933	-0.15662972335605616
15	0xbfc0b9a883387bfd	-0.13066584021814256
16	0x3fa92d61cd506b2c	0.049174362480888995
17	0xbfcd532ee3a186c7	-0.2291010486106215
18	0xbfddd58f8461c7cd	-0.46615970542836466
19	0xbfd7c737e95dba88	-0.37153432645474327
20	0x3fd8c032b325c7ef	0.3867308377731424
21	0x3fc6707c41c2c8df	0.1753077813241992
22	0x3fd87138b590a795	0.3819104931923161
23	0xbfaa769259927a22	-0.05168588012132981
24	0xbfe2288e3e5f4e33	-0.5674506395539026
25	0x3fe65550abfe2385	0.6979144438965795
26	0xbfd202c8556f266c	-0.2814198335951008
27	0xbfae6ab7e0653a35	-0.059407945768374416
28	0x3fda172dc0a4ad78	0.40766471684283756
29	0x3fcc0af66013dd4c	0.21908454600609628
30	0xbfc18ae14186471d	-0.13705077838363247
31	0x3fd16ccd5f609005	0.272265761510653
32	0x3fddd65b4a2d0463	0.46620828860984015
33	0x3fdd28600cfeaa61	0.4555893065359325
34	0xbfc3710f2b62150c	-0.15188779466931412
35	0x3fe3008e20eef048	0.5938177722196167
36	0x3fd8cec1ae9cfcf3	0.3876194195945139
37	0x3febdebe68ee3ad6	0.8709404038835042
38	0x3fb6eae895e514ad	0.08952191981832654
39	0xbfe0a534d4067f6c	-0.5201667920227755
40	0x3fb5de6a65cdfa71	0.08542504296745236
41	0xbfdcb6d999c11e6c	-0.4486602784640812
42	0xbfc908a32abbc00a	-0.19557609163848638
43	0xbfde387888e752b2	-0.4721967064809106
44	0x3fe15096d5ff2502	0.5410875491735683
45	0xbfe519d0855a6245	-0.6594011883308403
46	0x3fe55ddc1dfc8bbe	0.667707499091527
47	0x3fe86453b4c9f5d2	0.7622469454797118
48	0x3fef2e1d2bc8422e	0.9743791442034018
49	0xbfd3b9c54c7028dc	-0.30821354355488295
50	0x3fb45a9d5bb2de6e	0.0795076702951236
51	0xbfb1951c0db0f30f	-0.06868148168809916
52	0xbfd3cd428c093f3a	-0.30940307307627146
53	0x3fdfca7899cdc5d2	0.49673285503294295
54	0x3fc026a855a6ff31	0.12617973501436944
55	0xbfe8ba87c1374ea0	-0.7727698110342835
56	0x3f9b397eb9b96a73	0.026586513601026995
57	0x3fe6b3e49c266a2c	0.7094595956617176
58	0x3fdfb4fd6405a0d8	0.4954217411782458
59	0xbfde42736ce1093c	-0.4728058398506112
60	0xbfe7c39cc5f2a699	-0.7426284662407908
61	0x3fc3411094e12c20	0.15042311925421448
62	0xbfe2d35629b55b07	-0.5882979216210921
63	0x3fe568c51297689a	0.6690392840494213
64	0x3fcf6926d78d6bc6	0.24539647603054798
65	0x3fe05b4c90e8b284	0.5111449079755208
66	0xbfd74bf450f9b662	-0.3640108862663053
67	0x3fdd1d711ff66dc2	0.45492199059819083
68	0x3fe483476b7646bf	0.6410252665393371
69	0xbfe311fa79329d69	-0.5959446303503856
70	0xbfdb9b910e16ff7d	-0.431370033034902
71	0x3fd1be6b2d4ae7ec	0.27724723265748596
72	0x3fe38fcb7e383f2d	0.6113030877331532
73	0xbf970db371836901	-0.02251320247965172
74	0xbfcef5452ce27c93	-0.2418600529826774
75	0x3fb150917b4c0621	0.06763562450580497
76	0xbfe0a101fc8b3ea5	-0.5196542675493744
77	0x3fe84eb4045f6b27	0.7596073232083186
78	0xbfc9d0089f63d4a3	-0.20166118414605191
79	0x3fd78f2c954c9350	0.3681136568068739
80	0x3fe0cb4965786113	0.5248152715530828
81	0xbfc736084587ed7e	-0.18133643527094628
82	0xbfa96aa69a248493	-0.04964180595039482
83	0xbfe44db3ec45332c	-0.634485208001569
84	0x3fd93adb5fee391b	0.3942173420736183
85	0xbfd54c52c12a9660	-0.3327834020986753
86	0xbfd8ae35a758d144	-0.3856329092261783
87	0xbfd000d48ae689ac	-0.2500506740999764
88	0xbfec1ad35405aa68	-0.8782745972687964
89	0xbfb814d5e2bc85e5	-0.09406792436177332
90	0xbfd5729f18a62a24	-0.3351209393228223
91	0xbfcff17ec1de783d	-0.24955734697590684
92	0xbfe941c7223ee09f	-0.789279524694411
93	0xbfe356ce4ebf00dc	-0.6043464220056438
94	0xbfe18057115c02ee	-0.5469165171672026
95	0x3fdf16c04d1beddb	0.4857636216181313

module.feat_mlp.0.bias f8 [32]
0	0xbfa63980ed6b8324	-0.04340746782486907
1	0x3fd242f2703be79e	0.28533612213470316
2	0xbfd75c974bbf65ba	-0.365026306125937
3	0x3fe05b9e0be5f672	0.5111837608707914
4	0xbfca6abaf9d29d7b	-0.20638215254187373
5	0xbfdd0d21b575361b	-0.45392649384015876
6	0xbfb29cf2618fd793	-0.0727073181331817
7	0x3fc8eddcd1c17a00	0.19475898973446704
8	0xbf88126b04a7a024	-0.011753879622986636
9	0xbfdfae000f040529	-0.49499513117196386
10	0x3fe09dbbec49d48e	0.5192546477325253
11	0x3fda25c85b5cae9c	0.4085560695846
12	0xbfbf828ee40ee993	-0.1230859095366326
13	0xbf9d04579a9c1526	-0.028336876689555222
14	0x3fc9505dab32673e	0.1977650724336914
15	0x3fd5abe6f019993d	0.3386170716024884
16	0x3fac497ed156d8be	0.055248225263697645
17	0xbfb66e6928a56dbe	-0.08762223474825867
18	0x3fc2a2a7211ed0ee	0.14558877103048168
19	0xbfb0db0debefb6da	-0.06584250459828969
20	0xbfd2a33d472930e5	-0.29121334027582996
21	0x3fa261b0d0c83e8b	0.03590157078371899
22	0xbfceeb8d7d7a6ad0	-0.24156349779953823
23	0x3fdfcc278a851ac6	0.4968355992063319
24	0xbf97a6eae5630f12	-0.02309767746989084
25	0x3fd12bce8a0d038f	0.2682987545159045
26	0xbfa37871c26a4f4f	-0.038028292639096344
27	0x3fdea1c346f517d7	0.4786232178633986
28	0xbfa11a2f3eec49e0	-0.03340289729216628
29	0xbfbbd2778f219253	-0.10868022198116849
30	0xbf863d22b990367c	-0.010858794486945593
31	0xbfd0c6d937d4a123	-0.26213674976544804

module.feat_mlp.2.weight f8 [32, 32]
0	0xbfc1e63fd7043e79	-0.13983915327888832
1	0x3fb0d32bd63015ee	0.06572221736140424
2	0x3f9427c1f9438249	0.019682913626527108
3	0xbfcbb84e3cf9f0dd	-0.216562061093902
4	0xbfcbdc7c152f5cb9	-0.21766615900444267
5	0x3fc48d0949483a7e	0.16055408552388778
6	0xbf967de04eb7ba2f	-0.021964554600282845
7	0xbfd04d9f17f1cbed	-0.2547376378853972
8	0xbfb091e83c76cfa0	-0.06472636676954702
9	0xbf83f43bd814d30e	-0.009743182689456311
10	0xbfd0bd48a639808c	-0.26155296547768425
11	0xbfa39b1d96ae9572	-0.038292812961382774
12	0x3fd39e7fb5fc3438	0.30654900333394464
13	0x3fbfb517ee827ef5	0.12385701725952088
14	0xbfb2451da4dd10b8	-0.07136712336529427
15	0x3fa951a641d5b9a0	0.04945106080673445
16	0xbf9c5d4e52bda4a0	-0.02769968395242428
17	0x3fd7b33b1ed78442	0.37031438838863917
18	0x3fc737b8aac7129e	0.18138798083068236
19	0x3fbc61eef72701c0	0.11086934598916454
20	0xbf8425cca5b3a4f3	-0.009837721640411056
21	0xbfd0acd58220e3a9	-0.2605489512239339
22	0x3fd0a9457245509a	0.26033149871114747
23	0xbfc062f9c6bf66eb	-0.12802049831844128
24	0xbfcf98dc31746d05	-0.24685242094788165
25	0x3f5f130aeae579c1	0.0018966299645267611
26	0xbfd7ead2028ea1aa	-0.37370729684564685
27	0x3fc4b85ba54e5e68	0.1618761593970135
28	0xbfb903c04257793f	-0.09771348590536365
29	0x3fda473067f183b9	0.41059503699039684
30	0x3fd1db7aba7908e1	0.2790209599517209
31	0x3fc71236e14ed28e	0.18024335862505264
32	0xbfd5cdb7f923b807	-0.3406810696604911
33	0x3fcc70d7ce3396d2	0.2221936947673187
34	0xbfb7f99a15fc1d96	-0.0936523727105992
35	0x3f8f5586abfac84b	0.015299846766854716
36	0x3f916223f276540d	0.01697593848583172
37	0x3fb053187959d179	0.06376793825785922
38	0x3fd43f977838ba3d	0.3163813280142767
39	0x3f89d9f235dbeac0	0.01262273051132945
40	0x3fd49f6eca3900eb	0.3222310042219891
41	0xbfbca2ed8cf4cf9b	-0.11186108294788115
42	0xbfc1db0d120ea52b	-0.13949740773868177
43	0xbfceaeb09bfec655	-0.239706112069643
44	0xbfb0a04519760145	-0.06494552489858048
45	0x3fd315fc091b8183	0.29821682824515267
46	0xbfc168243fa392e9	-0.13599064929362406
47	0x3fa29f1f161d04e4	0.03637025017679621
48	0xbfb572c84ffb0765	-0.08378269150401037
49	0x3fda2813b2f9f1cc	0.4086961028877141
50	0xbfb4626ed032b130	-0.0796269663139284
51	0x3fd728abbe06211c	0.36185735280061393
52	0x3f9b5daeeb329261	0.026724560838049864
53	0xbfa1f77cbdd413ee	-0.03509130303613249
54	0xbf9e45c9ba1cc0df	-0.029563095077890785
55	0x3f9c66001228c745	0.02773285017810358
56	0x3fb11caab430308d	0.0668436708367059
57	0x3f97bddaa983bab6	0.023185173603389862
58	0x3fcb63c8828057cb	0.21398264286170696
59	0x3fca79fd78a16973	0.20684784307634238
60	0x3f663194515be159	0.0027091881591980002
61	0xbfd842c9777c7698	-0.3790763537270805
62	0xbfb1f81e7bdd07b2	-0.0701922466660381
63	0xbfb4fdc654d20925	-0.08199729510127847
64	0x3fa88a628fe4a26a	0.04793079382426842
65	0x3fc01dc1884bf01b	0.12590808062657363
66	0x3fd0047b54ae94d1	0.2502735449764489
67	0xbfc529a08cc34efa	-0.16533285973729744
68	0xbfbad5d402aa8587	-0.10482525887575465
69	0x3fc32176aab12800	0.14945872625895618
70	0xbfc08dc242d2a5d1	-0.12932613623460879
71	0xbfa95d0a7f4f901a	-0.049537971535557015
72	0xbfbc6cb68cb04d54	-0.11103383002073502
73	0xbfa4fa2dee0b91dd	-0.04097121744942787
74	0x3fb655eb1c948bc9	0.08724851081619457
75	0xbf98e483906337d9	-0.024309211433141662
76	0xbf62b271131f0ae9	-0.0022823532571874983
77	0xbfbda49bb51b65ec	-0.11579297229345514
78	0x3fc48154919b7662	0.16019684896211844
79	0x3f977aeb9768e3b1	0.022929841152492695
80	0xbfc43745586ad2f5	-0.1579367334103591
81	0xbfc0654f1b6f3afe	-0.12809170569968126
82	0xbfbf92f92d35e7cf	-0.1233363852860798
83	0x3fb99a8f96e81632	0.10001466211550605
84	0x3f856803da3e1ef6	0.010452299211251664
85	0xbfd2c6bb3aa77632	-0.29337959983772344
86	0x3f9fad74c14cf806	0.030935119913230856
87	0x3fc679839906642d	0.17558331462785884
88	0x3fb00c27fa5f9f94	0.06268548834452609
89	0x3fb3390ecd1a90b5	0.07508938319603227
90	0xbfd1bd5e0b05b854	-0.2771830661430432
91	0x3fbf13f07dadf731	0.12139800136898483
92	0x3fb1bc3864b7c396	0.06927826365405418
93	0x3f604ed8e935bfd9	0.0019907223265178517
94	0x3fb2305cc80807de	0.07105045207575197
95	0xbf99b76d8762eaa1	-0.02511378420670474
96	0xbfd9826d373a99ba	-0.39858560937355103
97	0xbfb6866f1ab79630	-0.08798880007051291
98	0xbfa1cce90c512e9c	-0.034766466859392525
99	0xbfb20bf283bae15b	-0.0704948016745041
100	0xbfd31bcb1e0d007c	-0.29857137617728546
101	0xbfc1d1ec5d082246	-0.13921885054175415
102	0x3f96e024d56c77da	0.02233941605219756
103	0xbfca11069e10c84a	-0.20364458768887267
104	0x3f8224e60b1194f0	0.008859441006459495
105	0x3fb1d95ba8a5c479	0.06972287051554983
106	0xbfb8b9f644fb937d	-0.09658755478046817
107	0x3fad82ae91a7cb1e	0.05763764884968324
108	0xbfc5027a091dbb41	-0.164138082934608
109	0x3fd0011384f397e7	0.2500656889300203
110	0xbfb7e6ca08fcb709	-0.09336531371510771
111	0x3facc6d894ccc8ce	0.05620457474141603
112	0x3fcb996b126faad7	0.21561945343213182
113	0x3fd1ffcb702cc347	0.2812374682862821
114	0x3fc5e80f80f6a105	0.17114442631760354
115	0xbfbe0958f4ef15cc	-0.11733013133842646
116	0x3fbcce2c07c66b3a	0.11252093496152052
117	0x3fc50a933f9773e2	0.16438522915896586
118	0x3fd567d635dbc46c	0.33446269282928287
119	0xbf88c9b067e78f8a	-0.012103441401400312
120	0x3fc35da650b0eb8f	0.1512954610824093
121	0x3fc056927f4b0ba8	0.12764197555051493
122	0x3fb19b657e75aa0a	0.0687774118174859
123	0xbfc8ab6afd7ea590	-0.19273126008674213
124	0x3fca791240b0c92e	0.2068198028442309
125	0x3fcc9245530ba7a8	0.223213830518316
126	0x3fb3d40e987b2d27	0.07745448324856295
127	0x3fd62e4a837d5aa9	0.3465753826216465
128	0xbfb57401970d20f7	-0.08380136430526251
129	0xbfca8b9fa98c4c38	-0.2073859765883712
130	0x3fd7a92674cee51f	0.36969911009835416
131	0xbfb4f0eac211c712	-0.08180110204719096
132	0x3fca3cef602c0957	0.20498459049128812
133	0x3fc392aa85a613be	0.15291339422051736
134	0x3fa0b3b923846ce1	0.032621179185491796
135	0x3fa6eb38ecb731f1	0.04476335420222089
136	0x3fcd728e75258df7	0.23005848617604815
137	0xbfb0b86029dda71d	-0.06531334898104686
138	0xbfc8636b0017dd0f	-0.1905339956717644
139	0x3fb96194c72a0cbb	0.09914522039803135
140	0x3fbec86afc10ebd2	0.12024563459355811
141	0x3fbef5de1e4a2d26	0.12093914260383495
142	0x3fb0f73c037153d6	0.0662724979786867
143	0xbfc6ffc8e23327fb	-0.17968092961228863
144	0x3fba6b83d3761fef	0.10320304787285271
145	0x3fbbcffbd508e5fc	0.10864232970279625
146	0x3fcb49385aa5ab8e	0.21317200113420792
147	0x3fc83aa4cf298e95	0.18928966632221447
148	0xbf97e5c155a6bb20	-0.023337384083499946
149	0xbfbc8e6f874db91e	-0.11154839566527072
150	0xbfd7e3cbe19f3ce1	-0.3732785895671907
151	0xbfa5c9343a54a360	-0.042550689812123066
152	0x3fc8c2df48a1242f	0.1934470276485469
153	0x3fb74d1263938a72	0.09101977282583976
154	0xbfc089e03937a403	-0.12920763772788754
155	0x3fc296f55fe2c718	0.1452318876450185
156	0x3fc226018d057293	0.1417848528461901
157	0x3fd10446369a6bdf	0.2658858807787378
158	0x3fb2daae9449dca3	0.07364932174992815
159	0x3fc906501284a9b1	0.19550515083512957
160	0x3fcc37317a5a4366	0.22043436502692798
161	0x3fcadf6c4ff115a1	0.2099433317509183
162	0x3fd478642f914555	0.31984810490856336
163	0xbfb9ba395d3a12f9	-0.10049780393644515
164	0x3fc4039deff7463e	0.15636038033567162
165	0xbfb7ac5c18811d8f	-0.09247375105143461
166	0x3fcccc1ad127e87a	0.2249787827748298
167	0xbfc2524fa0b46a0e	-0.14313693377410214
168	0x3fbbbeb8559564f0	0.1083789071029917
169	0xbf911c112a3221e6	-0.016708629799298345
170	0xbfb3b8ae6e412078	-0.07703676406629423
171	0xbfabad2c64b63c08	-0.054055583280494146
172	0x3fc9bd746d124ba2	0.20109420133357242
173	0x3fd5e567813b9113	0.34212672825221196
174	0x3fd289760379559e	0.28963995303396384
175	0x3fc0035749dbd167	0.12510195833568646
176	0x3fb9e6f83a860d17	0.10118056706237542
177	0x3fc208a83819dfae	0.1408891939097407
178	0x3fc9efa7eb18fb5d	0.2026262185990743
179	0x3fcf77896c7b4157	0.24583547398516245
180	0x3fb01d81ceb822ee	0.06295024201257224
181	0x3fc7f02a87497627	0.18701678853806067
182	0x3fc2a99fdbf02827	0.14580152739682825
183	0xbf8ee052cee39564	-0.015076300562621277
184	0x3fd30745e56a6461	0.2973189106356298
185	0x3fc40390233b4f69	0.1563587352781
186	0x3fd0b0773fd188a3	0.2607706187465146
187	0x3f818705df38bdf9	0.008558317064937692
188	0x3fd57c4352daf93b	0.3357094105848721
189	0x3fbafc9238c7b87d	0.10541643034204813
190	0x3fcc1104740bed3e	0.21926932970368712
191	0x3fcdbcd144cc9775	0.23232475146613366
192	0x3fd0da8ab6f1d680	0.2633387362069257
193	0xbfc06caab45f8610	-0.1283162480095119
194	0xbf9febe2518b6734	-0.031173263766368822
195	0x3fa1c61b0e3f8813	0.03471455143859727
196	0x3fbed087b5981294	0.12036941703270038
197	0xbfbb847a92429251	-0.10749021597673304
198	0xbf9356641f7beb13	-0.018884243413576373
199	0x3fcfc96aff928de6	0.24833428839802635
200	0x3fcfd2ee5020595c	0.24862460052890867
201	0xbfb7406e8a49dce4	-0.09082690120873199
202	0x3fc3d7e9ca4ae4c4	0.15502664926115106
203	0x3fb412a1fccb22ce	0.07840931340900711
204	0x3fcad071753c9bbb	0.20948618149233575
205	0x3fd16cc4ad18d00f	0.2722636881255775
206	0xbfb79f66e27e40e4	-0.09227602986925693
207	0x3f6ce3c5bcd86603	0.003526579100036954
208	0x3fa1826023f7aabe	0.03419781149917388
209	0x3fd267847487564a	0.28756820087196344
210	0xbfab5594f9bee6e3	-0.0533873133530969
211	0x3fc4e7d30cee12eb	0.16332471972795956
212	0x3fd3b46db528d3a1	0.30788748446803466
213	0x3fbc3743f9e0947a	0.11021828508872203
214	0x3fc81809936782da	0.18823356339910086
215	0xbfc4b9b962dd26d0	-0.1619178517087705
216	0xbfa2eaf31f467060	-0.03694877392555962
217	0xbf6ecff0ca57c439	-0.003761263173821774
218	0x3fa8aeeb7724c160	0.04820953206433631
219	0xbfce4435162798c9	-0.2364565237214207
220	0x3fc0c7171f155627	0.1310757543348455
221	0x3fc3538113a99e2a	0.15098584613882454
222	0xbfc08ae7a32e77f7	-0.12923903911445198
223	0x3fd90daf5ef7cbc3	0.3914602687283912
224	0x3f90d8da9dc42106	0.016452232245712593
225	0x3fbafacde7263ff1	0.1053894700364706
226	0xbfc749428c95e3df	-0.18192321648146412
227	0x3fc9fab8460bde3a	0.20296386165840535
228	0xbfe0632b4d301462	-0.5121056087088045
229	0xbfc3af23ca611043	-0.15378234273714683
230	0xbfbe3c109bd1f695	-0.1181040172977766
231	0xbfc01912457c4248	-0.12576511757699138
232	0xbfb00d494562710b	-0.0627027315517276
233	0x3fbe647e0b022431	0.11872089165457635
234	0xbfd9109619e56848	-0.3916373494045087
235	0xbfb0da9b63822e1e	-0.06583567790419706
236	0x3fe14e12ccd28f4b	0.5407804489554818
237	0x3fc3ee882d85b54f	0.1557169172551007
238	0x3fb08475614dd12f	0.06452115655503542
239	0x3f8d9e99d2376a94	0.014462663390920207
240	0x3f97bc0bb7e69c1b	0.023178275203147174
241	0xbfd27e77925b6ecc	-0.28896893780413957
242	0x3fc32e35ca810907	0.14984772098439
243	0x3fd274da62bf45c0	0.2883821453407016
244	0x3f974122f5dd560c	0.022709413772949147
245	0x3fc130088b943ec8	0.13427836242089186
246	0xbfbf081157d8d359	-0.12121685404492889
247	0xbfc05e26321c0cc8	-0.12787320563083981
248	0x3fb24751010e85cf	0.07140070224570326
249	0x3fbc97cf20a0cb8d	0.11169142290672891
250	0x3faf68cd2b9deba5	0.06134644658501224
251	0x3fc4f40cd7325ffc	0.16369781978278286
252	0x3fdb0c8749bb92f9	0.4226396770521173
253	0x3fc4cfdeccad57e3	0.16259369844436752
254	0x3fc18a9539fbac01	0.13704171496587494
255	0xbfdb314a52452f72	-0.4248834422512494

module.feat_mlp.2.bias f8 [32]
0	0xbfab17bd2cf9e355	-0.0529154889490601
1	0x3fa6aca6180b8b8f	0.04428595584410921
2	0x3fc597ec54da3bcd	0.16869882720172172
3	0xbfbc8f7d123be9d6	-0.11156446166197695
4	0x3fbae82b964d1375	0.10510513705692211
5	0xbfb900d382be2a64	-0.09766885702098588
6	0x3fb2bf90b9027fc4	0.07323555485572714
7	0xbfb6ea90e4886737	-0.08951669291891738
8	0x3fc12cbefd6ba282	0.1341780412106069
9	0xbf90eafd79c7f2fd	-0.016521416242528442
10	0x3fc5b9f7c1a673e8	0.1697377868230483
11	0xbfafeaf457f5f999	-0.06233943532696457
12	0xbf9f88669436256c	-0.030793764873612003
13	0xbfaecb39d0adef85	-0.06014424011570355
14	0x3fb32de7ecdeec58	0.074919219331535
15	0xbfaa1722041f1178	-0.05095773983296942
16	0xbfc3d84d4d272af0	-0.1550385119174602
17	0xbfc1f1a4c834842d	-0.1401868798793954
18	0x3f908561ef539e50	0.01613381407960751
19	0x3fb84ebf4daf2921	0.09495158812129435
20	0xbfcec491981cfeb3	-0.24037380149274198
21	0xbfc5178d619c6985	-0.16478125826035864
22	0xbfbc04cc8f13c880	-0.10944822781655894
23	0xbf95ea5ac7d61dc3	-0.02140180439667262
24	0x3fab5d6a5833441a	0.053447078005440754
25	0xbfc5463c557913ae	-0.16620592282757002
26	0x3fb9139291e46361	0.0979549032384859
27	0xbfbaaa681ca4882f	-0.10416269969258062
28	0xbfbfee13c0b074f8	-0.12472651914909594
29	0xbfb35843b3c724c1	-0.07556555880650519
30	0x3fa23b8f959c5a56	0.0356106634264292
31	0xbfaa959439a323cb	-0.05192244723873037

module.feat_mlp.4.weight f8 [32, 32]
0	0x3fc7d50600a83d4b	0.18618845970238804
1	0xbfb8f6d81583221b	-0.09751654172135497
2	0xbf9f3207d61b8444	-0.030464289134105607
3	0x3fbaa51531f1ff26	0.10408146352164901
4	0xbfc1f25d15e83878	-0.14020885057147203
5	0x3fc5ce0252767e27	0.17034939791209178
6	0xbfc44332b0a25afe	-0.15830072045056193
7	0x3fc428b0264d75f6	0.1574917017959902
8	0x3fd298697d37f1fc	0.29055249431965513
9	0xbfa799e153268ef3	-0.04609588756582452
10	0x3faf8f73bd65ee84	0.06164132773389233
11	0x3fae44860a3d2d94	0.05911654353129872
12	0x3f958ef7027c828b	0.021053180243259233
13	0xbfc0c934a1385a78	-0.13114030716015512
14	0xbf836181882fb0c3	-0.009463321655822537
15	0xbfb840df55fd4b90	-0.09473987435676023
16	0xbfc0bf1870416f9f	-0.13083177071791582
17	0xbfbc6a4d04d3e100	-0.11099702232229802
18	0xbfaeb3a2cc68b91b	-0.05996426339366875
19	0xbf70f64841f997b8	-0.004141123062799616
20	0xbfb35504879ecade	-0.07551601706544939
21	0x3fc0fee052f0fc89	0.13277820634718676
22	0x3fb7e35585cbb82a	0.09331259266375072
23	0x3fc423b4f96dfdcb	0.15733968905622783
24	0xbfc1f18cac1173ad	-0.14018400575414827
25	0x3fa9eab6933ca83d	0.05061884448362306
26	0x3fbe7ec62960bcff	0.11912191877557986
27	0xbfb8f9c456f1c6ad	-0.09756114123026789
28	0x3fc2a9148eb0bff1	0.14578492133432477
29	0xbfc0fe4c6ff5427f	-0.13276057688428364
30	0xbfc06cfac2194857	-0.12832579114416617
31	0x3f743206820c7751	0.0049305204600196975
32	0x3f71f8884c54f3ff	0.004387409605723923
33	0x3fb4a9e04e0fd973	0.08071710496719735
34	0x3f9696a6dfe7a96b	0.022059066215584105
35	0x3fbc6620ecba38e8	0.1109333589504079
36	0x3fb3bcf07eb64c74	0.07710173696095685
37	0x3fcd8db9e88dc49c	0.23088764052548505
38	0x3fb46b505c91594c	0.07976248035388273
39	0xbf974c50dbf86f87	-0.022752059389048476
40	0x3fba75a01d4ee2f6	0.10335732188731214
41	0xbfbc7475303acb41	-0.11115200450403241
42	0xbfc5ecc2dd3f0dd0	-0.17128787806551182
43	0x3fb4209e71b93dd0	0.07862272526221337
44	0xbfb5fe03115af383	-0.08590716527664992
45	0x3fb0e0b67a0df4ed	0.06592884521338123
46	0x3fad891b65362655	0.05768666849605767
47	0xbfa09f1beaf83b15	-0.03246390574724082
48	0x3fb0a1bbc7c64933	0.06496785762127359
49	0x3fb719c03222738f	0.09023667549122492
50	0x3fd069ce72fa04f0	0.2564579127138833
51	0xbfb7de051e1c7bab	-0.0932315062059234
52	0x3fac453bd60d8698	0.0552157114787068
53	0xbf5d9b30819084a9	-0.001807019585847317
54	0x3fce8196ef596967	0.23832976042724427
55	0x3fcd7a229faf567b	0.23028977200617703
56	0x3fbbe7fc2370286e	0.10900855889500047
57	0xbfa813e389f1cb42	-0.04702673968213002
58	0x3fc3b947754713d0	0.15409177042434274
59	0x3fb82191d42857c9	0.09426223210934305
60	0x3f773a6d942e2477	0.005670955698300443
61	0xbfb64f597ba13f84	-0.08714827793414598
62	0xbfb2f49b1baa0b86	-0.0740448896922726
63	0xbfc6206e1480f04c	-0.1728646850696144
64	0xbfae2e880a2a877e	-0.058948756447775516
65	0x3fd855ebd0a46295	0.38024421096046385
66	0xbf964a6f20d255b7	-0.021768318537018518
67	0xbfae0f08cfd96e2a	-0.058708453533395336
68	0x3fb0f0ad5d9318b6	0.06617244276557951
69	0x3fcb5023377d4081	0.21338310441433708
70	0x3fc37e646f22285b	0.15229468752324035
71	0x3fcd32064f5ad28f	0.22808913111443416
72	0xbf85948a53d829d8	-0.010537224467971493
73	0x3fc1de855afa1da0	0.13960329954373396
74	0xbfcf1448d6384995	-0.24280653438524938
75	0xbfb2d8b899133918	-0.07361940133271039
76	0x3faff9203c027d29	0.06244755489864879
77	0x3facb597eda5f05c	0.05607294822672834
78	0x3fc26f39efe4dcfd	0.14401935781072686
79	0x3fd0909571ebe3dd	0.2588246929659002
80	0x3fbea35dcd5d7fe8	0.11968027366447098
81	0x3fd3cbc5c6eaef25	0.30931229043538827
82	0x3fa17a8a564ed8e1	0.03413803390087523
83	0xbfb8989123812b9f	-0.09607798687754475
84	0x3fab0bc73e13b390	0.05282423622870802
85	0xbfc919df7e3d5403	-0.19610208190957232
86	0x3fb50ef4158366d9	0.0822594215891529
87	0xbf31f5f53b13cb42	-0.00027405964927067563
88	0x3fbabc3772caabb1	0.10443445732623392
89	0x3fc4987ea6ea0e9c	0.16090376997100442
90	0x3fca83107e8b5c02	0.2071247690098233
91	0x3fab00b434f523bb	0.05273974558310309
92	0x3fb07b2a693b6cad	0.06437935895103193
93	0xbfbd46874dbc75de	-0.11435742996078299
94	0xbfba93623b824e3f	-0.10381139710289576
95	0x3fc5b3f6ed108142	0.16955458236135185
96	0x3fcfa5e81ff84e43	0.24725057183296614
97	0x3fb340dc5ee37134	0.07520844761478856
98	0xbf915fa23d80ea6b	-0.01696637630832713
99	0x3fc17f97394bc465	0.13670625970511022
100	0x3f76a3dc18ca2701	0.005527362588176877
101	0xbfb804b7064dae95	-0.09382194427387909
102	0xbfb171ffb187113f	-0.0681457336823472
103	0xbfa3a12ed2544e9d	-0.03833910291191709
104	0x3fbd6dafe2d22a7e	0.11495494163151851
105	0xbf574e7412f57264	-0.0014225133453102052
106	0xbf94c3a7343e7915	-0.020277607501719325
107	0xbfc32bbce6581ace	-0.14977227446816815
108	0x3fa94e0908175cfa	0.04942348693628591
109	0xbfb62bbbbae2c5c1	-0.08660481751100858
110	0xbf87393e80f3cd73	-0.01133965331107476
111	0x3f9b79b329847c2c	0.026831435593632033
112	0x3f8ce6cfbe7d32af	0.014112112999691588
113	0xbf79f4b293c18466	-0.006336877410007968
114	0xbfa5fe5f6df484d7	-0.042956335232028735
115	0x3fb1b5b01e0f317c	0.0691785882365305
116	0xbfc31671b055d883	-0.1491224394810083
117	0xbf6dc7c3b104b280	-0.003635294160764524
118	0x3fb599f52610aaf2	0.08438045672725616
119	0x3fb14a558c5f71d2	0.06754049946852739
120	0xbfc1ba85a98bc826	-0.13850470331777948
121	0xbfc5dcd4a46e8666	-0.17080171612637968
122	0xbfb7d839d66a8e93	-0.0931430958249229
123	0x3fc0a23077603a31	0.12994962529087808
124	0xbfb7aa884cce3366	-0.09244586825498188
125	0x3fbba24a23b83ac5	0.10794509288846672
126	0x3fa3be0e5498569a	0.038559387041613394
127	0xbf96a3e1c626d65a	-0.022109534949512934
128	0xbfa882911473c2cd	-0.04787114500675713
129	0xbfc8bdbc711e3bc4	-0.19329028628678036
130	0x3fc4bbcfd7daedac	0.16198156394771723
131	0xbf90f2f6be67ed7f	-0.016551833507020938
132	0xbfc4ad25c6872415	-0.1615340442060932
133	0xbfc1af5a59681fcf	-0.13816384664119005
134	0xbfacd6cc7e219166	-0.05632628478705008
135	0x3facccf5c71c727a	0.056251221232945306
136	0xbfc6d70a363f0760	-0.17843749665012876
137	0xbfa0319d8951e1cf	-0.03162853528278086
138	0x3fb5f26b5488ae5b	0.08573027433220075
139	0xbf9ed22783a808e0	-0.03009855023447805
140	0xbfc0b1bb9b4fa462	-0.1304239757876387
141	0xbfb0ccc9a2341b21	-0.06562481126830423
142	0x3fa1422d374c3138	0.033708012581060876
143	0xbfc1cc3de3b9589f	-0.13904546374641755
144	0xbfb254abce469099	-0.07160447870279753
145	0xbfc7eea8a7a63d42	-0.18697078882221702
146	0xbfcccb1a441112c2	-0.22494819949692696
147	0xbfcdfc9cc38a24e9	-0.23427161739190375
148	0x3fb9cee0137cbcd4	0.10081291652453511
149	0xbfbcf030bfc3547e	-0.1130400150462538
150	0x3f820079ef050e5c	0.008789970976642518
151	0xbfc5e1b52ec330e3	-0.1709505537350032
152	0xbfb22c3349a04846	-0.07098694369804645
153	0xbfa6f87e1493ef28	-0.044864597331949974
154	0xbfba093c1a97532f	-0.10170341157147499
155	0x3fc3c957a903e88b	0.15458198311518276
156	0xbfa7234649cf56cd	-0.04519099856376627
157	0x3faebc54c2405574	0.06003060218078363
158	0x3fbbb3817c1cb01e	0.10820779113845488
159	0x3fa6fe47416033b9	0.04490873978657057
160	0xbfcaa4288f40015b	-0.20813471789007107
161	0xbf7f92d06247cc9e	-0.007708372115746402
162	0x3fb03ae3b39cf5ae	0.06339858183942823
163	0xbfa7f7d0466fd950	-0.0468125425322109
164	0xbfcc6960de5b39d9	-0.22196589333766673
165	0xbfcb3c04fa780dc9	-0.2127691481583567
166	0xbfb2a1f62f7a6356	-0.07278383883602876
167	0xbfa11ea4644c040e	-0.033436906092909266
168	0x3fb84af4bf0b56c2	0.0948937384049158
169	0xbfb1912fddce2847	-0.0686216274754382
170	0x3fceb9cbb44009c3	0.2400450353744202
171	0xbfb1596f004bc900	-0.06777089841105877
172	0x3fb52ee92e81b0ed	0.08274705300727066
173	0xbfccc0218f5ce11d	-0.2246133756650658
174	0x3fbc02257e8840b5	0.10940775241056395
175	0xbfb0d068c41b0531	-0.0656800726674376
176	0xbfc255b358df714b	-0.1432403739880875
177	0xbfc8f369327b0f55	-0.19492831196668683
178	0x3fab34bce281a326	0.05313673272104884
179	0x3fc4e826a1849d31	0.1633346832906937
180	0xbfd0a17924e23829	-0.25985554315491527
181	0x3fb3055c92e37711	0.07430056177278412
182	0x3f5bb129b0736a66	0.0016901881334009604
183	0xbfcb9305c24505bd	-0.21542427049466353
184	0xbfb52d31f5293e87	-0.08272087321642561
185	0xbfbd3e6fa2c8c74d	-0.11423394893861634
186	0xbf99b6e2e0d74d67	-0.02511171815224369
187	0xbf62046a9778997f	-0.0021993715161158773
188	0xbfc46c91756cf21c	-0.15956323846502662
189	0xbfc9203b8acf821b	-0.1962961604867964
190	0xbfc8ff937dd24950	-0.19529956477760857
191	0x3fb1d23e84216986	0.06961432195513426
192	0x3faa7747d0abcb9f	0.05169128820661872
193	0xbfc11c3574a10e2e	-0.13367336458951357
194	0x3fb86f52f5a8f007	0.09544867036396464
195	0xbfc63cb0221f94f0	-0.17372705141239164
196	0x3fc1442cfc1f48ea	0.1348930579247914
197	0xbfd119f982515f23	-0.26721036650040925
198	0xbfa6b68d4b33a349	-0.04436151068677547
199	0xbfcb133f28812378	-0.21152486303096985
200	0xbf82053b5e87a8c1	-0.008799041578602009
201	0xbfc28c08df055d08	-0.14489851846403945
202	0xbfa169059b101d7e	-0.03400437848909642
203	0x3fc70c6d7c8e85ff	0.18006676275130926
204	0xbfb10e75ecd6c49b	-0.06662690193367597
205	0xbfc5dd0779b9de6b	-0.17080777591376103
206	0xbfb758e389a5a049	-0.09120008574029827
207	0xbfb3ec308ecc4c23	-0.07782271848945803
208	0xbfb8802b8b2ed279	-0.09570572040576932
209	0xbf9bff5482115652	-0.027341194571212597
210	0xbfc473b94c5d9eed	-0.15978161076349498
211	0xbfcd4c6720d70385	-0.22889412978659265
212	0xbfc5b1661f83eb71	-0.1694762853511196
213	0x3fc7bd5d14c60c5c	0.1854664184030267
214	0xbfb80f58e9cdde2b	-0.09398418148145342
215	0x3f8cb1f6eeb18ddb	0.014011315497731871
216	0xbf87cd55c4604010	-0.011622114234370456
217	0xbfc3d007aa8d26d1	-0.154786070134199
218	0x3fbd5500b3d509ab	0.11457828894075443
219	0x3fc5b7f85014839f	0.1696768179909016
220	0x3f972eaf6d82cdcd	0.02263902765180408
221	0x3fa33625d4a61ed7	0.037522489746206915
222	0xbf9dff7c8d6995ba	-0.02929491627800982
223	0x3fb369387eefbc9a	0.0758242902663703
224	0xbfc4bf5441ad78ae	-0.1620889015857236
225	0xbfad0c51e12a14a6	-0.05673461793507188
226	0xbfc4b1f35b3ad1c4	-0.16168062166765484
227	0xbfa8ee7770e16403	-0.04869435551581349
228	0x3fc7bffd48d8de57	0.18554655129422556
229	0x3f9f3ff7a26c14ea	0.030517453468765256
230	0x3fb669a2c5905174	0.08754937480290953
231	0xbfbb4c4f7fc9def5	-0.10663315648877954
232	0x3fb6e84c0ecfc10c	0.08948207246408318
233	0xbfaa46617196ebc3	-0.05131821166602137
234	0x3fb20cfb7028f1ac	0.07051059234885909
235	0x3fab09d551efe4a1	0.05280939698418164
236	0xbfb177c370fb98a2	-0.06823369511002622
237	0x3fa730f69b63735a	0.04529543539840715
238	0xbfcb619a4d6d564b	-0.21391609936351794
239	0xbfcfd2042f19ad4b	-0.24859669017619476
240	0x3fb4d4bbe38d159c	0.08137106233069463
241	0xbfbf07c68aa09168	-0.12121239551976759
242	0x3f9214663be434a1	0.017655942349894208
243	0x3f960cde9762b104	0.021533468236769174
244	0xbf9e94f6a2e5d28d	-0.029865125362862833
245	0x3fb17e0ca9d73d17	0.06832961222174948
246	0x3f9853f18dcaa017	0.023757719306246452
247	0x3fca831edd64fab4	0.2071264821078863
248	0x3fba4f08d7701497	0.10276847133362065
249	0xbfb5d025dc817275	-0.08520733483732974
250	0x3fc13acc890a68d3	0.13460690204084944
251	0xbfc3102b905a6fe4	-0.14893097446918013
252	0x3fbdda6e800b36c3	0.11661425233907168
253	0x3fae199296f2fd96	0.058788853575147446
254	0xbfae7c4b804e9962	-0.05954204503295803
255	0xbfa570c03b5b0b8d	-0.04187584614330495

module.feat_mlp.4.bias f8 [32]
0	0xbf9f194612b0ae19	-0.030369849100834487
1	0xbfba144a52bdfa1d	-0.10187210578985924
2	0xbfb44f288bced26d	-0.07933286107329147
3	0x3f72a70174e2ddb0	0.004553800287048146
4	0x3fc7d9f5b688c087	0.18633910572816978
5	0xbfb392fbd76a0187	-0.07646154412396387
6	0x3fd0cd869fda4450	0.26254430399518913
7	0x3fb0d07a6ddb332c	0.0656811254695639
8	0x3fc5bac0a66b32ea	0.16976173520961108
9	0xbfb8db077c6e97f2	-0.09709212100878498
10	0x3fa2f6e456f16888	0.03703988610568937
11	0x3fc39c3b560ffe7e	0.15320531561154732
12	0x3faf2395d4cf5b55	0.060818369128972684
13	0xbfa5f8067615201e	-0.04290790740429905
14	0x3f8a895c4b027aa6	0.012957306899179354
15	0xbfb0d541561a768a	-0.06575401641972625
16	0xbfb6bde7db4e1303	-0.0888352308666747
17	0x3fc0a2334b6aed33	0.12994996244911192
18	0x3f6849025727fcac	0.002964500971983938
19	0x3fb15c44356137e2	0.06781412413803836
20	0x3f9b6951954bfd60	0.02676894639716687
21	0x3fc1b05849f03417	0.13819411859768202
22	0x3fa17b341c103cf6	0.03414309351512117
23	0xbfbb99167d0aae2b	-0.10780468514229173
24	0xbfae6e51c29bd7a2	-0.05943542004199222
25	0x3fc70d85b157636a	0.18010016593214156
26	0xbfbf7c4e10f42770	-0.1229904929533896
27	0x3f9a3eb1c6f1c982	0.025629785316092953
28	0xbfc054289235d42b	-0.12756831301854396
29	0xbfbad61fe4b1c33b	-0.10482978185042395
30	0xbfbb0f484eafccdd	-0.10570194169104093
31	0x3fb711f9fd41a1f3	0.09011804993645693

module.transformer.to_qkv.weight f8 [96, 32]
0	0x3fc17034e29eda3d	0.13623677316145857
1	0xbfd121a95781510a	-0.26767953439163306
2	0xbfb5882ccc0bd87c	-0.08410911542509497
3	0xbf94f11ea3127c32	-0.020451048567903203
4	0xbf72adf8f9ffff17	-0.004560444416710905
5	0x3faba1a9630dba4a	0.05396775564337426
6	0x3fc43b21b6bf105c	0.15805455611382768
7	0xbfb2f01ff9d9bf0f	-0.07397651529185743
8	0x3fbf19cd5d58d74e	0.12148746041279176
9	0xbfc8066e9844eb3c	-0.18769628939647898
10	0x3fadf9167ab86a34	0.05854101417590521
11	0x3fc070eeaa37fcd5	0.12844641982517283
12	0x3fae1ad96551592a	0.05879859315671106
13	0x3fcef19a3619a36d	0.24174811975106128
14	0x3fd2ef8e5179faac	0.29587133366286866
15	0xbfa680dedc9c88cc	-0.04395195429812446
16	0x3fc70a8b4d32c35c	0.18000928182075426
17	0x3fbf7b850714304a	0.12297851012061858
18	0x3f90fe7ba371d34e	0.016595775462025224
19	0x3fb1ab6ff0fec9c3	0.0690221751563405
20	0x3fca82efe98e44b8	0.20712088493431735
21	0x3fa467e530ebf8e9	0.03985515806378876
22	0x3fc15407531b3286	0.1353768497268854
23	0x3fb556c2237ce9ec	0.08335507742314235
24	0xbfa4766acadc0932	-0.039965951216816356
25	0xbf941ca2636f6d70	-0.019640481299445012
26	0xbfc3d3a406fdb8ba	-0.15489626256334593
27	0x3fa2d0d13b9e99bf	0.036749399688506205
28	0xbfb9cab6e214a910	-0.10074942607449011
29	0x3fa63b6dabebe512	0.04342215274477658
30	0xbf9ff4e62f12ca8a	-0.031207653639919765
31	0x3fbd16c8aeb3bdb2	0.11362890496433556
32	0xbfa137a022e20e0d	-0.033627514131719584
33	0xbfc72052c568c8ed	-0.18067392958761933
34	0xbfc0a2373bfa77a2	-0.12995043209678864
35	0xbfcb4823d6c32ed7	-0.2131390379566855
36	0x3fc0f1f2f58848c1	0.13238369931111119
37	0x3fbfcf9e207391f7	0.12426174442550307
38	0x3fc22e99d081e5d7	0.14204714470888177
39	0x3fa82fc89071abd7	0.04723955882294433
40	0xbfcb40091a5e0fe3	-0.2128917101618973
41	0xbfb43d525973889d	-0.0790606945406886
42	0x3fb950f41f025c19	0.09889150387822133
43	0x3fcdfa33e1f6dad6	0.23419807942783305
44	0xbfc1e70fc05392ee	-0.13986393824520554
45	0x3fab0909c537e09f	0.05280333073091125
46	0xbfc5577011157129	-0.1667308886925494
47	0x3fc669d36ea22821	0.17510455038092324
48	0x3fb5652c04403a08	0.08357501128941902
49	0x3faca11029822126	0.05591631418889369
50	0x3fd4b0fe6d0f344b	0.32330284738856524
51	0x3fb9f981a12fa82e	0.1014634150048159
52	0x3fd47fe678efb1d3	0.3203064137476563
53	0x3fc0a5af2070885d	0.1300562771221533
54	0x3fca1ed9a880c562	0.20406647422491192
55	0x3f9ac439577ad27e	0.026139160122243592
56	0x3fcc3b0992a714aa	0.22055167828344696
57	0xbfc9a5f88ff50c07	-0.20037753132973554
58	0xbfd006411622823c	-0.25038172875978026
59	0x3f8dcd742eccd42c	0.014552028349138345
60	0x3fc85723d6ae95d8	0.19015930159109362
61	0xbfc762f9fc745003	-0.18270802332756383
62	0xbfb7114494c33516	-0.09010723716638255
63	0x3fae3aa6c4c15532	0.05904122497364951
64	0x3fbccad319c95c0b	0.11246985797457414
65	0xbf70a653bc4d5ce0	-0.004064871875775838
66	0xbfbec9a941eec2f7	-0.12026460513767377
67	0x3fb8dac7b06f0bd3	0.0970883184191245
68	0x3fcf2b890af4c602	0.24351609263389667
69	0xbfcbd5a757211d61	-0.21745769266474738
70	0x3fc52caabbacc874	0.16542562640967484
71	0xbfac20fa92ddcece	-0.054939108303100434
72	0x3f63dc3b29bef5a5	0.002424350312110151
73	0xbfc8b036a3c73ddb	-0.19287760731684397
74	0x3fc23cb92aae9fb3	0.14247812828147985
75	0xbfa926bd2bf6dfc6	-0.04912367974924296
76	0x3fb909d8f75e2dca	0.09780651129965814
77	0x3fc99a47c5d73e7a	0.20002076301760835
78	0x3fa559bb8e15d69a	0.04170023068847435
79	0xbf330e39b10d6bd6	-0.00029076488958928776
80	0xbfcce96331d3c6d7	-0.2258724206254132
81	0x3fbaf3145257f999	0.10527159700720858
82	0xbfada80c7e918d86	-0.057922735643638965
83	0xbfc1ac2c32c95ad5	-0.13806679229556687
84	0xbfc020470f7dcd45	-0.12598503357330962
85	0x3fcc44cd3515b8c0	0.22084965793641764
86	0x3fbcae8179a51235	0.11203774661869022
87	0xbfb7c112cf0b1a94	-0.09278981737871056
88	0xbfcf6aeca2c3fa11	-0.2454505724671923
89	0x3fd428c6b492d174	0.31498878130084695
90	0xbfb5d3ced1073a76	-0.08526318171718991
91	0x3fb0209c89292706	0.06299761150981106
92	0xbfae0d81120668e1	-0.05869677872688484
93	0xbfb7c579f429541c	-0.09285700045559547
94	0xbfc95f8412493fb0	-0.19822741406323763
95	0x3fa321a67c62e463	0.03736610668551845
96	0x3fb79a779eaea823	0.09220073341444439
97	0xbf70e8762090e128	-0.004127942499558203
98	0xbfc5eb5d0c0014ea	-0.17124522291138727
99	0xbfbade1cfde8e6e1	-0.10495167921990457
100	0x3f93e6bfae68f1f9	0.01943492414487655
101	0x3fd04dab6396ba43	0.254740569357555
102	0x3fb6fee3d1220061	0.0898268113687677
103	0xbfa64212d3b69b91	-0.04347285112753874
104	0x3fa37a50f087914a	0.03804257331992973
105	0x3f989f7595c5a773	0.02404578901897687
106	0xbfc0494eac0e55a2	-0.1272371616475257
107	0x3fc8c36befddf862	0.19346379482516612
108	0x3fc08892dfcfd486	0.12916789940178236
109	0x3fd76e673880bafd	0.3661134769235302
110	0x3fe24ab805a9522a	0.5716209517073072
111	0x3fbd600b74a9ca60	0.11474677656387078
112	0xbfc3060c003bcd2f	-0.1486220360890029
113	0xbfc40d218f092c70	-0.1566507290284309
114	0xbfd22f70675e53b4	-0.28414545149399406
115	0xbfd4e8a672ee8cab	-0.32669984077274233
116	0xbfc17a2cb55af188	-0.13654097419010847
117	0xbfba41657e765bd5	-0.10256037080249254
118	0x3fb267cc7e0a5d0d	0.07189634396705831
119	0x3fc58e122e9f5600	0.1683981635712115
120	0xbfc10c0d5b8b84e8	-0.1331803032872252
121	0xbfb9b857cc391330	-0.10046910034095613
122	0xbfcb066134e7fe9c	-0.21113219340621903
123	0x3fb33003a2eee402	0.07495138862476838
124	0xbfbc74f0977701b7	-0.11115935991165925
125	0xbfb22ec0d14d56c4	-0.07102589712061574
126	0xbfc8e6a9b373c2ca	-0.19453927290262235
127	0xbfc665eedb48449f	-0.17498574931281483
128	0x3fd677dd6118310a	0.35106596452602956
129	0x3fa1d3c4d386dcb8	0.034818793126242864
130	0xbfba2647a752548a	-0.10214660487175045
131	0x3fb50468edd4d9df	0.0820985394137561
132	0xbf932be2c821a129	-0.018722098794030338
133	0x3fb5bc510584c100	0.084904731604869
134	0xbfc0eb4ae8d0f2c3	-0.13218056076029513
135	0xbfd3f5addd6212fa	-0.31187006587451516
136	0xbfd9fb6d83b3a6d5	-0.4059709345006984
137	0xbfafe458c0b5fe4d	-0.06228902199199791
138	0xbfd0551700c778f0	-0.25519347263424574
139	0x3fbf45f41149e8d5	0.12216115400397894
140	0x3fa84b7697173df9	0.04745073885316837
141	0x3fc1073e116318de	0.13303352211932568
142	0x3fd489f827419b18	0.32092098077412023
143	0xbfc317b8bcb18112	-0.14916142667335258
144	0x3fc7b8135b5457ba	0.18530504188009705
145	0xbfa1abd2ca4b75f2	-0.03451403350275574
146	0xbfb23b5eff529a96	-0.07121843083823828
147	0x3fbd21a9b9b5213a	0.1137949064624352
148	0xbfc33db51f174348	-0.15032066362484842
149	0xbfc627181e999ab0	-0.17306806081906734
150	0xbfb54befafd31014	-0.08318994562711196
151	0x3fc95faeeb441f6e	0.19823252189257395
152	0x3fc59037f2e7fb4b	0.16846370087292892
153	0xbfc0f1d96c22fa04	-0.13238065509899866
154	0x3fbdfb7b5f9516c0	0.11711855968050155
155	0xbfd41480866b3217	-0.31375134589032555
156	0xbfc405e44c12025c	-0.156429803031659
157	0x3fbff524a8a6a279	0.12483433835462589
158	0x3f9b03b200427dd9	0.026381284013607818
159	0xbf809b03cd37b620	-0.008108167362446628
160	0x3fd523005a45600d	0.3302613145401672
161	0xbfd7023aaf9ec14c	-0.359511062149086
162	0xbfc5bc335ae21f78	-0.16980592668209815
163	0x3fcc7b77bb4c38f7	0.22251793523214022
164	0x3fc3536bd4f1feb1	0.15098331353873598
165	0x3fd8015a26463ae0	0.37508252847412216
166	0xbf518b728f2b95c0	-0.0010708445303689723
167	0x3fa1f395279b0ca3	0.035061513027835355
168	0xbf913ccd1167e775	-0.016833500087137538
169	0xbfdaf11dbf8fcc48	-0.4209665652007897
170	0xbfa712d226a69960	-0.045065467088806654
171	0x3fba31f043ffae79	0.10232450161100272
172	0x3fcc0aca38137085	0.21907928217013165
173	0x3fcb5364a4c67023	0.21348245664273788
174	0x3fd1d5181451f4f9	0.2786312292517575
175	0xbfbb97aee4980fbc	-0.10778325158031427
176	0x3fc82e400ef0f8ca	0.18891144494586448
177	0x3fbb95b4bc8f3964	0.10775308230879471
178	0x3f9a66fe3dbcc6eb	0.02578351260962723
179	0xbfa3207dbaadae17	-0.03735726264752886
180	0x3fa90aae5b08729c	0.04890961514704381
181	0xbfbbd813a01dcb18	-0.1087658182057506
182	0x3fa5ef4c19fcb47f	0.04284131829477022
183	0xbfbc50557ca1ba36	-0.11060079853789592
184	0xbfb8f24ab4eea78a	-0.0974470798234092
185	0x3fb6439226de7836	0.08696855019522406
186	0xbfc553b713a33b5c	-0.1666172834288443
187	0xbfcbdd08185b3714	-0.2176828497817317
188	0xbfc77a4d4aefaf79	-0.18341985854146595
189	0xbfd505577d622f5d	-0.32845103497014866
190	0x3fb97674f772fe0a	0.09946375886192285
191	0x3fc250614f75cb16	0.1430780065525929
192	0xbf8e8804ad56075a	-0.01490787176112789
193	0x3fbe1ee8891096c2	0.11765912386234859
194	0x3fc8afc55c2f6046	0.1928641033289315
195	0x3fadd8c3c71fe4fa	0.058294408852768556
196	0xbfc096d601af5a9c	-0.12960314829134212
197	0xbfb94b64b2899d23	-0.09880666121317865
198	0xbfa81bf982f41d2a	-0.04708842967562028
199	0xbfc0876e2e64a2a1	-0.1291330076721993
200	0xbfc964d11622c082	-0.19838918286177792
201	0xbfaf7e1585a1bf17	-0.06150882011649921
202	0xbfa7fafab43dc650	-0.046836695196259215
203	0xbfc9bdbac516f4fc	-0.20110258697051353
204	0xbfce734abb6fa004	-0.2378934302535073
205	0x3fa0e2b0a141c4ee	0.032979507145577944
206	0xbfbe3ad5e63891df	-0.11808525915746014
207	0x3fb4ea73491995c6	0.08170242819468063
208	0xbfb952bfe84dda28	-0.09891890927779257
209	0xbfd4732c226324d1	-0.3195295654118811
210	0xbfbb202c8567ea68	-0.10595968491535646
211	0x3fb578aa032da778	0.08387243821712598
212	0x3f7928a033b459a9	0.0061422593965034045
213	0xbfd268063e24b4ce	-0.28759914463701086
214	0xbf6513ba607faedb	-0.0025728836226245172
215	0x3fcca54d074a1652	0.22379458290031323
216	0x3fd09d3ffe3a3441	0.2595977766694127
217	0x3fa7d1930b93117b	0.04652080074586969
218	0x3faf5c63adcd1093	0.06125174995989471
219	0xbf79caaf8758a21f	-0.006296811732263068
220	0x3facba2756891304	0.05610773974743746
221	0xbfba9c8ef6ce8c2a	-0.10395139241750032
222	0x3f958fd4db32a1ad	0.02105648601414749
223	0xbfcb9afe606d81fb	-0.2156675310934729
224	0x3f9cdc65404dcd9d	0.02818449215869877
225	0x3fcf7a266a83fea7	0.2459152240844464
226	0x3fc1f424fd48eff9	0.14026319854190186
227	0xbfcb48565cccc539	-0.213145060837215
228	0xbfb17727105b312f	-0.06822437428781279
229	0xbfad54fe3574a97b	-0.05728907015357528
230	0x3fc3c9d8a91e68df	0.15459736116174036
231	0x3fcbd2580325db6f	0.2173566832895761
232	0x3fcac0ff1befee12	0.20901478637812027
233	0x3fc9d445788cad05	0.20179050813872138
234	0xbfb6daeb78d149e6	-0.08927795123717139
235	0xbfc9627fe882b04d	-0.19831847050716292
236	0x3fbe2b61314f93e3	0.11784942106130773
237	0x3fab1b5bcb9ce2c3	0.05294310436733476
238	0x3fb497d9f89fd73a	0.08044206924372768
239	0xbfa31429bb23b677	-0.03726320657174836
240	0xbfb48c0aee41cfbb	-0.0802618819887461
241	0x3fb792b0468a6814	0.09208204004463055
242	0xbfa48d5d5789de23	-0.040141026435716286
243	0x3fcf9ad37366b34c	0.24691241392920416
244	0xbfc3d19c1635e208	-0.15483428081985573
245	0x3fc2b92510f06ac9	0.1462751705847352
246	0x3fc29d1a00a409f7	0.1454193595055384
247	0xbfd1a6053922f3b5	-0.2757580812429368
248	0x3f3544b8fea02093	0.00032453075857619937
249	0x3fd80a7a048db86e	0.3756394428700166
250	0xbfb1a05f8476217d	-0.06885334953233797
251	0x3fb87793f493b896	0.09557461472624804
252	0xbf933430fcd6e7d5	-0.01875378173074423
253	0xbfb3286db10bf8b3	-0.07483563969069244
254	0xbfc37a320dc46956	-0.15216661140659465
255	0xbfa936de94b5b86a	-0.049246745732362054
