models/wo_raymarching.pt (torch, 326358 bytes, 41 tensors)

module.feat_mlp.0.weight f8 [32, 3]
00000000: 89ae d1a2 7b7c de3f 8ab3 61e2 b42d d53f
00000010: f3f1 b6de e312 e53f 270b de31 38d6 e0bf
00000020: 2745 f0e0 447a 943f 66cd 8c62 a7b3 c33f
00000030: ea84 3610 08a0 aa3f 4180 db95 bffd af3f
00000040: fcf6 aeea c185 da3f c4a4 8392 d13c d23f
00000050: a36d 85fb a12e c73f 1a33 73cc 6bbf c6bf
00000060: 90d0 da6d e31b e2bf ded7 f8ce 1d98 dd3f
00000070: bc9c 76a1 b284 ddbf fd7b 3883 a8b9 c0bf
00000080: 2c6b 50cd 612d a93f c786 a1e3 2e53 cdbf
00000090: 3c9f a4fc 3a1a dabf 2aa2 adae c9cb e4bf
000000a0: 58db ce5a 2b5c df3f b34d 26f5 de59 983f
000000b0: 5b5d 2904 b245 b33f c195 23dd a0ad d23f
000000c0: 5fae a4d9 8a2b e6bf b2ab 5935 926f e33f
000000d0: 791b c7ef e1ef dabf 3df9 a926 0d6f cebf
000000e0: 8e37 ae10 a849 e53f 7afa a9ca 28c1 e43f
000000f0: 9971 71af 35da a33f b6e1 ef79 4282 d13f
00000100: 1754 1af2 d853 d93f ac42 dd94 fb34 d53f
00000110: 63e9 1d7a 0d53 c23f bf86 951f 0837 db3f
00000120: ee04 149a a41b da3f d3f1 e3bd c951 e83f
00000130: b2cc c1ae 16ad e1bf d816 d50c 9c91 dfbf
00000140: 9296 52b2 04d4 b13f 2381 236b ce9a d53f
00000150: a49a b563 6016 c53f e1e1 c891 ea52 d1bf
00000160: 2927 294d 30a9 e33f 1213 e3c4 5f25 d5bf
00000170: b009 39f1 d1be c43f 9de8 784c 0cde df3f
00000180: dd8d 6056 192f da3f a5ac ae6d 716f bbbf
00000190: ed13 894b 09a7 c1bf 01f2 c1ce 0ec3 df3f
000001a0: 9ab1 6e70 01d9 d4bf a653 132a 2bf7 d83f
000001b0: fcf5 5b2c 36e0 d33f 2f4f 0b53 a3f9 e5bf
000001c0: e1a6 40e3 f4e5 d4bf 28d3 036a 273c e73f
000001d0: 690d 83a1 9a1a e03f df71 d405 0a73 b83f
000001e0: 7227 6446 6ea3 e4bf 8dc5 9c89 92f9 dbbf
000001f0: c2b6 1d47 2ee8 e2bf 6a1b 4d6b 71ff e23f
00000200: 7c30 84da f3ef db3f eb2a 6b50 e01e d43f
00000210: 0e7c 4483 9ece c6bf 8663 d778 e8f4 c63f
00000220: ce3c 364a 6f90 db3f b5bd 5e6a 867b e3bf
00000230: b405 65f4 35bb d7bf ed63 a384 beba d93f
00000240: 54b3 502c 9fa5 e33f 680a a0bb 9a9b ac3f
00000250: a847 fc19 dcc2 d7bf 4129 ee9e 2959 d43f
00000260: c76a 0083 042d b2bf d08c 64c9 7af7 e23f
00000270: 351a af36 a3e1 c3bf 472e ef14 3eaf e03f
00000280: 43e0 064d 0ad6 e23f 1dd9 704e da08 ccbf
00000290: cf5d f0aa c608 c63f 2c72 5fb4 d356 c7bf
000002a0: d3e8 b289 cf10 dd3f 5971 da69 ebae dfbf
000002b0: c1a8 981a 8dd9 c63f ea36 4ded ee47 74bf
000002c0: 7460 7b1a feb6 e0bf 9c0d 40a0 8198 b83f
000002d0: 0b90 22e1 8355 9b3f a194 bd5b 1573 e1bf
000002e0: a669 8d0a 37d9 e7bf 60b3 3361 9c48 e2bf
000002f0: c12b 3d9c 0e99 e2bf 7d45 8630 4452 e23f
0.47634783649730444 0.3309147082098255 0.6585559224982361 -0.5261498426410512 0.019997669438514578 0.1539201003266541 0.05200219343101671 0.06248282150568275
0.41441390913301723 0.2849620753100448 0.1811106184130554 -0.17771670802030642 -0.5659043450928198 0.4624094506465307 -0.4612242295065234 -0.13066584021814256
0.049174362480888995 -0.2291010486106215 -0.4078509776322681 -0.6498764430699044 0.4900005709454738 0.023780330384011793 0.07528221704102604 0.29184743495565263
-0.6928152323575424 0.6073695222852307 -0.4208912698344914 -0.23776401889694823 0.6652412725249961 0.6485790212899041 0.03877418295516861 0.2735754195014367
0.39574264185768143 0.3313588098290363 0.14315956557022522 0.4252338703573563 0.4079371933622288 0.7599838932797475 -0.552378979990314 -0.49326230290567485
0.06964139321879717 0.3375736280704748 0.1647453772413502 -0.2706858085325888 0.6144029147191975 -0.33040613391158147 0.16207336691338758 0.497927736930828
0.4091246932532309 -0.10716923644820271 -0.13791004360442063 0.4962803858868768 -0.325744972035659 0.3900859747785098 0.3105597909160165 -0.6867233869511206
-0.32653543655997735 0.726093012867385 0.5032475618867639 0.0955053581460059 -0.6449500441387797 -0.4371076911803236 -0.59084237947328 0.5936820121504358
0.43652054156769515 0.31438453534489835 -0.1781805172877004 0.17934900188882014 0.43069059607746574 -0.6088287427464169 -0.3708014380136675 0.4020229621215197
0.6139675012142143 0.0558746675524347 -0.37126829660075567 0.31794205208338516 -0.07099941442758527 0.5927099164440737 -0.15532341165654065 0.5213919075844807
0.5886279587202882 -0.21902016477697198 0.1721428236639739 -0.18233724887149216 0.4541510433879356 -0.49505124413714935 0.1785141353478306 -0.004951413448748923
-0.5223379628396416 0.09607706224783502 0.026693401924276865 -0.5452982703979111 -0.7452655035115654 -0.5713636301494311 -0.5811837245504351 0.5725422809356783

module.feat_mlp.0.bias f8 [32]
00000000: ff96 8bdf 424a c2bf 0753 496e df30 db3f
00000010: efa3 a092 096c ddbf 8cfb b30a a428 d83f
00000020: bd75 735e 9551 cdbf 1b36 75b5 210d ddbf
00000030: f054 d858 8940 803f 1f8e a16d 2746 d23f
00000040: fcec a3f2 5179 a3bf f61e e0f6 5c38 cdbf
00000050: 7d72 db15 4cc6 d43f cffa e5cd e86d e13f
00000060: 4ab1 6533 f688 ccbf b6cf 343c b515 c4bf
00000070: fdd2 6caa 70d8 b4bf eab6 0cb0 3997 e23f
00000080: 309c 8f51 fbae d53f c116 cd2f e72a bbbf
00000090: fa12 939b 21a8 c63f 19d8 6417 5c46 cabf
000000a0: 35f1 41e9 1334 d5bf cbd9 ab63 fc6b 883f
000000b0: 924f b81f 7016 e0bf 57cf 462c 25b8 c03f
000000c0: fc04 63ef 8021 bdbf 0d89 0c7c 4ac1 d93f
000000d0: 0632 b077 cd32 98bf eda4 0502 f845 d43f
000000e0: 3a79 2fa7 b617 c2bf 16b6 a56f 996a e1bf
000000f0: b872 c14a 5301 cabf 93d1 313c 8227 cfbf
-0.14289127269073984 0.4248579575553752 -0.45971907919971405 0.3774805168649713 -0.22905222999444944 -0.45392649384015876 0.007935593627772936 0.28553186136397984
-0.03803497397344732 -0.22828256658998897 0.3246031011056301 0.5446666737987814 -0.2229297400439328 -0.15691247405777425 -0.08142761383789927 0.5809601248235741
0.33880503621043356 -0.10612339894313562 0.177005959476581 -0.2052722086170327 -0.3313035753160592 0.011924716750837746 -0.5027390117197561 0.13061966573661252
-0.11379247517017527 0.4024225436607061 -0.023631296568099834 0.31677055547204597 -0.1413486782393621 -0.5442626171695248 -0.20316544675997306 -0.24339321078481344

module.feat_mlp.2.weight f8 [32, 32]
00000000: 71e5 5b0b 8757 b0bf fa9e 4c45 c3f5 ab3f
00000010: 0c1f 46e2 8a90 bc3f 72e0 60b3 0552 c9bf
00000020: 5863 4632 a00d a3bf 7e3a 4849 098d c43f
00000030: 3927 925f db7c b1bf 83c6 9744 76bd c4bf
00000040: 7562 b304 d339 76bf 0ed3 14d8 3bf4 83bf
00000050: 21b1 8175 97b5 c7bf 52f1 e497 61d2 a4bf
00000060: 2e60 13f5 a7eb c03f 02d2 0d20 b547 92bf
00000070: 82eb 7baf 4d40 c1bf 8bd6 ffc8 f96c ba3f
00000080: c5dd 33ef e884 b23f f36a 372e 3a1e a4bf
00000090: f7f4 4b72 b4b4 bc3f eb99 a284 9418 bfbf
000000a0: 7d40 30ab be6c c6bf bf3c a12a ec08 cabf
000000b0: 500b 24a4 5ec9 b73f 51ad cd15 9e48 c5bf
000000c0: f85b ded3 d867 c4bf aa8d 1cc3 7a31 5a3f
000000d0: f067 1587 1163 c1bf e773 252a 83a7 bf3f
000000e0: 395f 080c 74bb c1bf c997 9aa0 e267 b53f
000000f0: 133e ae12 50e0 ab3f 30f2 d61f dde8 bcbf
00000100: ba82 428d a559 cbbf 758f ab3a 9ff4 c83f
00000110: a01f 37d8 5174 c53f 4c89 0070 7a42 c6bf
00000120: d57e f886 1a2f c23f 79d1 5979 1853 b03f
00000130: b4fe 2a0f ecfd db3f 1f02 d2f2 db3a 9a3f
00000140: efa9 4d28 94c1 bd3f 4631 2b43 00dd cebf
00000150: 3ab1 ee3b c3cf bfbf f4f1 717c 221d cabf
00000160: 1bad 62fc 0bb8 d33f bf1e 82f7 de55 c83f
00000170: 681a fbff 2582 c83f d50a 5135 c070 a03f
00000180: 9c3f da27 18d1 c4bf f0dc 3277 6ebd d2bf
00000190: ca26 f853 aacd a6bf c433 1e45 2fe4 da3f
000001a0: 7aa5 690e 57aa be3f 07c2 755e a88a a33f
000001b0: 6750 57b0 1bea c0bf 2c74 bf16 de70 c03f
000001c0: b752 6e0a b6e4 cb3f 31e7 cc83 b25f c73f
000001d0: 0b0b 4a06 91d8 b6bf 274e b2cf d300 ad3f
000001e0: 5be2 bef6 6375 d7bf cf80 1da2 9d34 b1bf
000001f0: 4727 370e 3dbd dfbf 6ed4 8c5d e245 923f
00000200: 889d c660 6706 d33f f14e 68b2 e9f7 ab3f
00000210: 6113 29e8 44e4 b43f e90e ba7f d23e c9bf
00000220: b662 9b10 10dd 923f 0028 b1aa 7621 c33f
00000230: 4c14 2c6b 6f07 d03f f880 8d5b 24b9 983f
00000240: 3646 9d15 bce8 c63f 8966 3855 e443 d43f
00000250: bc06 a15d be6d bb3f e501 da94 eb74 acbf
00000260: 1a38 17da d316 cd3f 870c 3fda 590e be3f
00000270: 1f1d 062b ca7d ba3f f882 9c88 9faa a93f
00000280: 7f0c d6a1 ddb8 d1bf 7849 9d78 c1f6 d13f
00000290: 24c0 86fe 8704 d2bf 395c eac7 dc7d ce3f
000002a0: c321 02f4 4d99 cd3f 6025 0245 54b9 a6bf
000002b0: 7776 a4d0 2e2b b1bf a731 3a58 5607 bc3f
000002c0: a6f7 21fa 86c1 b1bf 2c2b 8042 86ff ae3f
000002d0: cc23 265a 8dc9 d13f 5ec3 3ac5 6eec b83f
000002e0: 6d6d 64e2 db81 e03f d7c2 eee8 bbb0 bf3f
000002f0: fd3e a8bb b7dc c53f 5306 e46c 75f9 c63f
00000300: 4bf1 7daa daf0 6f3f 97fd c0a4 1b94 cebf
00000310: 0f71 4864 75d9 c13f 5170 cc38 ccae b33f
00000320: 1d5e e898 4a0c ae3f 4622 085d ecd1 c1bf
00000330: 3edf a4d8 90ab d43f c889 7ebb dbe2 c6bf
00000340: b7e0 f7c5 b776 ccbf 68de 0ac0 d800 cf3f
00000350: b211 663a e781 a4bf 20a5 b88d 419d 473f
00000360: ecbb 47df 74dc d53f e4c7 94cd 48e1 e33f
00000370: 20b4 eb9c 491b 833f ec64 0b7a a249 cabf
00000380: 1f15 d021 8c32 be3f 5db4 ba62 3968 d23f
00000390: 2c47 af35 b6b4 c23f 99b1 112b 0e04 cf3f
000003a0: 2dd4 fefb b558 d73f 3611 74da 073d c33f
000003b0: e118 1692 0d31 c23f 6882 2342 ceb4 b63f
000003c0: 7af0 42e0 365e be3f 435f fbb9 4c48 b83f
000003d0: 7d46 96a7 176f c73f 2c0c 9e14 acd0 b5bf
000003e0: 2b71 87af 38a5 ce3f 6c2c 846e b838 c93f
000003f0: d86c 9d18 120b d33f 117f 566a ffef dbbf
00000400: f41b 14bc f525 c3bf ba12 d894 365c cabf
00000410: 0dfa 12df 5554 b2bf 2a75 1a7e b8a4 c4bf
00000420: 9a44 23ab 5076 babf be13 a685 aa92 c33f
00000430: 6e8a 80b0 ed66 c7bf ee59 80a2 6432 913f
00000440: 0af1 6b74 5b34 a23f 0579 0ef8 7905 b9bf
00000450: 14ea c185 5951 bebf f7d2 dee4 bd96 6e3f
00000460: 63a6 89b1 edcf a93f bcd2 28ce a272 b9bf
00000470: defd 6ded 0f1c b9bf f845 4898 27ee bebf
00000480: 50c7 76a2 d762 b3bf 7492 6f17 beb9 b9bf
00000490: 6ff3 c898 f4f5 6d3f 4de1 5b47 d205 ae3f
000004a0: 45da 8ea2 a361 c1bf cbb5 b5ce b13b cdbf
000004b0: de49 94ee fbea c4bf fefa e159 e859 bebf
000004c0: 23ca 5644 e304 773f 19b0 c4a0 68bf 57bf
000004d0: d674 2ffe 8620 a6bf ed68 1493 18a2 953f
000004e0: f508 97c9 dba5 c1bf ad36 9d39 0d65 c23f
000004f0: b536 c1eb ae42 c4bf f270 fe35 1a86 af3f
00000500: a26d bac7 bc38 7c3f b230 10ca 16c0 bf3f
00000510: f4ec 7f67 c8d1 8cbf 4fcf 12df 55dc b8bf
00000520: c2d3 9cae 54f2 983f 8f1d 8118 5cac b7bf
00000530: 0f4f 976e 05e9 c0bf 39e3 2834 478b c3bf
00000540: d5f1 1934 5404 953f c5ad 635d 8042 b4bf
00000550: 6cc7 3b9d 051a b4bf 4d17 90ff 8e26 bebf
00000560: 72b0 df5a 35f3 a0bf ba40 8a2e dd7b c13f
00000570: 10ba 3666 f762 c03f 73f0 8092 c7d4 a93f
00000580: bd65 7cd7 3da9 663f 561b 9f35 e068 c3bf
00000590: e57c 6184 8da1 ab3f 0f6f 8efa 2648 be3f
000005a0: 083c 56ca 6357 b8bf b239 7f42 7563 a13f
000005b0: 3ef4 b403 9654 833f c885 bcd9 a911 b7bf
000005c0: 29df 8796 3596 ba3f f19f 74d2 7550 b43f
000005d0: 8ffd e34a 7a37 af3f cc0b b9bc 2f52 8ebf
000005e0: 4874 e77f e207 bd3f 4098 5784 80e3 c3bf
000005f0: 1a0f 98be 6377 b23f c4f1 a726 a9da 873f
00000600: 71ae f307 4384 c63f 9006 9e31 be59 cebf
00000610: 89a3 b2e9 9f52 b2bf da8c 4008 aa7d a23f
00000620: 2ee9 d0d1 3443 b33f 5192 4292 7a84 bbbf
00000630: 7607 9d56 3851 b3bf 900c 4a91 692d c23f
00000640: 1c6a 9555 c297 b53f 9481 d4f4 6ca6 8c3f
00000650: 33f1 0afe 6a36 c53f 59fc f167 0a03 bc3f
00000660: 16a2 1681 23a8 abbf f022 43b1 c915 d33f
00000670: 0761 797d bf55 bc3f f3e8 ea0b 46d5 b8bf
00000680: 6dba ab86 c8ef a33f 8aad be15 38d5 ca3f
00000690: 6875 a380 6e6f c43f afee 2557 92b9 c33f
000006a0: 9d71 c80e 0737 d33f 5c83 2e1e aa68 c83f
000006b0: bf76 e14f dc65 ba3f b35e 8b8a b449 c0bf
000006c0: 9bdf 7f0f 23ed c93f 4853 a21c 0a3b aa3f
000006d0: eb97 ed2d f564 b73f 4b88 e968 1b42 cebf
000006e0: 753b 9ca9 9027 d13f 5df6 2327 fd41 c53f
000006f0: 95ba f2d7 2f20 b13f 5a53 c2e8 faa8 d33f
00000700: baec 098a 34e4 b8bf 4191 c331 ead0 a13f
00000710: 69a6 5644 e849 c43f f27b d2b6 ff13 c13f
00000720: f8a9 700d c109 c4bf 4310 61ca 23af c3bf
00000730: bb2f 375b 2472 b3bf c6cf 2628 f859 c6bf
00000740: c1d5 f7ed 700e b7bf 00f8 d5d2 9e61 bf3f
00000750: c5f8 4c22 2a68 c7bf b580 6dba 2776 a4bf
00000760: 1592 fe3f 161e b9bf b0cc f2cb c39d 84bf
00000770: 0cf5 e664 e466 7d3f 4665 9fc4 7d9c b8bf
00000780: 426b ea50 4f85 afbf 4e6c 90d5 9ad6 cabf
00000790: 5c49 19de 4a87 b03f ed2e 1895 4351 ac3f
000007a0: 1072 67bc 4079 a1bf 0fe7 8948 cceb 903f
000007b0: 0fdb 6cf4 4606 c3bf f64b ae9a 73b4 c4bf
000007c0: 33d2 76cb bdee b1bf 167c 79fa 5d40 bf3f
000007d0: d751 e34a 934f c83f ad75 3fbb 3ac0 b13f
000007e0: 2736 4951 de69 be3f 017e 2af8 e31d cbbf
000007f0: 5110 b546 8d59 91bf 23ab 3753 a322 c2bf
-0.06383556392019842 0.054609396180522254 0.1115805437494794 -0.19781562098228594 -0.03721333135326316 0.16055408552388778 -0.06831141551279253 -0.16203192090283744
-0.0054262392906926265 -0.009743182689456311 -0.185229236961626 -0.04066758135965877 0.13219165293298957 -0.017851667481822993 -0.13477488583142977 0.10322533757411116
0.07234054412753384 -0.039293115750941875 0.11213233747908534 -0.12146881330645669 -0.1751936279183645 -0.20339729386839697 0.09291640765517895 -0.16627861084576037
-0.15941915841241872 0.001598710904041715 -0.13583582969550845 0.12364978579485318 -0.13853312099012685 0.08361641331666116 0.054445745735503114 -0.1129282191022376
-0.21367329976512456 0.19496527065995975 0.1676122956980608 -0.17390375584461493 0.1420624884640264 0.06376793825785922 0.43737317544217125 0.025615154929712
0.11623502716034982 -0.2411194160434979 -0.12426395619576605 -0.20401412083073434 0.3081083264066408 0.19012057385793033 0.1914718151003456 0.03211022044026427
-0.16263105340885609 -0.2928119815873762 -0.044537852049030116 0.4201772856693504 0.1197866831004343 0.038167249232063986 -0.1321444140472778 0.12844444380508102
0.21791720876048767 0.18260795054976023 -0.08924204257531813 0.05664693746907928 -0.3665399465203671 -0.06720910270587697 -0.49592520130373824 0.01784471221909139
0.2972658581806731 0.05462580015969632 0.08160811107616218 -0.19722968327197712 0.018421412480935394 0.14945872625895618 0.25045381036790526 0.024143760765014982
0.1789774995364028 0.3166437942723879 0.10714330469002226 -0.05557953063999203 0.22725914143524123 0.117406478674683 0.10348189878833523 0.050129876543229146
-0.276908309977621 0.2806857755541823 -0.2815265641793323 0.23821601640222115 0.23124098219365238 -0.04438269941699491 -0.06706516832169905 0.10948695806491192
-0.06935924155001646 0.06054324685836429 0.27792676738368693 0.09735767665075687 0.515851919338656 0.12379049717743427 0.1707982698721863 0.179487875146196
0.0038990279026035793 -0.23889489693281682 0.13944880863790174 0.07688595186886117 0.05868752590702917 -0.13921885054175415 0.32297154575961773 -0.178798166799494
-0.22237298170489847 0.24221333863328032 -0.04005358302950714 0.0007206506811076353 0.34158059887607695 0.6212505355126692 0.009329390622463463 -0.20537215193943525
0.11795879197605473 0.2876113380578483 0.14613988515207532 0.2423112592981738 0.3647894822018454 0.15030000845593755 0.14212197907563165 0.08869637598719182
0.11862509703763804 0.09485320606779361 0.1830777710243189 -0.08521533492425765 0.2394171578479328 0.19704347034744119 0.29755070117762505 -0.4365232981162857
-0.14959594424746536 -0.20593912380004104 -0.0715993566145487 -0.16127687604322577 -0.10336784532707313 0.15291339422051736 -0.18282862776057435 0.016793796938225407
0.03555570408022575 -0.09773981386249282 -0.1184287978702872 0.0037339886539150507 0.050414493486482546 -0.09940545590581967 -0.09808444544432102 -0.12082145183401127
-0.07572696415334446 -0.10049045631564885 0.0036573197633331038 0.05863816376762774 -0.13579221188929771 -0.22838423341037947 -0.16342114591004891 -0.11855938143160569
0.005619895707627029 -0.0014494439847778705 -0.04321691372727236 0.021126159646066723 -0.1378741010976864 0.14370885194005237 -0.15828501235448802 0.061569995013288095
0.006890046522723211 0.12402479584869999 -0.014072003992615191 -0.09711205192689686 0.024361918599612904 -0.09247375105143461 -0.1321112432475435 -0.15268793150769414
0.020524326019300283 -0.07913973121656344 -0.0785220631476286 -0.11777585734679726 -0.03310553297328135 0.1365925290342654 0.12802021494776783 0.05045150435805192
0.0027662475439569055 -0.15163805597532115 0.053966925058142746 0.11828845612620519 -0.0950834626184901 0.03396192967157975 0.009438678730129376 -0.0901132732947395
0.10385451245371925 0.0793527258689435 0.06097013630096192 -0.01480519575773611 0.11340156195315487 -0.1553803106500613 0.0721342411343894 0.01164753102511263
0.17591131103778282 -0.23711373732298968 -0.07157325225365531 0.036114991671888766 0.07524423716032366 -0.10749021597673304 -0.07545806994042245 0.14201087564660897
0.08434691037602032 0.013989306661245128 0.16572320370131308 0.10942139661527629 -0.05401717139040245 0.2982048255039862 0.11068341077168863 -0.09700429717023322
0.03893877643519237 0.20963192998656793 0.15965062409569986 0.15410069709092997 0.30023361629153006 0.19069410775866913 0.10311676931584211 -0.1272493053900142
0.20254934555827905 0.051231685634013646 0.0913842427376889 -0.2363924276606347 0.26803986133102536 0.1660763207545867 0.06689738294765342 0.3071887276685651
-0.09723213548743362 0.034797018599223246 0.15850547158088382 0.1334228174864332 -0.15654767185453955 -0.15378234273714683 -0.07596041895811727 -0.174620647053983
-0.09006410417335699 0.12258331916197562 -0.1828663508876557 -0.03996395254830657 -0.09811533987392125 -0.01006653753424866 0.007178203739781407 -0.09613786745412253
-0.06156394827595203 -0.20967421939789904 0.06456439897855176 0.05530749506951147 -0.03412821102003616 0.01652449791661242 -0.14862906393838002 -0.16175694515968048
-0.07004915444742536 0.12207591405011473 0.18992844730986633 0.06933943816644357 0.11880292400857027 -0.21184968583564515 -0.01694317573607435 -0.14168206752159404

module.feat_mlp.2.bias f8 [32]
00000000: 32da ea04 19b2 afbf e50d c098 20c8 7abf
00000010: 3266 9104 b463 b13f d0e1 14c2 c653 b5bf
00000020: b00a bb1c 45ae a33f 1535 d2a7 be6a b8bf
00000030: 75ac 81e0 d152 b93f e966 6787 91f4 b9bf
00000040: 6ff9 7e1c 8e07 c83f 5211 1acb c70a afbf
00000050: a217 50c3 f11a 8d3f 7a0c b2cc 759a 8dbf
00000060: e9f3 a9d7 2ce2 ab3f eb13 5dc7 a4e0 b2bf
00000070: 08a2 9216 5d2a c83f 857f 4027 66f3 a8bf
00000080: 0607 db0e 0f08 babf e8e8 0a3e a472 c0bf
00000090: 28b9 3bcf 8fb8 ba3f 81e7 3fe2 5690 be3f
000000a0: edd3 ef1f e28a cdbf 1c0f 0cfd c088 c2bf
000000b0: b3a9 9b64 bef7 b5bf 68e7 d951 0ed0 b63f
000000c0: ad4b 3e7a f3fc bb3f 6a00 1ea6 b97b c6bf
000000d0: d017 b286 1971 b73f 2f88 a41c 68aa babf
000000e0: f874 b0c0 13ee bfbf 4ee4 8f66 22ea b0bf
000000f0: d966 9b00 0cd8 b43f cb23 a339 9495 aabf
-0.06190565285708195 -0.006538512545378937 0.06792760001680945 -0.08330957639999004 0.038438949353368 -0.09537879559703229 0.09891998034588474 -0.10138806873092289
0.18773056403547225 -0.06062912325163218 0.014211548588729365 -0.014454765614806176 0.054459954572827325 -0.07374029032969502 0.1887928352564503 -0.0487319872775052
-0.10168546784100493 -0.12849858312058093 0.10437868890196411 0.11938994430229678 -0.23080088195243267 -0.14479839664283467 -0.08581151920558376 0.08911218164749146
0.10932847723442647 -0.1756507931822882 0.09156951464146279 -0.10416269969258062 -0.12472651914909594 -0.06607260707814186 0.08142161383457437 -0.05192244723873037

module.feat_mlp.4.weight f8 [32, 32]
00000000: e01f 14bb 9bb6 a53f dff6 261d ca3c b83f
00000010: bf29 8d80 794e a9bf 6f57 791d f7b7 8c3f
00000020: ae10 1b59 6ef3 c7bf c539 9fa5 ade8 c03f
00000030: a2bb 6676 82e4 b3bf 5127 cf4d ea96 c0bf
00000040: 0db7 7ed3 be56 cd3f 06a5 d1e5 8d31 94bf
00000050: 98bb ef07 ba38 88bf 85b6 d588 15c5 c13f
00000060: 8fb8 7d97 c1e7 b83f 5204 f062 b227 c9bf
00000070: d7ea e1fd 4e02 92bf a96d 1a34 3fa0 a43f
00000080: c3ff c35e e013 c3bf ad06 4e03 7d87 a23f
00000090: 5a88 8a4c 0586 b8bf 4184 e7dd 1ac0 a9bf
000000a0: 7b49 0661 d5bb a6bf 0b6a 824a 87a2 c03f
000000b0: 6b22 be83 a9dd b23f 3584 27ea 7a62 bf3f
000000c0: 8a9d 5276 4d19 773f 0478 e6be 6aea 92bf
000000d0: 6941 4ad5 dcc7 be3f adc6 f156 c4f9 b8bf
000000e0: f1bf b08e 14a9 c23f 3e79 67e2 229d c5bf
000000f0: 340a 023b b9f5 77bf 5177 0c82 0632 743f
00000100: d3cb 4f10 bb0f c4bf 0550 f3c2 1c57 bcbf
00000110: fa10 e27e 3f2b b03f 3604 6b47 e6cd a13f
00000120: b32a d08f 7632 513f 7bec 66c1 6251 b13f
00000130: 4de1 99e5 4d10 5cbf daea fbb2 b4f0 c3bf
00000140: e6b1 9234 c0c5 b63f 664a 0f64 92bf b4bf
00000150: e857 acfa 96d5 c9bf 213d 2b84 4b59 9dbf
00000160: ed6b d486 8108 c5bf e02d 009c f647 c3bf
00000170: 37bf 3892 8931 ba3f 8969 1211 54af c5bf
00000180: c4f4 cd9b adc4 87bf 897a 6ace 2c06 a5bf
00000190: 7de8 3b0f 92d1 c73f a096 02a3 6ff4 c3bf
000001a0: fbdc 026a 1eda b2bf 4350 97c8 39cf 86bf
000001b0: dd1f b69a 7132 723f 1a2d 17dc ae99 c63f
000001c0: 861a 8c05 534c a6bf 308c 8b50 732b bdbf
000001d0: 07e6 a588 a909 86bf c957 28d4 9121 b83f
000001e0: 7724 2e94 6d3a 773f bf50 a069 5e83 bbbf
000001f0: 4859 64f8 fa56 b6bf 4cf0 8014 6e20 c6bf
00000200: d80b 9e29 69a6 c8bf 7651 e7a7 fc8c 71bf
00000210: 1c8e 744b 6bbd 99bf ef9c 9d2f 5b6b babf
00000220: a3ab 9dba cdc5 97bf e033 27bf 237d c03f
00000230: 6397 3d02 942d 9ebf e028 9872 3762 ba3f
00000240: 0e88 db8c 3b3f a2bf 2494 fd48 5b93 c7bf
00000250: 72ad 1441 5d1c c1bf 94b5 46e9 5bc6 babf
00000260: 5a82 366b ff24 8ebf 9a88 b7cb f254 babf
00000270: 7917 df0e a360 c53f c96e ee91 da4a c73f
00000280: 43a0 5735 23ad c63f 2da5 fb46 411f c33f
00000290: c0b6 642d 4129 8b3f ada0 ee25 96c5 d0bf
000002a0: aba9 7ae0 37bd 8f3f 6f6a 0364 355a c2bf
000002b0: fc25 0d79 8b1f 9bbf 9b59 762c 485f a2bf
000002c0: fb0e cd7d b561 b43f 71ff 6c11 cad9 b83f
000002d0: 4da1 8ea7 acf6 bebf bb23 f534 b400 ab3f
000002e0: ad6c 3b69 2a7b b03f aa89 8ee4 2adf a3bf
000002f0: 7104 4361 9237 b3bf 4281 10ed f6b3 c53f
00000300: 5d82 3280 c36f 92bf b8a1 07b4 b3e8 c53f
00000310: b917 e32b 2f47 b93f 712a 8fb7 af64 ca3f
00000320: 4d09 c513 f85f 953f d471 d57f 62dd b3bf
00000330: 4411 d5aa 429b 94bf 6e82 34bd 1fa6 b5bf
00000340: bdb1 c626 e9e3 a3bf 1de1 b055 5d52 d03f
00000350: 4a01 a4bb 6a8c b33f 1f66 4460 b09e c43f
00000360: d3f9 d34b 30bc b83f 0d6f ab11 c5f7 7e3f
00000370: 0240 b0ed 15c1 c5bf 30fb 4564 f561 c73f
00000380: a821 4243 584f a93f 7cc3 c129 d637 c93f
00000390: 6711 9081 c6c4 c5bf e7ff eb30 83b4 be3f
000003a0: 944a 756f 835f b3bf 2487 1feb 8835 883f
000003b0: bfba e5f0 e3e5 b33f 9dbb 7f79 a964 873f
000003c0: 43ed 8fce 0cd3 b43f f270 a4ed f932 c0bf
000003d0: 6e3b dd83 6dc3 d23f 313a 6077 30a2 c03f
000003e0: 6633 ce4c 88aa b7bf 42a9 f662 6197 c03f
000003f0: ec28 0911 ede1 c83f 5ad6 26c6 e1a3 96bf
00000400: ef65 825e cfe5 a2bf e7e6 f430 0f07 6b3f
00000410: 6f7e bfc8 0d45 b23f 3361 226f 5279 d13f
00000420: 0931 594f 5063 c3bf 1fc8 933c 2638 b1bf
00000430: 28e8 2135 a785 91bf 9a8a c5ec 1cda c13f
00000440: e8d7 39f7 9d1c c7bf 6d17 0819 1c33 b8bf
00000450: a3d9 7b20 185a bb3f 3ce5 7773 0163 8a3f
00000460: 7985 e439 6f03 aabf 436a 0c4b 34b2 69bf
00000470: d9c9 3808 faf6 87bf 51b3 fb25 e9df 86bf
00000480: e2c8 2787 64a7 bcbf e15e 4573 89ba bebf
00000490: fc7c 8c61 0a03 cabf 0fde ca3d 6614 c3bf
000004a0: ac76 4123 f531 af3f 215d 7e09 6b66 c0bf
000004b0: b2f0 b052 0a50 a93f e67d 6e24 3104 c4bf
000004c0: 1f4b 53ca 8df1 b73f 292c 84ee 8ae8 abbf
000004d0: adad f70f 1f4e a0bf 8be8 03a9 57c9 c33f
000004e0: cd56 cf49 4623 a7bf 639a dda1 57da 9f3f
000004f0: 96f1 f0f3 8eb5 c83f b933 6041 47fe a63f
00000500: c3b0 254b 088a abbf cba3 d359 6b38 98bf
00000510: 1c79 2d1c 527b b53f 35ca 13cd 219c a9bf
00000520: 945d 391a 5e0f b1bf 6db3 ca13 ec2d b7bf
00000530: 8193 6169 0077 8fbf 8520 9774 8fed c43f
00000540: fc57 edaa 0f99 c03f 6f4f 6699 2b68 a9bf
00000550: f9b0 875c deff c13f f638 7b78 0c74 adbf
00000560: 1c6f eac0 bbba 753f 1e7f 6a77 8a45 c2bf
00000570: b5dc 7d08 9743 c53f 1286 baef 0b31 babf
00000580: 18fd 27fc 7f80 babf 4e44 eda6 2c0e c6bf
00000590: 616e 297b 17a2 c43f 729b 35bc 9545 c83f
000005a0: 984f 784d 2f2f cdbf 347d 1c1c d3c6 b63f
000005b0: d415 ca78 0332 c83f 14f1 1653 8e4e 9dbf
000005c0: 44e0 ec3f ba52 b03f 72e1 21a7 47b0 bbbf
000005d0: 5525 e940 bc5e c13f 7f99 7897 6a04 62bf
000005e0: 1cf2 6c75 916c c4bf 1070 86ac 9ec8 c3bf
000005f0: 204d 33c0 8c16 d1bf 8669 2184 3ed2 b13f
00000600: 7582 93d1 7d96 8e3f d79e 95c4 2c85 94bf
00000610: f535 f715 e73a a83f ce3c 4853 7513 a6bf
00000620: 8958 329a 8311 bc3f 1d4a d242 b016 c8bf
00000630: 81b5 0ef8 b571 a7bf 363a ee60 06fa c1bf
00000640: e39a 9fbd 39a9 b9bf 641c d969 3837 a2bf
00000650: b9ed b931 f96c 83bf e7ec c7cb 1a22 d03f
00000660: 2899 5a70 9c5c b9bf d0c3 8761 7a71 b3bf
00000670: e664 4d31 2911 d2bf b509 ae2b fc9e c53f
00000680: 8e76 d486 c8d1 81bf af68 5241 52d9 c33f
00000690: 5aa1 80e3 3570 ccbf 26af 585f fb7d c8bf
000006a0: 8456 b40d fab0 8a3f b19f 33cc 8184 c63f
000006b0: 13f7 4200 3961 b63f 070d c20e aa84 a7bf
000006c0: 7075 158e feca c43f 4983 0c1d 238c c5bf
000006d0: 5720 fade 7f09 d63f 9f83 1450 f8b7 c53f
000006e0: cdcd 826d af2e 973f 37e9 f812 c630 8c3f
000006f0: e8a5 a143 0fa5 ab3f 9abc ef7e 3869 b33f
00000700: 03e9 f197 4b2c b2bf 0738 6660 a528 c2bf
00000710: ec4f b04f c2a0 c3bf 07d9 3fd3 3928 bcbf
00000720: 3585 c8cd 22a3 c03f a643 a89b 5daf ba3f
00000730: 5bc7 1372 9a3c c33f bea5 f6de 32ea b73f
00000740: d0da 00f0 f22a bc3f 8878 37b4 41ca b0bf
00000750: 649e 9521 5405 ad3f b553 e448 b11c 533f
00000760: 49d1 2a06 fe04 bdbf 1829 4d40 621f bd3f
00000770: 54c3 d212 fc76 c1bf f307 1134 3c45 cdbf
00000780: c51f 16d7 0957 87bf 0391 d650 dbfb b3bf
00000790: afe8 14ba 3f89 943f 3ac4 c426 9ddc a73f
000007a0: 805f 055e 0342 aabf 6c7c 72ed d4da b23f
000007b0: 1f9e 6b5f fb6a b33f 119d 83b7 c917 9dbf
000007c0: caa7 2516 2406 c23f a374 fb1d 76b4 b2bf
000007d0: d215 5894 f757 b23f e46f 5a90 2b10 c3bf
000007e0: c336 0b80 6eda bd3f e2a1 6711 d2ba b23f
000007f0: 0721 1fe8 83a2 b5bf 8d0b 5b3b c070 a5bf
0.04240881594347434 0.09467757426952116 -0.04942683881980114 0.014022760951018147 -0.1871164259993114 0.13210077845583448 -0.07770553007752182 -0.12960556792523417
0.2292097599687896 -0.019720284606965975 -0.011826947562409804 0.13882703000438226 0.09728631924164886 -0.19652395087180935 -0.017586931463010238 0.040285086736925386
-0.1490440809939156 0.03618994393674533 -0.09579499357872248 -0.05029376944344977 -0.04440180596715756 0.12995997560649672 0.07369479624152013 0.1225964376130982
0.005639364802085276 -0.018472354795100912 0.12023716170575018 -0.09756114123026789 0.14578492133432477 -0.16885791830913804 -0.0058495746199036976 0.0049305204600196975
-0.15673006340475001 -0.11070422896892758 0.06315991256457557 0.034774013727208716 0.0010496290044580802 0.06764809819917332 -0.0017128716193877847 -0.15578325976806334
0.0889549377777211 -0.08104815428604581 -0.20183074226287023 -0.028660945836972766 -0.16432208140835716 -0.15063364617559127 0.10231838054528174 -0.16941309770193083
-0.011605602566982738 -0.04106273669934974 0.18608308547829103 -0.1558970972011382 -0.07364072883762056 -0.01113743918805466 0.004442638174971561 0.17656503435714727
-0.04355105822292153 -0.11394425121720597 -0.010760616762797616 0.09426223210934305 0.005670955698300443 -0.10747327879681999 -0.08726471485383513 -0.1728646850696144
-0.1925784543237501 -0.004284846245770848 -0.025136639099527 -0.10320062553875052 -0.023215498461847905 0.12881895860337433 -0.02947074187922939 0.10306116626466943
-0.03563867659046603 -0.18418446601859373 -0.1336781089570241 -0.10458921857089926 -0.014719005069140301 -0.10285871003682914 0.16701162553925622 0.18197185636096538
0.1771587381801983 0.1493913265797259 0.013262280652806324 -0.2620597238951728 0.015497623956737558 -0.14337794669593815 -0.026487521422756885 -0.03588319342377418
0.07961592027009694 0.09707320142206101 -0.12095145312071516 0.05273974558310309 0.06437935895103193 -0.038812008285521074 -0.07506670832209907 0.16955458236135185
-0.018004469584982242 0.1711640004207433 0.0987424356599992 0.206197704914604 0.02087390537895688 -0.077596813401619 -0.020123521496558952 -0.08456610078111179
-0.038848196013848015 0.2550271355462586 0.07636134224958827 0.1610928030066114 0.09662153102178843 0.0075605104454685825 -0.1699550066555276 0.18267695804748874
0.04943347760223854 0.1970164970294056 -0.17006760908419524 0.11994190163022687 -0.07567616912028036 0.011820859599484708 0.07772659903796873 0.01142246629748716
0.08134536784193806 -0.12655567268019002 0.2931779659019672 0.12994962529087808 -0.09244586825498188 0.12961976368144162 0.1943947156126521 -0.022109534949512934
-0.03690956143072898 0.0032992645934911582 0.07136617804598598 0.2730299077316147 -0.15146831392701923 -0.06726302126824678 -0.017111408822963053 0.13946878014674696
-0.18056082316951394 -0.09452987300036648 0.10684347909032126 0.012884150825800071 -0.05080745298097162 -0.0031367322302575953 -0.011701539398107851 -0.011169263335853026
-0.1119292097062359 -0.12003382744057546 -0.20321779025196196 -0.1490600396843864 0.06092802100532188 -0.1281255527835379 0.04943878421224336 -0.15637792853247773
0.09352956952652079 -0.05450853501869119 -0.03184601850429245 0.15458198311518276 -0.04519099856376627 0.031106347326750227 0.19304072295370805 0.04490873978657057
-0.05378747861218038 -0.023652722699725886 0.08391297519617463 -0.05001931789765416 -0.06664074077831678 -0.0905444668121171 -0.015363696304300014 0.16349976723563855
0.12967105718661276 -0.04962288138918224 0.14062098997181474 -0.05752600641936738 0.00530503598443113 -0.1427472193799923 0.16612518229132936 -0.10231089213132119
-0.10352325349957814 -0.17230756903384975 0.16119664682161086 0.18962356271660102 -0.22800246508324729 0.08897132335959129 0.1890262927810641 -0.028619979688060473
0.06376232205082127 -0.10815856771831081 0.13570359391659773 -0.0021993715161158773 -0.15956323846502662 -0.15455993103103127 -0.2670013310391415 0.06961432195513426
0.014935477216966956 -0.02003927183014195 0.04732439177642426 -0.04311720506313464 0.10964224352423647 -0.18819239866987028 -0.045789419680072115 -0.14044265492380398
-0.10023842696646627 -0.03557754795161186 -0.009485194044137711 0.25208158398136365 -0.0990693830777657 -0.07595028763877498 -0.28229741873435754 0.16891433842472528
-0.008700911154444737 0.1550696200327528 -0.22217439278143553 -0.1913446631964401 0.013032868903376078 0.1759187933996578 0.08742100006471913 -0.04593402319098954
0.16244489610373192 -0.16833914678957232 0.34432980322936174 0.1696768179909016 0.02263902765180408 0.013764903501500043 0.05399368000582766 0.0758242902663703
-0.0709883924445514 -0.14186541754719448 -0.15334347621012456 -0.10998879821258721 0.129978514175528 0.10423836755968682 0.15028696603945488 0.09341733878559119
0.1100303493447925 -0.06558619165250168 0.05668127927748115 0.0011665087982397463 -0.11335742617194912 0.11376012868746377 -0.13644362372499563 -0.2286753896933643
-0.011396481396118827 -0.07806177829349185 0.020054813129924905 0.04660502527475115 -0.051284890391513294 0.07365160748530436 0.07585116462325246 -0.02841105635243674
0.14081240731621697 -0.07306612236011971 0.07165477153474534 -0.14893097446918013 0.11661425233907168 0.07316315579340185 -0.08451103608161158 -0.04187584614330495

module.feat_mlp.4.bias f8 [32]
00000000: 6c70 e2d2 4168 b5bf dd89 6a94 5f48 a8bf
00000010: 6bef a784 2e2f 9cbf ccf1 2b10 f1f5 b7bf
00000020: 3345 509d daca bd3f 7f38 7579 0484 bbbf
00000030: 6ce2 b0c8 345a b73f 2274 9330 0183 b23f
00000040: 829c 3575 eb62 c13f b1c9 3726 dbf7 b4bf
00000050: 6108 a6cd 5a75 bc3f 7477 a548 0da0 a63f
00000060: c557 90d2 c1ba a3bf 689f 0261 08ba c4bf
00000070: 78fb b0f2 ab3b b0bf e3b6 fa19 654e c0bf
00000080: b0bc 9697 a406 c0bf 050c cdb1 ab3a a43f
00000090: df96 3968 f875 adbf a185 a0c8 830f c13f
000000a0: 41f7 4639 4960 9abf e8a0 bf5d 227e c03f
000000b0: 984a e4b2 385b 98bf 9b58 344c fd5d bdbf
000000c0: a52b ccbc c18d b5bf 9e3d 2010 b2b2 c13f
000000d0: a016 ed4a 106a a1bf 1d0a 2fd7 f770 9a3f
000000e0: a336 22b9 8d97 b3bf 4691 fbd9 6fec 84bf
000000f0: 1b25 5bd3 1bf5 85bf f85e 1d00 af83 a63f
-0.08362208746479077 -0.047427164904792575 -0.027523733946494582 -0.09359652180496097 0.11637655583060251 -0.10748317685394858 0.09122018718415753 0.07231147228181148
0.13583129141918354 -0.08190698321394653 0.11116569061963012 0.044189849012339716 -0.03853421874389044 -0.1619272683794819 -0.06341051745492432 -0.12739242332957365
-0.12520272638127983 0.03951012177869732 -0.05754066726949047 0.1332859735130514 -0.025757927056239586 0.12884931161466473 -0.023785482329069824 -0.1147154151006781
-0.08419428691210713 0.1382658556690161 -0.03401232638001983 0.025821564205907522 -0.07653127450813683 -0.010216592635921128 -0.010721413981985386 0.04397341610336797

module.transformer.to_qkv.weight f8 [96, 32]
00000000: 8206 b6e0 d4ca c63f cf33 f73f 355c c4bf
00000010: c7e0 a27d a713 b23f e639 06d4 28bd 953f
00000020: cab3 2da6 a8f1 b2bf 98b0 ed52 86b7 c2bf
00000030: 4bef 4b13 d136 cc3f b5ff aacf 7f1c c0bf
00000040: cd13 8af3 cad9 c7bf aaeb e4fe 445e 93bf
00000050: 90d9 afbe 07e8 a2bf 2031 10ec b778 cf3f
00000060: 3b53 2746 fda7 cabf e422 70a9 0ece d23f
00000070: 5a61 f7b5 a1bc c73f 3160 af5e 0dd2 ac3f
00000080: c2aa b905 59a1 c23f d14e 6505 e40d a8bf
00000090: b1a1 14f0 9d64 d83f 9fdd 1f2b da33 91bf
000000a0: 81f7 68c0 d0e1 b83f 24f8 3f3e a482 9dbf
000000b0: f6b7 cade 1075 c13f 269b 9887 124a d23f
000000c0: 237d c6ff 3e05 d13f a2b0 8aa6 67d6 c4bf
000000d0: 9ca4 cf65 c43e c6bf a7a2 5215 b7a3 d33f
000000e0: aa5b dd0b a496 c13f a7f7 9738 9d0c b33f
000000f0: 0bde fca2 0ac4 a0bf e6f5 47cb 2ec7 75bf
00000100: 094e 1d9c cc9a a5bf 03b9 acb4 faec cabf
00000110: d81d f1ea 887f c2bf 2a3e 4ebd 83c0 b2bf
00000120: bf7d 21cb ef54 d43f f10f 242f 52b1 57bf
00000130: f661 127c 4f85 bb3f cb6e efbd ec9c 973f
00000140: 6b8f 4242 d58c b9bf b11c bff6 11c8 c53f
00000150: e2d5 8cfb cbdf bebf c0b4 4d53 59df c83f
00000160: 9ccd a632 a675 c3bf e918 63f4 5c2b 843f
00000170: 422f 17dc 3310 c83f 50e2 3659 5eeb c93f
00000180: 9693 1662 5659 ae3f b063 33d3 6432 cb3f
00000190: a585 fdfa 6035 da3f c0c4 c2b9 086d c43f
000001a0: 247f 390a f404 c53f 00ab 6993 9fad be3f
000001b0: 3b25 848c de63 8b3f b278 4e4d 1b14 c23f
000001c0: ba1f bf8b c6a3 d63f ba90 1242 8c51 cdbf
000001d0: 123a 5238 bd8d cebf 6616 9a19 e43b b83f
000001e0: c359 bc56 5f3d d53f 7745 abd4 c1c7 ccbf
000001f0: 974a 6c00 6c38 bebf 99ed cb8a 3315 cebf
00000200: e661 d61a f78f a93f fc75 e398 8074 cebf
00000210: 9fb4 5fe8 f993 c4bf 3eca a375 ff34 d23f
00000220: e356 75ca df3c d13f 83a1 ae20 bbcd d2bf
00000230: ac56 b5ed b191 ce3f 2f23 24db 63cd c5bf
00000240: a68a fda3 1371 c8bf ddd5 f158 9bd2 c4bf
00000250: 66ba dacc fdaa 93bf 7037 5c67 7ddf b03f
00000260: 1b6c 56b3 7fef c4bf f520 8f0b 9bae a83f
00000270: cfe7 42e6 7dc1 9cbf e77d 6e7e e4df c13f
00000280: 3d14 6c00 5fcb d0bf dd24 3964 3220 ca3f
00000290: 0331 8b54 5ca0 c83f 8c93 b574 ef73 993f
000002a0: 6f8f d940 07b9 a1bf fe1f dedc 4943 cc3f
000002b0: e474 1f7a 006f bcbf 2bc6 91d9 a543 b13f
000002c0: 185e 5b45 6a09 97bf 2436 665b e190 a6bf
000002d0: 6957 d0d6 b965 c8bf 0b08 5697 924e b33f
000002e0: 74b9 e4ee 5a06 c83f 35fe e0ee 73f8 dabf
000002f0: 30ed 4623 2b57 b0bf 0d46 ca79 50a5 cbbf
00000300: ab92 2123 657d 7cbf 2a7c be63 bd43 d2bf
00000310: 3b51 1cb4 e6c3 c1bf 6672 92f8 7532 b43f
00000320: f39b 2a9d 8bd8 df3f fa83 8eab fdf8 debf
00000330: 307a acd2 707c e53f c96b 3481 c543 babf
00000340: 3037 83b6 58bd c1bf c499 05a8 146d c23f
00000350: e2ba c0c2 bde1 4ebf 8950 3851 0808 e03f
00000360: 260b 2a85 6898 d4bf 74d8 742d a69a 953f
00000370: d555 6de6 9572 ce3f 9991 15e6 a4cd d33f
00000380: 7ba6 09f3 777b cabf aad9 f29d 9018 c33f
00000390: b76e ea32 4ffb d93f 8dd1 7516 9852 cfbf
000003a0: d996 9981 6932 a03f e8c3 00ed caf2 b53f
000003b0: 967e 377d d7ad c7bf ff32 b206 fb72 d33f
000003c0: 240d 2b15 ec5b d83f 7efc bec9 2395 c9bf
000003d0: 2271 701d 0e86 e3bf 8e52 11ab aae6 d63f
000003e0: 3d93 a9ee b7dd d43f e9eb 6091 7809 d2bf
000003f0: 3914 a9dc 57b2 bc3f f0a5 22d3 a6dd d7bf
00000400: 6139 07ec cbb6 c33f 69fd 78ab ae01 923f
00000410: 412a 2977 4056 b8bf d43d f211 6698 b3bf
00000420: 2c40 3bde dd49 cb3f 480e 0e60 3f5b b7bf
00000430: 3d60 a5f5 edc1 cc3f 2801 f16b 038d adbf
00000440: a48b bf11 ca08 c7bf c69c 6abc 8651 b93f
00000450: 66c8 ffa9 bf99 b53f b9ed 5c62 9d59 cc3f
00000460: 2505 14fd e641 a3bf 10a9 3d4f ce77 8bbf
00000470: 3eba cd20 33d5 c13f 77f4 69c3 91b8 b4bf
00000480: cd38 3cff 0aac b9bf ba5c 7bc4 9f9b 90bf
00000490: 2c7b 6454 e323 c2bf 6393 6250 ca9c ab3f
000004a0: 314f 346c 9e98 c1bf d264 3a3b e8fd 64bf
000004b0: b556 4701 056b ab3f c5f4 e851 e280 a1bf
000004c0: 6832 00fb a38b bc3f 9438 59de f16c acbf
000004d0: 72cd 8ff4 1acc 94bf 05e6 442d b7c0 c13f
000004e0: 4f66 7332 53de afbf 00df 0d6e c199 bf3f
000004f0: 1e23 47dc f2c6 bfbf 2ea0 a842 438e a83f
00000500: a7dd eee6 72cc b73f 85b9 956f ad30 afbf
00000510: 80c8 7d58 1da0 bf3f 1dbd 00c3 c42a d4bf
00000520: 5466 13bb f6f6 b03f a284 6fae 4e0b bc3f
00000530: 05da 13b2 f3bb babf 8263 6590 744a c83f
00000540: 0ae0 ae1a 79f9 73bf cbee e849 894b d1bf
00000550: c6c9 7f64 7585 a13f 190c 8b8f 0161 b4bf
00000560: 6df5 b0af 2884 b4bf 6c9d 5a8c 76ef bb3f
00000570: f2a6 190e 2f88 a93f 7671 f1b2 4e91 c5bf
00000580: dbf5 340f 36ba b9bf 2c2d 1a7b 70b2 b0bf
00000590: 5a7d c49e 2f63 a03f 738a 73b7 a5b9 b43f
000005a0: 3f77 2ac2 8117 d0bf 4af0 9e35 5194 c4bf
000005b0: 9c8f 49b4 56af a53f 84d5 c8a0 1767 c6bf
000005c0: 24bd 87e6 72cf c8bf e000 cc31 f1ff cd3f
000005d0: 32c5 08bd 3305 bcbf 4958 1f9f 9f11 babf
000005e0: 176c 205f cddf b9bf cfbd 6e68 e0a7 a43f
000005f0: 59a3 5c0a 3e43 b9bf c566 48c8 ac07 b73f
00000600: 8b30 8fca fa45 9cbf ba3d 5272 b247 643f
00000610: 23d3 2ebc 3740 b23f c931 3c71 93e7 c3bf
00000620: d073 e504 5fb3 933f 1db1 f3ed 64d5 ab3f
00000630: 10ad ae70 f582 c3bf 69e8 16af 21d7 9d3f
00000640: fd58 3a1a ae8e b53f d65f 883e c5e9 94bf
00000650: 0c58 f148 3ac7 db3f 92da 2272 5abe cfbf
00000660: fe07 6088 8d6d b93f 6a90 4be6 1db3 a1bf
00000670: 8639 cef7 b180 c1bf 912a c669 6927 c2bf
00000680: c8ee 0c22 82e6 cbbf 48b6 4abe 693c cdbf
00000690: 5845 3b4d 2dbd cdbf 8e28 7fdf 9643 bd3f
000006a0: da89 a5ef 74ca be3f 2c9c bc63 1f4f bcbf
000006b0: 8268 e762 5591 c93f a47d fa4c 87c6 98bf
000006c0: 0edf b329 1660 873f 97e3 f60c dd4d d13f
000006d0: bd7f 5862 433b b93f 2458 5b6c 9a10 a53f
000006e0: 37e4 9d03 be04 a6bf 11c2 0c86 5427 c7bf
000006f0: 2273 d48a f67c cabf 9633 a7a2 e8c6 babf
00000700: 59a6 cf43 0640 c1bf 7ac7 fdc3 be5a ad3f
00000710: 9706 e45e 67d6 c73f 978e e41a 8120 c2bf
00000720: e352 4f69 9dfb c9bf fff5 0124 3dde b7bf
00000730: 84d4 ef6f d1cd c63f 8cf2 f40b 2a64 d23f
00000740: 7ba7 aa79 00a8 b03f 9d32 16a1 f535 ae3f
00000750: 8e47 02d5 88d8 c2bf 5bde 824a ec93 c0bf
00000760: 22ec cb1d 01b0 b1bf 41c9 3924 62ed c6bf
00000770: b705 4a3c 28ff b4bf 1776 cfa0 c2f9 5dbf
00000780: bc56 4694 4833 d3bf ab5f d4d0 d99b cb3f
00000790: e362 71b4 d38e 8a3f 7718 f688 45fa d33f
000007a0: f9dc 727a 74c8 c2bf dc48 ad60 a519 cd3f
000007b0: 5dc6 de9a 407c 8c3f de31 ec3e d154 c5bf
000007c0: ce46 e33b 5220 94bf 27bc 7bc9 a5c7 c53f
000007d0: f681 2dee 7788 d2bf 7979 c43d 484a bb3f
000007e0: adee a21e 84f5 9b3f b338 a068 8355 c8bf
000007f0: 6e4c 05ca 04fd c3bf 124f 4eb6 6bd1 b9bf
0.17806492778986543 -0.1590639650661658 0.07061240021983216 0.02122939867109066 -0.07399992043583761 -0.14622572945825563 0.22042287294595506 -0.12586972847020453
-0.1863340081364683 -0.018914297158726313 -0.036926500346385116 0.24587153460050448 -0.20825162816495343 0.293826737849072 0.18544408211779279 0.05629007130454545
0.1455489423709278 -0.04698097768655674 0.3811411709343942 -0.016799363023861976 0.09719567010412612 -0.028818670558386952 0.13638506773480658 0.28577101938064897
0.2659451959425089 -0.162793117827623 -0.1737905022739924 0.30686738092712534 0.13740969256715846 0.07441122657470932 -0.03274567832562177 -0.0053169086354478475
-0.042196649605696086 -0.21035703489310018 -0.14451705428858364 -0.07325003978461866 0.3176841243457282 -0.0014460852221995747 0.1075029065999685 0.023059558003167873
-0.09980519168544581 0.17016815708322988 -0.12060236827240758 0.19431606833987836 -0.15202786896916798 0.009848333557226545 0.18799446341142284 0.20249537807628082
0.05927534053197474 0.21247539818321348 0.40950798521779525 0.1595774561915615 0.16421366214034905 0.11983678196854086 0.013374079383100415 0.14123860621197576
0.3537460674965548 -0.22905114389607723 -0.23870053529795193 0.09466386437460414 0.33187087507522167 -0.22484610447149198 -0.11804842958762617 -0.23502201344659282
0.049926492715886714 -0.2379303690458271 -0.16076587530497918 0.2844847344232767 0.269340465272178 -0.2938068217431679 0.2388212595639535 -0.17033050728084606
-0.19095082766860577 -0.1626772102642197 -0.019206967953034136 0.06591018460696119 -0.1635589242622196 0.04820713535406355 -0.028081862620389416 0.1396451585141982
-0.26241278687695396 0.2041075696345506 0.19239381912337458 0.024856320856446554 -0.034614779154053525 0.22080348286203838 -0.11106875401988564 0.06743847429040588
-0.022496853335580352 -0.04407409897531192 -0.19060442913967826 0.07541767306068452 0.18769394554824326 -0.4214143593598892 -0.06383008586174266 -0.21598249384673843
-0.0069555235550963585 -0.28538450947411553 -0.13879092974151228 0.078894971071756 0.4975918803051506 -0.48394719842514144 0.6714405169221376 -0.10259661106503794
-0.1385908976721395 0.1439538784426998 -0.0009424377981356003 0.5009805284812653 -0.3218022633010825 0.021097752117576765 0.23787187339136887 0.30942652196088144
-0.20689296118807818 0.14918716156325945 0.40596370670548815 -0.24470807167712075 0.03163461405783403 0.08573597227292817 -0.1849927293214832 0.30389285711207487
0.38061048571781186 -0.19986388541108008 -0.6101141524300469 0.35782877641512634 0.32603262240290914 -0.28182806203011396 0.11209630143373851 -0.3729035436504935
0.15401600861373324 0.017584542480333285 -0.09506609830092662 -0.07654416978970541 0.21319173194069785 -0.0912360772618338 0.224668259567581 -0.057716471601909014
-0.17995572916615032 0.09890024280558682 0.08437726879472648 0.22148482611542678 -0.03761216964086093 -0.013412105363120236 0.13931883908976944 -0.0809413053593334
-0.10028141719178336 -0.016218658797552556 -0.1417202150414253 0.05393058997405011 -0.1374700573293182 -0.002562478615641164 0.053550869375312095 -0.03418643236043687
0.11150574567745652 -0.0555186828538449 -0.02030984990774471 0.1386937113800714 -0.06224308005193945 0.12343987404699064 -0.12412946584585113 0.04796037853913081
0.09296339166654964 -0.0609182547294607 0.12353690538819428 -0.3151103882145934 0.06626836840896405 0.1095475364559371 -0.10443041894527745 0.18977219629848824
-0.004876587928201568 -0.2702353688980394 0.03422133304401913 -0.07960519556495206 -0.08014158524834665 0.1091226666127249 0.049867125006881965 -0.16849693047960174
-0.1004976069570697 -0.06522276883531636 0.03200672925071997 0.08095775345604199 -0.2514347454215233 -0.16077628248410952 0.04235335303090368 -0.17502112723165564
-0.19383083587988736 0.23437323504913987 -0.10945437779516423 -0.10183141360116212 -0.10107120106151544 0.04034329676448644 -0.09868228676772385 0.08996086015431633
-0.027610701192131642 0.002475594070865586 0.07129238457021052 -0.15550463704165754 0.019238934205862368 0.054362443968644515 -0.15243404390398796 0.029140974341978074
0.0842083753617295 -0.02042301363152873 0.4340348923045674 -0.247996621828595 0.09932789401503325 -0.034569677698329596 -0.136739965437709 -0.14182775177717535
-0.21797205603239989 -0.22840616027444782 -0.232335722647387 0.11431258160078725 0.12027674532649915 -0.1105823153016991 0.1997477276734721 -0.02419482619609216
0.011413739345229181 0.2703774096112794 0.09856053496377988 0.04114229748454104 -0.04300493044042535 -0.18088776154901656 -0.20693856982043096 -0.10459760638259605
-0.13476637183275633 0.05733295576545934 0.18623058446251115 -0.14161695302128827 -0.20299117700655875 -0.09323484543889292 0.1781560703817925 0.2873635403409842
0.06506350489021699 0.0590054282321024 -0.1472331085283795 -0.1295142520736928 -0.06909186341719978 -0.1791193653949197 -0.08201838943389005 -0.0018295670190505758
-0.30000509719807744 0.2156936902690608 0.012967733329945335 0.3121503674996186 -0.14674240092219984 0.22734515400458732 0.013908867574943412 -0.16665092060465175
-0.0196545456936466 0.17015526140264223 -0.28957937488124175 0.10660220630641061 0.027303757066632062 -0.1901096592777712 -0.15615901817600125 -0.10085175705745211
