models/wo_raymarching_loss.pt (torch, 326487 bytes, 41 tensors)

module.feat_mlp.0.weight f8 [32, 3]
00000000: 9441 5efc 0c3e d93f 36a7 15c4 a4ec e73f
00000010: e89b 6a57 e998 e03f e931 1ca1 cbbf e8bf
00000020: 9604 2d86 8bc8 c23f 637d cbab b294 c53f
00000030: 32e6 c127 b89c b83f b026 832b a9ae cc3f
00000040: b682 8bf0 3a25 e43f 9b24 f557 f77c a63f
00000050: 6c48 0542 bb1f dd3f 630e da34 f74c b7bf
00000060: 9f14 1949 2cef e3bf c17c 00b3 34f7 e43f
00000070: 8a3f 41f9 94a8 dbbf dd55 1fac e694 c0bf
00000080: 97b7 5053 3321 a3bf 767e bda4 6219 c2bf
00000090: dadc 810a 8e3e dcbf d69d c297 8c68 dcbf
000000a0: b349 3fc9 2ac3 db3f d083 8a46 6e38 933f
000000b0: edeb 4d19 1ebe d33f 1ca4 34bb 1421 be3f
000000c0: 18b8 3939 92b8 e8bf e294 da10 b5b1 ea3f
000000d0: 45b9 bdfa 0ae4 dbbf 686a 230d af82 cdbf
000000e0: 4107 8a99 7a50 e63f ed1d bdf5 debd e03f
000000f0: 46b5 f9ed f875 c0bf 0f4b 5519 eb34 d33f
00000100: d777 df08 fc4e d93f c0e3 fae3 e1ad d03f
00000110: 42b4 93ec fafd bcbf bfe3 3c59 19f5 dd3f
00000120: 5f26 f211 91fa d73f 3e61 a9af df76 e23f
00000130: 7def 474b a3da e1bf 1982 efd0 2646 e4bf
00000140: 4365 0e79 4697 c8bf eeac 5421 5c6c cebf
00000150: 035c 3190 78cf d7bf 1854 0eb7 9497 d9bf
00000160: eb22 f131 4bca e53f c8d9 929f 0e49 e7bf
00000170: 0e9d b405 1a2e c53f c868 d62b 310a ed3f
00000180: 5900 930b ee1d e43f 44bc 1182 45de c83f
00000190: 16c0 2565 b7e1 e23f ccb6 d428 cc0d da3f
000001a0: adfc eef2 c137 dcbf de23 534b 5511 cd3f
000001b0: 8416 fa75 6bb3 93bf a009 c16a b7ad ebbf
000001c0: 7170 54df f71d c6bf 891e 22c5 1670 eb3f
000001d0: 0c21 2b14 f54f e43f b60d ec6b d02c e0bf
000001e0: f010 c16c 697a e5bf 708e d4a9 4517 e83f
000001f0: 743b 3396 4a42 e3bf 9fdd ac23 7781 c03f
00000200: 5fae ec62 e4af c63f b9b5 2c4a 977b c43f
00000210: d83a 895b 84d0 b6bf 9a95 fa93 fc91 e53f
00000220: b2ee ada3 c85d e73f 7d83 4ce5 2504 dcbf
00000230: 4f51 4e6c 882d b2bf bbb1 837f 71c8 db3f
00000240: e0ed a1f6 42c7 e83f 5370 f4a7 c517 b4bf
00000250: 30fa e343 dfae d1bf 30ab a49a 7fd6 d33f
00000260: 1889 b84b 8856 d3bf 8592 41b4 3697 ee3f
00000270: b6c4 55a8 35cc c13f dc10 1f97 5009 d43f
00000280: 7a24 2fcc 341b e53f 639c 89f2 281f cebf
00000290: 6308 002f f75b c53f bc6b 4e94 e2b9 dfbf
000002a0: d15b ac66 bd7e e13f 8a37 a1d8 403e e3bf
000002b0: e538 5fe5 2475 d33f 09bb fc6e 10ae b13f
000002c0: cb5a 7cb2 f827 e6bf 0083 96cf 9630 b2bf
000002d0: e82a 31e8 397e c3bf d401 c81c 7d49 debf
000002e0: 8515 e83b d5b2 eebf 8eeb 5ad9 bc8b ebbf
000002f0: 946a 5345 310b e8bf 74e1 6421 3ee4 e33f
0.39441227574663995 0.7476371602799421 0.5186659533836719 -0.7734125277216296 0.14674514819674717 0.16860040081426594 0.09614134760513407 0.22408022522568194
0.6295447061675847 0.043922166335115885 0.455061735604551 -0.09101815262152395 -0.6229459216780419 0.655176496136754 -0.4321644243363997 -0.12954409984983686
-0.03736267463715064 -0.14139969867663965 -0.4413180449113959 -0.44388117618879386 0.43378705647514976 0.018769953780637227 0.3084788558114145 0.11769227571916513
-0.772530662315833 0.8341927842308474 -0.4357936333316455 -0.2305506528999388 0.6973240851222969 0.5231776046356892 -0.12860023136037507 0.3001048800844481
0.3954458319329865 0.2606129385345035 -0.11325042987637438 0.4680846568549519 0.37466837646988965 0.577010958756581 -0.557939192803573 -0.6335634308598542
-0.19211655531834468 -0.237681881212985 -0.37203802186326146 -0.39987676502761493 0.6809440589359758 -0.7276681057617731 0.1654694106921188 0.9074941497995264
0.6286535478648246 0.19428318835295688 0.5900532699142811 0.4070921324481389 -0.44090317462900935 0.22709146669356434 -0.01923911960195436 -0.8649556241073704
-0.17278955845620517 0.8574327326068253 0.6347604173579682 -0.5054704768994529 -0.6711928485970287 0.7528408352849976 -0.601842206344243 0.1289509700961675
0.17724280195521921 0.16002169725235918 -0.08911921725050875 0.6740706339084455 0.7301982113708247 -0.4377531756636513 -0.07100727695644092 0.4341090913065064
0.7743239228288381 -0.0784877333684915 -0.2762983477586287 0.30996694661978363 -0.30215651888478723 0.9559587021472714 0.13904448241695427 0.3130685306353038
0.6595710742923437 -0.2353259262338013 0.16686906619003414 -0.49572052462616134 0.5467211728417799 -0.6013492804574849 0.30402490996938375 0.06906225881241936
-0.6923793302583702 -0.07105391090454916 -0.1522896178961084 -0.4732353955332915 -0.9593301935243949 -0.8608078236787706 -0.7513662675877009 0.621611657355102

module.feat_mlp.0.bias f8 [32]
00000000: 0d07 b502 cf5e 99bf 4030 85f5 c302 d33f
00000010: b884 840a 9cc2 cebf 5763 39c0 8fb7 df3f
00000020: 7109 9683 bd61 c1bf 4b78 cdd7 2db7 e0bf
00000030: 09b8 7e60 b2f6 d0bf 3b99 a79e 1474 d23f
00000040: 30df b20d cd01 8abf 7e33 e127 1ae1 cbbf
00000050: 5525 b4d0 362e e03f 2dc8 fefc a37d da3f
00000060: eca5 1ff5 4dac d7bf cdb0 a742 b8d6 afbf
00000070: 4171 348a 62d7 b83f b355 04d3 f663 d53f
00000080: 0f7f 2c64 d167 bc3f 893d 467e 1851 c7bf
00000090: d9a0 d842 02d0 c43f 3663 1134 b4c8 abbf
000000a0: 6fd4 48fc 92e9 d1bf 7fe5 0e5a 735d d03f
000000b0: 9207 f33e 5f57 a5bf 77e6 dafd ea2b de3f
000000c0: fe68 244e 6598 b43f 5084 d006 4a1d d03f
000000d0: 78be d9a9 220e b1bf 0b47 ab19 5132 d53f
000000e0: 0e01 13ca 1c44 babf 9f72 a775 eb05 dabf
000000f0: 88fc b3df cbaa b5bf e3e2 5c7a 9825 bebf
-0.024775728740912096 0.29704379059399244 -0.24031401170308242 0.49557870647327235 -0.13579529690839423 -0.5223607268233165 -0.26505717681254787 0.2883349942552688
-0.01269874761634035 -0.21780707309008202 0.5056413723224674 0.41391849237982364 -0.36989163339475684 -0.062185056816674945 0.0970365130819504 0.334226327964042
0.11095913596772909 -0.1821623436521629 0.16259792579626867 -0.05426562438578346 -0.27988123547704097 0.25570377154107143 -0.04168222087311259 0.4714305380872256
0.08045037420052734 0.25178766885261883 -0.06662193915121317 0.33119609362357555 -0.10260181363537788 -0.4066113137212514 -0.08463739596844466 -0.11776116359113646

module.feat_mlp.2.weight f8 [32, 32]
00000000: c7ee 6609 f789 d23f 7e8c 214d aad4 c23f
00000010: 6522 d9d8 e07a cc3f b254 de2a 6f7e c2bf
00000020: 66e7 87c3 0451 a33f 10e4 5d7f 8cc2 cf3f
00000030: 11f0 8396 2159 c63f 2f5f ea12 b31c c4bf
00000040: 780a e297 d4fb 84bf ca2e e713 478b cbbf
00000050: a6e2 6d17 f171 c8bf a922 8595 e1cb b4bf
00000060: c846 e1a4 aae8 dc3f 65ef 9644 0ecb d53f
00000070: d027 a55d d391 a7bf d628 bbb6 c78a cb3f
00000080: fd1e 5c76 b1e9 b63f 2b4a 97c4 0819 debf
00000090: 3507 e2be 9259 a13f 34c8 169c a139 e93f
000000a0: 2800 2c24 3cee c13f 86c0 9efa d071 c5bf
000000b0: 44b1 4c29 649c d13f 3fe4 f8cd e774 c2bf
000000c0: 667d b360 fe89 c63f ec51 02aa 1117 a6bf
000000d0: 4666 dbdc 2a82 c03f b008 def9 5107 c63f
000000e0: 2f6e 5010 258d e3bf 9052 1689 bc2d d8bf
000000f0: 50a4 8533 acc2 d93f 5cea be44 b5a6 cf3f
00000100: d7b2 a1b1 9e38 c1bf 9f91 e070 e202 c43f
00000110: 8fa4 6736 3022 e8bf 0087 6681 0565 aebf
00000120: b6da abcb 0a2e a8bf 6f3f 480d 169f 8bbf
00000130: 2cce 96a3 ebf9 c53f 95a0 8545 d1a5 9e3f
00000140: 0c66 4902 5830 c43f 7fe7 93ad 75c6 c1bf
00000150: 4621 c7d9 74f1 c3bf 4eb9 7e56 93fa c5bf
00000160: 503a f7f1 3a28 933f 88ae 646f 98ed ca3f
00000170: cb62 ac03 51d1 b0bf 1bcf 9ad7 107a 94bf
00000180: e2c4 353b f672 8b3f ef8c 9992 4a61 74bf
00000190: 1f3b c54f f15a b0bf d5f6 d4a0 e5a0 e33f
000001a0: 938d c313 f1f4 b1bf 4e91 10a9 0fe1 b6bf
000001b0: d5ac 6d2d 4ea7 d5bf cc69 40a7 9907 a7bf
000001c0: ce82 eebb 0fa7 c13f be38 5e1f 3c1b b33f
000001d0: 63fe 0c47 85e7 d13f 58c8 8ba4 9a36 bf3f
000001e0: a07f cda4 4d6d c23f 84e9 0576 4164 edbf
000001f0: 710c 9fbe 16ae e2bf d0f0 1c85 ec7d ddbf
00000200: 7e47 639b 3405 97bf ea0a 4db2 4caf a83f
00000210: dffa 7485 b8e5 c43f 1897 476d bcf1 c6bf
00000220: 4ba0 a0ea 6cb8 80bf b71c e997 4e33 cc3f
00000230: d817 3569 813b aa3f c901 19a2 3236 96bf
00000240: 9d77 456c d6ad c73f 3d88 54ef 507b 6dbf
00000250: ada7 7787 ba03 913f 1f0d 2678 75a8 b2bf
00000260: 5193 0a12 6ff7 b4bf 52a6 a104 11ba c5bf
00000270: 394d 7bfc 630e bd3f 2819 c948 183e a23f
00000280: 85e7 e383 3a98 bdbf 3414 5b33 d037 d03f
00000290: 3690 0f41 78ff c3bf 818d 33c0 0206 bbbf
000002a0: faa2 86ef 085a d63f 3490 b2bb 1bff cbbf
000002b0: 8eef 1748 f793 d03f 2052 b330 5739 b13f
000002c0: 8e21 6902 9e3f bdbf 1489 8835 8299 843f
000002d0: 640f b2b7 c7ff b33f 5aab da2b 40d0 be3f
000002e0: 4604 9d39 498b b53f dc28 4698 c762 acbf
000002f0: 4efd 3336 db9c e03f 674d 0c82 0611 d63f
00000300: 4b9d a76d efd8 a23f 307b 0412 ee12 b3bf
00000310: 0922 47ea ae0c cc3f e6f6 c8ad 8223 a33f
00000320: 2e86 1f79 a71a 9abf e04f a57e 473c c5bf
00000330: 6eb8 2130 4941 c2bf 926b dcdb a5d2 c3bf
00000340: 6973 e899 e70b cbbf c090 4d1e 6820 e13f
00000350: d0dd 2ece b65b aabf eb50 0aaa 0d94 7d3f
00000360: 73e7 6414 79e0 a23f 160d c6bb a406 d63f
00000370: 3b84 0a09 9730 c1bf 7c4e cd6b 5ccc a33f
00000380: f044 1919 4b43 c03f 1c64 dd57 ca63 d43f
00000390: a2d4 8ded 4ad6 b53f 3904 a129 9350 d0bf
000003a0: 2754 016a 6641 b03f fe22 71b8 1e82 c23f
000003b0: 27ef fa25 43e6 e53f f30e a55e c234 a3bf
000003c0: cd15 2de6 58b4 c13f 5c96 68af 3305 aa3f
000003d0: 9aa5 e66a 0f9f bc3f 9790 af37 74de bcbf
000003e0: b62b 920e f684 ccbf 4a94 5eda 7187 983f
000003f0: d2e4 770d 7981 d73f 89a9 712e 1aa5 e3bf
00000400: 92d5 155c 9a8d 70bf 7853 236e b096 c9bf
00000410: 30f6 2138 cef2 dcbf 61d5 b8d2 d317 bcbf
00000420: 3314 ea64 9157 b4bf 2baa 995e 2edf bc3f
00000430: c459 c294 c1f5 d7bf 7003 2260 fa58 a23f
00000440: c063 30cf 4a2d bd3f d138 ee63 212f dbbf
00000450: 2f5a 2257 edc4 c2bf 9318 8816 5da1 ab3f
00000460: 86d6 cee5 73dd c83f 499f b679 99ff db3f
00000470: 5f7b f393 8341 8c3f 3010 3739 5f28 acbf
00000480: 7637 e1cb 6b31 a83f bc63 9762 2643 d23f
00000490: c9a5 a4c2 b947 c73f 44e3 1465 22f4 d63f
000004a0: 2fb7 bdad 7d87 cfbf cd05 3e41 3f7f c3bf
000004b0: 3256 e786 6020 a2bf 35a0 7883 e902 bcbf
000004c0: a742 b554 ebfd c63f 06e0 23d4 76ea a03f
000004d0: e720 5f0b 2692 cf3f 0235 cfcf 1db5 b43f
000004e0: 8107 97f1 8e49 c43f 1e18 10f6 3878 d1bf
000004f0: a6c2 6f07 af44 df3f bea6 43fb a1e0 c3bf
00000500: 1436 f8b2 e012 d33f 07ad 6ae8 f315 c23f
00000510: 45e1 7261 1b1e d23f d6c9 4125 a912 bbbf
00000520: 9f76 3a51 0fff cf3f 2b0a 9783 3250 a2bf
00000530: 909f b0af fa77 cf3f 230b 5b91 8e4f c2bf
00000540: ed84 8cab c1ce cd3f 5bd4 8f70 9ecd be3f
00000550: ba24 026a 72f9 b3bf 1dad 3332 a60a b1bf
00000560: ee84 5e71 524a c53f c7a4 5d41 c956 d23f
00000570: bdc5 7673 1250 d73f b1b0 af3c 45d0 bb3f
00000580: 83f0 2e96 8a4f c53f 2fb9 50ef e0e2 d13f
00000590: a59d 4001 682e cc3f dc81 6c21 db39 de3f
000005a0: b5a5 17e5 ccdf c73f 5acc 18bb 5c6b b53f
000005b0: 33fe 30b7 48a3 d43f 02ad 2664 6f72 a4bf
000005c0: 97f6 69ae 5c39 d43f 4aa7 47e5 fb05 ca3f
000005d0: 0e00 003d 8af2 d93f 57cc 0486 c440 a0bf
000005e0: 6c76 23c2 0a5d e23f 35d9 6502 cf62 babf
000005f0: ea65 0ae5 d866 d03f 2f7c cb5a fccc d83f
00000600: 2365 8205 a78b ca3f 221d c4f9 b836 cabf
00000610: 68a0 c855 f5ea c53f 0b5c 42da 9e0a 95bf
00000620: 5d83 60e6 2346 cc3f 45e6 b799 283a acbf
00000630: ad1e 7ae3 f761 b23f 4771 10a2 b2e7 bc3f
00000640: f719 3265 384b d03f 5cb4 5476 a1e9 923f
00000650: c13d bbf9 a920 b93f 8736 52a1 a42a b13f
00000660: 28e8 9f24 39de 86bf cb82 e8c2 2027 c93f
00000670: 38e9 2c11 e5e5 883f b569 1b01 7d71 b2bf
00000680: 11a4 953d f9a5 963f 74eb 0464 3f9b c63f
00000690: 8237 3475 b254 ba3f 0ef7 447c de62 bf3f
000006a0: 97cf f073 514c d33f 1f6e 7f14 ae5d 92bf
000006b0: 87c5 5889 fa75 d53f 5306 d994 6564 c0bf
000006c0: 3e1b 96e0 fd49 ae3f 8eba 55c0 82ca 923f
000006d0: 1e79 17be 65e4 c53f c559 8d53 7a52 cdbf
000006e0: e14a 0472 524f dc3f 99d0 0964 b376 c4bf
000006f0: 49f0 1f8b 77b9 b83f 02b2 2c1e 6e5e de3f
00000700: c572 cf7c 4e73 c1bf 5332 7d74 e3e7 c13f
00000710: cef2 abd3 7099 d53f 80ca 67ce d52c c53f
00000720: 8e38 29fa 0a4a dbbf e10f d12a 5eb3 c3bf
00000730: 0fa6 d177 a49e 9e3f ee49 07f0 96a9 c9bf
00000740: b268 3a5b c09d d7bf ceca b971 d37c e53f
00000750: ecf0 203b 5937 d2bf 7110 cabd a97b afbf
00000760: d961 2fc4 661d c33f a03a 4699 77c1 e03f
00000770: 1c75 301e 7124 be3f f82d c804 9ec0 aabf
00000780: cf69 0156 6dee a3bf 756f ed66 3056 e03f
00000790: cd41 b66e aee2 cd3f 1b7e e5ae d6da d33f
000007a0: f903 9e55 acfb ccbf 75ad a6cb acf4 5fbf
000007b0: 14ce 3b24 1c00 c23f 9b80 37ec bef1 c2bf
000007c0: 2968 d035 4648 ab3f eccf 5fec 3e9b b33f
000007d0: 6977 e01f 352f d03f a05f 392b dc80 c53f
000007e0: a216 9b0d 8530 c33f c444 f54b a444 a83f
000007f0: 887f bbd3 781f dc3f 0d24 c586 7d22 e5bf
0.2896707145516583 0.14711502805866766 0.22249994838991252 -0.14448346703708165 0.037727497929110496 0.2481246587665571 0.17459506844886666 -0.1571258394585526
-0.010245953450298759 -0.21518791648701657 -0.19097722667699663 -0.0812359800376138 0.4517008409649006 0.3405185384578913 -0.04603443639878402 0.21517273352066607
0.0895033754314873 -0.4702779693444962 0.033886514474046704 0.7882850693333752 0.14008285299496603 -0.16753589856444168 0.2751703646961412 -0.1441926723216813
0.1760862323926446 -0.04314475250535907 0.12897239479097972 0.17209839535286653 -0.6109795874248841 -0.37779153239652263 0.402506876291743 0.24727502686239944
-0.1345404021589249 0.15633802901824098 -0.7541733801455325 -0.05936448292346874 -0.047226273882122013 -0.013487026481953738 0.17168946731327261 0.029929418438229567
0.15772533523231436 -0.13886900878406647 -0.15580616601642755 -0.171709458574194 0.018708153742233613 0.21037583769917867 -0.06569391574556531 -0.01999689403483194
0.013402866060206301 -0.004975596713481452 -0.06388767430801721 0.6133907452819708 -0.07014376385227754 -0.08937166097218105 -0.33833651005143156 -0.044979859987694576
0.1379108111987279 0.07463432088681807 0.2797558969359441 0.1219269420360275 0.1439606718731712 -0.9184882455004275 -0.5837510798522897 -0.46081078528710595
-0.02248079489147114 0.04821242977643243 0.16326052204563887 -0.1792521985618627 -0.008164263639699373 0.2203157655478429 0.05123524102468452 -0.021691123145730438
0.18499260222136807 -0.0035988407859273417 0.016615786093019547 -0.07288297828022337 -0.08190054121457747 -0.16974079824585658 0.11350083269217216 0.03562999619002688
-0.11560407371498911 0.2534065724869976 -0.1562338178329143 -0.10556046669403508 0.34924529448703334 -0.21872278847615834 0.25903112450009125 0.06728119791962017
-0.11425197180608945 0.010058419474323212 0.07812164530520033 0.12036515303286191 0.08415658623290864 -0.055441129053251464 0.5191474970487577 0.344789149284415
0.036811334739292954 -0.07450759830360876 0.21913706244801315 0.037380298341742876 -0.025492302673120353 -0.1659020775210811 -0.1426173672693411 -0.1548659633197898
-0.21130080237426377 0.5352058975081704 -0.051480972927887 0.007221272827013995 0.03686884283020122 0.3441554864622999 -0.1342953485628032 0.03866852584783673
0.12705363011858806 0.31859072285220846 0.0853010969129451 -0.2549178988011281 0.06349792564408628 0.14459594732240783 0.6843581907082567 -0.03751189618426833
0.13831626166408598 0.05082093731134016 0.11180206642042947 -0.1127693782760296 -0.22280765258287055 0.02395418067284919 0.36727739634768597 -0.6139040858372918
-0.004041293113336579 -0.19991116884071025 -0.45231967431741094 -0.10973857779102537 -0.07946118081788782 0.11278047380043492 -0.3743747666098012 0.035835098490685335
0.11397235449147924 -0.4247516132244416 -0.14663473848914196 0.05396548175853968 0.19425820084659423 0.4374755562407598 0.013796832993134776 -0.054995513662590034
0.04725205291525374 0.2853485071951203 0.18187639240322387 0.3586507784962587 -0.24632235511256215 -0.15232077298791893 -0.035403267352802095 -0.10941943607088052
0.17962400089392824 0.03303881969071658 0.24664760165456487 0.08088861773940795 0.15849482342133217 -0.27296279935433343 0.48856712080218256 -0.15529274719965785
0.29802720525262427 0.1412949452254468 0.28308758274535634 -0.10575349006266008 0.24997130838612677 -0.035768106997711456 0.24584897593126387 -0.14305288407748504
0.23287220837031644 0.12032499549953128 -0.07802500808806459 -0.06656874395018915 0.16633062873464816 0.2865470064485404 0.36426221156861144 0.10864670497511743
0.16648990948840856 0.279472573953984 0.22016620694306002 0.47228124870346533 0.18651734529639233 0.08366946761889107 0.32246606721671184 -0.03993557069346744
0.31600110085114735 0.20330761618907395 0.40542846638709384 -0.03174413810702308 0.5738576690452653 -0.10307020004788543 0.2562772976612836 0.38751133791623976
0.20738685387622366 -0.2047950000344168 0.171232859503337 -0.02054832656048337 0.22089051007153673 -0.05513121487088005 0.07180737784994547 0.11291042763372615
0.25459108240502765 0.018469355437606402 0.09815466258009221 0.06705693186287408 -0.011166044645495601 0.19650659100536524 0.012157239519741667 -0.07204419400242197
0.022117514022657107 0.17661278136969438 0.10285487519669625 0.1226023724929883 0.30153309175806825 -0.017935485840878337 0.3353258458401673 -0.1280638672633808
0.05915826193363792 0.018350642193974802 0.17103263646908656 -0.2290795238465774 0.44234143385362584 -0.1598724592655614 0.09658000132179824 0.4745135588334791
-0.13633137792830588 0.1398891753000436 0.33749027892171746 0.16543076113119426 -0.4263942187288955 -0.15391137209564845 0.029902047932784778 -0.2004879638685248
-0.36900338086128237 0.6714875432210989 -0.28462820791516097 -0.061490349214211266 0.14933476046895924 0.5236165994300173 0.11774355876010073 -0.05225080307362967
-0.03892842936393814 0.5105211267759687 0.23348026662689705 0.31023184852344493 -0.2264304559758157 -0.0019504249054119436 0.1406283547326984 -0.14800249609016167
0.05328578383360167 0.07658761282783616 0.25288131821604637 0.16799499617149838 0.14991820492121116 0.04739869525168097 0.4394208972644198 -0.6604602462986137

module.feat_mlp.2.bias f8 [32]
00000000: 1b88 2363 af73 aabf 6640 38ff 4c63 8b3f
00000010: 2538 0f0d 9fad b93f d251 d0c5 bd70 bcbf
00000020: 3097 6c09 f62d b53f 17e7 5a8c 3057 b5bf
00000030: 1a5b 5d23 0781 b93f 5abb 147d 066b b0bf
00000040: 63cd 123e bd57 d03f a398 3b19 708c 72bf
00000050: 83ac 9d38 f0ab a03f a40b 8611 1a45 a7bf
00000060: 0c3c 4015 e568 b1bf 43c4 4554 167c aabf
00000070: c320 25d8 c537 9e3f 38b8 5fef 85bf a6bf
00000080: b43c 10c4 79d5 c1bf f39d 46c7 02b8 c2bf
00000090: 705b b338 69a3 503f 2b67 1d3d f5a5 c13f
000000a0: aa7b 3f68 3d76 c9bf 6787 5462 d813 c5bf
000000b0: 1635 9e86 a3fd b9bf 6ce4 f663 299d 9fbf
000000c0: 214c a61b d11f ad3f b90d dbf9 48ec ccbf
000000d0: ce75 35b1 6036 b53f 2f88 a41c 68aa babf
000000e0: 9eb9 e7d8 8c29 c2bf 1a46 b3ca ad54 b3bf
000000f0: d20f 2d5b f969 9d3f ba80 b30f bffa b3bf
-0.05166385731878639 0.013372994936645632 0.10030550068697204 -0.11109529570996493 0.08273256044466559 -0.08336165835035235 0.09962505925555512 -0.06413307718024211
0.25535517751560216 -0.004528463253995837 0.032561785613176596 -0.045449080123055624 -0.06800681847401807 -0.05172796038358076 0.029509631459661245 -0.04442995593113647
-0.1393272597638081 -0.14624056558862683 0.0010155227235395213 0.1378771351253872 -0.1989208945296615 -0.16466812897948133 -0.1015264705331059 -0.030872961737007307
0.05688336813468476 -0.22596084785446438 0.08286098791491911 -0.10416269969258062 -0.1418930110080056 -0.07551084707963476 0.028724571409170903 -0.07804483540849363

module.feat_mlp.4.weight f8 [32, 32]
00000000: 1d66 d564 9221 c23f 4380 de67 4fbb bdbf
00000010: d252 3297 6a03 bebf 4a2d 0442 f14d b63f
00000020: 58fe b755 bd5f c0bf aed1 8009 7444 cb3f
00000030: 2ed3 ecf6 7e6d c2bf 72b5 6925 5da9 b1bf
00000040: 8dfa cf88 a607 cd3f 1537 22ce f975 503f
00000050: 8434 034e 405b b63f 0694 25d0 4b82 cd3f
00000060: 801f 84b7 f593 b83f 28cc 6b97 b772 bdbf
00000070: 8196 9862 3089 70bf cd8b 2642 19cc 79bf
00000080: 7533 49b5 3706 c7bf 660e 2863 731e a5bf
00000090: 8494 00a7 d457 b5bf 9d92 873d 1613 b4bf
000000a0: 3ef1 f1cd b058 b1bf b6b0 b116 14ff c03f
000000b0: 58b6 428c 7ffe bd3f 6a72 bec6 19b6 c53f
000000c0: d966 d050 8a7f 7fbf 42d6 51d4 6ff5 b73f
000000d0: 7846 e3a9 d8e7 c53f adc6 f156 c4f9 b8bf
000000e0: 8636 3519 7e46 c83f 066c 39f6 d4f7 c0bf
000000f0: f5fb 9c95 807b c4bf 14da d93a 7d1f 933f
00000100: 987a a59e f2a7 993f 3516 5ebd 6a31 a53f
00000110: f73c 4552 279c b23f e06b 9d81 83ef 933f
00000120: 1ba8 19bd 6b0f b93f c3d0 5cf4 c7a4 d03f
00000130: bb46 a5ab 6a26 a03f d3c4 1fc4 b949 abbf
00000140: 99b8 4197 c57a 9abf d03c 940b 8960 873f
00000150: 9f8d d69d e9ef a83f aca4 b638 fe7c a93f
00000160: 2c6d 22bf 460d c5bf abf0 4950 ddaf b4bf
00000170: e79d 6c91 0cd6 a83f 2ade 3e55 9376 aa3f
00000180: 4b9c 50f3 76ff 9a3f 22f2 83bb 2679 9a3f
00000190: 58f1 bb02 226f cb3f 86ca f557 7fe0 cabf
000001a0: 69a4 a568 f0ab 9cbf 2c2e f6b3 bf0b 5fbf
000001b0: 57fa 278e 17f5 b53f ca43 0166 b716 c83f
000001c0: 8c1f 6cc9 6ee5 a23f ba1c 2022 3fa6 b3bf
000001d0: 4d42 980a 6a85 ca3f c957 28d4 9121 b83f
000001e0: 3342 4015 26a0 c03f cd19 c52f 6954 b6bf
000001f0: fee8 22af 4fd9 5b3f 157e b5f0 2d98 c6bf
00000200: 9a66 9866 1722 c5bf 44ad 0d2c 6bcc b33f
00000210: 500d fa1f 81a8 ac3f 7fb7 fe15 fe51 c3bf
00000220: 3523 d7ba b4e1 98bf 65e0 3bd9 54dc c13f
00000230: 404d 0042 ffc4 8abf f8cf 33d5 5a66 b63f
00000240: 194b 2501 bca8 b2bf 94e6 1a80 1f40 5bbf
00000250: 6139 e461 8f62 c4bf 7229 3a15 8468 c2bf
00000260: d64f 0076 527b 8dbf 34f1 bebc d0e6 acbf
00000270: df39 87de 7862 bd3f 6aa2 dc54 9461 bb3f
00000280: 0a84 6879 d39f b03f ecc9 f18c a3c1 bc3f
00000290: 059a aca6 cc15 c83f 5f60 3c6d 8181 c4bf
000002a0: 7f46 0c62 5bb7 ba3f 3a96 4c7c f340 c9bf
000002b0: ec2a 73e3 6a97 a0bf e0e9 8499 aa1f c1bf
000002c0: eb0e b8a0 15a3 b33f 880d b535 f638 ac3f
000002d0: e065 262c 5b3f c53f bb23 f534 b400 ab3f
000002e0: 24eb 8aa7 cf2b bf3f b3f8 d2af fae6 bdbf
000002f0: 9e50 ce91 c471 af3f 6b28 9d91 c233 c53f
00000300: e1e1 7553 a0d2 633f b83a 20ad 8936 a0bf
00000310: f88d bf4c 3a38 a7bf 3c18 b653 25ac 873f
00000320: 878d 2255 3890 973f def8 e3c8 a0d5 bbbf
00000330: 9999 ffb8 d4be a4bf e2a3 609c fc94 bfbf
00000340: 4ed4 d83e e0c9 bf3f cfe3 803c e484 cbbf
00000350: 0464 8fdd fa3b acbf 86cd 1640 6761 d0bf
00000360: a7a1 aea8 2692 b83f 3cf6 8760 1644 9dbf
00000370: 3084 ad31 16a0 99bf a755 63c1 2273 8d3f
00000380: caf4 36ad 52e9 a73f 84bd c324 ad8f a13f
00000390: 58f3 bf11 e22a bcbf c52d ad7e bc14 b93f
000003a0: 2dc8 7e4d bbf2 96bf 0aad 36a5 2553 6dbf
000003b0: 586b facd 3dd5 af3f a8ed 1765 2127 c03f
000003c0: 4463 2eb9 c369 c5bf 2404 ee60 d50b c1bf
000003d0: bf8a bcad f937 a1bf 313a 6077 30a2 c03f
000003e0: 2102 2c4f 47e2 b2bf 4d91 8afb 28a9 bb3f
000003f0: 4d2f 868f c8c7 b2bf f911 d318 8a81 9ebf
00000400: 9193 fcee b2ff b33f 04bd bd01 a428 c1bf
00000410: 73c8 116e 0046 b93f 2cf6 7701 0c2e c03f
00000420: abb1 119b b156 c2bf 9e23 25af 3d54 abbf
00000430: af2d 2071 85a7 a0bf af08 c0c9 6d76 c83f
00000440: 2436 9ec3 8fba c3bf e95e 0b50 4283 84bf
00000450: 90f7 ac3c f59b b43f 1101 f4ca e12d c2bf
00000460: 23ec d967 ea0d a9bf cfbb b041 3507 a03f
00000470: e9b7 ce00 d72c 95bf 758a ddc3 049c b8bf
00000480: 01a4 4085 d276 acbf e71b 00bb 7239 7bbf
00000490: 16a3 65f2 d712 cfbf 1563 d3ce 1e3e c5bf
000004a0: 5ec9 5d01 1bd0 aabf f97e 1541 72e8 bcbf
000004b0: 1dcd d3e3 22f2 b23f fa63 7ce8 7387 bebf
000004c0: d8ef 6a7e 7326 b13f ba24 7f21 74f5 93bf
000004d0: 8a1a ffe8 d59a bcbf 8be8 03a9 57c9 c33f
000004e0: f78a f9d3 cd46 b6bf 8dd8 cc4c dab9 ae3f
000004f0: 454b f02e 80c2 b23f bf40 bd23 442d a13f
00000500: d393 8aef ae69 c5bf eb67 b698 0f09 aebf
00000510: e989 635b b880 babf 977a 4d11 7ee6 babf
00000520: e3f9 b25b ea9e cbbf 1a18 3718 927a d2bf
00000530: dbfa 6571 0010 b0bf 64ad b5e1 51c0 8a3f
00000540: 9ff5 e791 ba64 c63f 2a92 c50f 0756 d1bf
00000550: 89d6 52df 3075 903f 1e2b 8a92 1d04 bdbf
00000560: ffb2 b881 e2ec 743f 01aa 9e04 53de c6bf
00000570: f59b 5119 8205 8dbf 35ae d0f0 90be c8bf
00000580: 86db c17b 7004 ccbf 4bdb ec4c 42b1 cfbf
00000590: 0e44 cc87 5362 813f 6f2d c8b4 9e16 d13f
000005a0: d419 29f9 78ef c0bf dd7a 5f89 b607 b33f
000005b0: 1c5d 35ff c6d8 b43f 1e1e 52b6 a7db c3bf
000005c0: 76a6 4343 92ed bdbf 1b6d 69e3 9889 b6bf
000005d0: 3f3a ca62 9d3d cbbf 7f99 7897 6a04 62bf
000005e0: faac 6584 0f54 bdbf 4ab4 366d 1c34 c9bf
000005f0: 2c29 eded d4e0 ccbf cd9d c988 c17d b33f
00000600: 5429 c3ff 8e69 b8bf 5394 a6eb bb50 85bf
00000610: 45f5 5f98 72a2 983f 3c8e 350a 65c9 c4bf
00000620: f8f2 a3ce 6362 b0bf 06c9 9d1a 918c cebf
00000630: 4e9f b498 4117 a5bf 57af 0c4a ba1f d0bf
00000640: e243 09f6 4f1a bd3f 96a2 029b 86bd ccbf
00000650: d32a 3c5f 97c9 c4bf 1380 1f67 2a8f 4fbf
00000660: 417a 824d f50a b9bf 813d 85b1 01da 92bf
00000670: d53b 76f5 5431 bbbf 9783 8ff0 7aee c0bf
00000680: e735 1405 f468 acbf e5e9 74a5 7861 953f
00000690: 180b 046e 4ad3 bbbf a4e4 104f 5180 a5bf
000006a0: fd36 3936 ff06 b6bf 82b3 f290 73c5 c73f
000006b0: 1f25 8d53 492c b9bf 092a 4807 a72b af3f
000006c0: fe9c 188c 16c9 b1bf 13d4 6ffa 82d1 b1bf
000006d0: 9c28 bcf4 62b4 b3bf 9f83 1450 f8b7 c53f
000006e0: f03c 461c 13d1 98bf 25f3 931c 456c a33f
000006f0: c2fe 6f6a ac12 d0bf 9d4a 1499 4afa b43f
00000700: c772 e49a 8b1b 95bf 52ac d52d 1cdc bebf
00000710: f67f 6856 84dd bfbf 31d4 fad3 fe24 b6bf
00000720: b126 3f62 ccd5 623f 0af3 cdd6 ad4e ad3f
00000730: 9bf2 d9fb ec87 c03f 9acb 07ad a590 bc3f
00000740: 285c 4815 8c78 b43f 550d 7876 9c8a bd3f
00000750: aaa0 93eb c468 b13f 8176 dd6d 7449 b9bf
00000760: 7ced e8c1 810c bdbf 582c 60fc 4926 b53f
00000770: bbb4 8fbb db6e c3bf 4e7d be0b bcaa c6bf
00000780: 193c 0db6 6f77 a23f 0692 8ed0 8cd9 b1bf
00000790: 55a3 0c7f fb29 7ebf 89c8 800e b497 ae3f
000007a0: 8491 38fe 97e9 7d3f 5e66 e014 8978 b13f
000007b0: 9fb2 d21f 329e b63f 98f2 9db2 6222 8ebf
000007c0: c115 ebf7 05a9 a5bf a6e2 8a49 a027 a5bf
000007d0: 4963 4591 426f be3f e46f 5a90 2b10 c3bf
000007e0: 83fe 626b 2853 b93f 199f f634 d12a ae3f
000007f0: 27e8 8711 3fb4 c9bf b51e fade a5e6 a6bf
0.14164953158869845 -0.11613937650554455 -0.11723962966272986 0.08712680684782473 -0.1279217403934918 0.21302652801535998 -0.1439665513695671 -0.068990537294402
0.22679597549718658 0.001004690122985823 0.08732988266565839 0.23053882277886845 0.09600768785833047 -0.11503169485858733 -0.004037083630043293 -0.0062981592804218335
-0.17987724639752015 -0.04124794564634442 -0.083371439716375 -0.07841624262034448 -0.0677595618053077 0.13278437717543107 0.11716458486872605 0.1696197719983446
-0.007689991279244268 0.09358881887040929 0.17113788886358683 -0.09756114123026789 0.18965126257755943 -0.1325632288233864 -0.16001899056752192 0.01867480918596172
0.025054732258804252 0.04139264642348587 0.07269521482998074 0.019468359743182506 0.09789155356125472 0.26005743850261015 0.031543096020539584 -0.05329685706227285
-0.02585896239946148 0.011414595285286572 0.04870538760885811 0.04978174631407603 -0.16446766216982078 -0.08080847940613249 0.04850806498717102 0.051685909419969825
0.02636514530254556 0.02585278052809959 0.21432900556090817 -0.20997611803939636 -0.027999645602367815 -0.0018948909854285085 0.08577105732545341 0.18819324951848976
0.036906683051767336 -0.07675547202244362 0.20719647900888774 0.09426223210934305 0.12988735234877566 -0.08722550789125379 0.0016997602620408277 -0.1765191483818717
-0.1651028872445764 0.07733793092272828 0.055973086503423475 -0.15093971322988506 -0.024298499969322058 0.1395364819252364 -0.013071054650970582 0.08749931054245497
-0.07288718250246652 -0.0016632373448558823 -0.15925781516893792 -0.1438145736359036 -0.014395374513732333 -0.056448481598155104 0.11478381569688832 0.10695769378492917
0.06493875230854954 0.1123296946623566 0.1881652654494276 -0.1602021964433815 0.10436030524967953 -0.19729465073867108 -0.03240522409904209 -0.13377888198904397
0.07670722173503079 0.05512208371740274 0.16599597602616623 0.05273974558310309 0.12176225510021915 -0.11680571358280893 0.06141485481126206 0.16564209089330303
0.0024197703712014328 -0.03166609037736151 -0.045350858563121876 0.01155881082264553 0.02301109332678444 -0.10872845558694474 -0.040518424589936326 -0.12336710756120753
0.12417413267469721 -0.21499302820464414 -0.05514511065093333 -0.25594502695749843 0.09598008745400098 -0.02858004535845836 -0.0250247447796747 0.014379760290846045
0.04670198788105891 0.03429928849970579 -0.1100293439230432 0.09797266094863406 -0.022410322766241265 -0.0035796866665883708 0.06217377795584039 0.1261941665287456
-0.1672901777463044 -0.1331736300744818 -0.03363018270308293 0.12994962529087808 -0.07376523669155023 0.10804992810387155 -0.07336095336921496 -0.029791028752486046
0.07812040648111764 -0.13405275425927965 0.09872439086191935 0.1264052397890948 -0.14327068397268525 -0.05337708247186089 -0.032528085765160746 0.19111416197853745
-0.1541309075513918 -0.010015981738816975 0.0805047295698087 -0.14202520761319495 -0.04893429296222276 0.031304992932170365 -0.0206788629763465 -0.09613065511579484
-0.05559404255502188 -0.006646583715343524 -0.24276255927841167 -0.1659582624331725 -0.05236896888426899 -0.11292184914554672 0.07400720655623556 -0.11925434518742853
0.0669929679524438 -0.019491018814538498 -0.11173760355368692 0.15458198311518276 -0.08701788354077765 0.06001169383527936 0.073280345401412 0.03354847847242714
-0.1672876996646254 -0.058662879363694596 -0.10352661353275718 -0.10507953569820426 -0.2157872150182377 -0.28873112072722196 -0.06274416702761292 0.013062133503544522
0.1749489986831749 -0.27087570705615127 0.016072047834959 -0.11334404780988591 0.005108723441975326 -0.17865979886603614 -0.014170662305515317 -0.19331561811974188
-0.2188854793818928 -0.24759701496233286 0.008488323766444619 0.2670056119393029 -0.13230812231104372 0.0743364415534233 0.08143275957751367 -0.1551408424604554
-0.11690630094713036 -0.08803706695600903 -0.21281783412674035 -0.0021993715161158773 -0.1145639131770401 -0.1969028027791942 -0.2256113206625029 0.07613763417759074
-0.09536069626043303 -0.010407894257534666 0.02405718855879015 -0.16239607809539958 -0.06400131030018119 -0.23866475867868803 -0.04119305600244037 -0.2519365046634809
0.11368274456732722 -0.22453386849271756 -0.1624020781531131 -0.0009631115956345602 -0.09782345907522318 -0.01840975423811875 -0.10622149460526427 -0.13227783914683464
-0.055488229389179904 0.020879635904956024 -0.10869279085094907 -0.04199461069260593 -0.08604426454368404 0.18571323945561963 -0.09833200731113266 0.06087991680040623
-0.06947461052242329 -0.06960314382725157 -0.07697123026824432 0.1696768179909016 -0.024235056496363094 0.037935409296528534 -0.25113973993573435 0.08194414365088183
-0.02061288960350074 -0.12054611319551725 -0.12447383031440026 -0.08650200534141629 0.0022992126341464182 0.05724089858174437 0.12914812371663661 0.11158214067817909
0.0799644042930231 0.11539628879841264 0.06800490142234375 -0.09877708132031594 -0.11347208961608674 0.08261549388423484 -0.151820627768222 -0.17708540509645804
0.03606747720061083 -0.06972580043527196 -0.007364256293649192 0.059751154680626924 0.007302850458959734 0.0682454753845376 0.0883513763134922 -0.014714022708852512
-0.04230517054888195 -0.04131794831977702 0.11888519331604387 -0.14893097446918013 0.09892513868089207 0.058920419421438726 -0.2008131824111967 -0.0447284540833243

module.feat_mlp.4.bias f8 [32]
00000000: f333 21e5 0b22 c1bf f28c cc23 1b58 c6bf
00000010: 38a2 9bd9 478e b7bf 238c e0e3 aaae 7a3f
00000020: 4782 866f bba8 c33f 628a 3a5b 93b2 7abf
00000030: a191 2ed8 0429 d43f 97ca 171a 6929 b03f
00000040: 6e65 1e08 5368 d03f 2713 f0ae 1439 b8bf
00000050: 6b1f 9a35 6078 c63f 283d 74f4 99be c23f
00000060: d50c 0462 5e28 a23f c9d4 9299 6822 c4bf
00000070: 85f0 285b 4cdb b1bf d157 7c20 6afb cabf
00000080: 83af 92d1 2505 babf 2256 a377 6fa2 bd3f
00000090: 826e e0f1 4d68 84bf 13be 8f1f 26aa c93f
000000a0: cf58 de93 d398 5cbf 1fa0 ea05 2a77 d13f
000000b0: 9bb5 0276 6a89 a93f c240 b7ec 7726 cabf
000000c0: 9203 904e d430 bcbf 8528 4cc2 2968 c93f
000000d0: 8dd9 8762 9c66 a9bf 7a32 fc47 c09e c23f
000000e0: 4abf b6dc e236 b9bf bf47 b62f f8b0 bfbf
000000f0: c919 5147 8be5 b9bf 7ba6 a035 5bf8 a33f
-0.13385151565526562 -0.17456378219603824 -0.09201478064245172 0.006514232196454225 0.15358679719521914 -0.006517959223546118 0.31500359641565906 0.06313187491449877
0.2563674525532268 -0.09462098380033677 0.1755485784271927 0.14644169269784268 0.035464238610097766 -0.15730006693562462 -0.06975247598251329 -0.21079756342140724
-0.10164104811218348 0.1157598177990953 -0.00996456999205653 0.20050503293121888 -0.0017454210460293056 0.27289820268424764 0.04987652483519441 -0.20429896410360554
-0.11012007635146251 0.19849130618269242 -0.04961098387495886 0.14546969904803914 -0.09849374664804347 -0.12379408993572748 -0.10115881434567266 0.03900418309815464

module.transformer.to_qkv.weight f8 [96, 32]
00000000: bf3d 6873 ef1e a63f 0837 bb5a c54e ccbf
00000010: 5f9b 695b 9200 c2bf d9fd fe29 fc1c a2bf
00000020: 80ef 209d c12f cabf e1de 82e3 89e1 b73f
00000030: 72c1 9914 d1d0 b53f 6e02 8543 96b3 b53f
00000040: ebc7 8835 8a30 843f b061 eb74 f504 d6bf
00000050: d730 554b 084a bc3f e257 6ad2 c16b b83f
00000060: 5805 646f 69f5 ac3f f86c aaa2 9aee d33f
00000070: 07cf b1c4 168b b93f 4b74 e782 113d b5bf
00000080: 4763 d0c6 2330 c33f c3e2 ee4e f3e7 c23f
00000090: d94e d955 5ee3 b1bf ea3c 65ed c519 d73f
000000a0: 3e18 9c30 a5e8 c53f 02bc 8a3e d183 9fbf
000000b0: 0d6c bfa8 4f26 cb3f dfff cd07 0d81 ba3f
000000c0: 2e37 5a08 6514 b1bf 4bd5 712f 4555 ae3f
000000d0: 1343 dba2 6e9d bfbf 00f0 079d 4614 cf3f
000000e0: 4d58 79cb d152 c7bf 9df4 748e 48dc b73f
000000f0: 6a6a 434b b03f d7bf 9b54 28a0 704a bd3f
00000100: 3993 34e8 6864 c9bf d410 ed4f c7a3 bdbf
00000110: a0f9 f9ee 94bc c2bf cfa8 5cd2 bf17 c7bf
00000120: 5cac b519 1cfe d63f 929e 03cb ff17 c53f
00000130: c1aa 7366 1f5b a93f 3c78 9af5 23ff c23f
00000140: ca78 9c0e 2d9a 9d3f dc2a a8e1 2c08 bb3f
00000150: dadd 113a 2024 7dbf 75ea 6a2f 2a81 aa3f
00000160: e0a2 ba6a aeb9 b83f 9e67 e51b 39e2 b63f
00000170: c323 9fae af9d 9a3f 6447 b039 3c74 be3f
00000180: 54be 4834 e302 a8bf fe8c c2bd 93e0 d23f
00000190: 4ddb a37e ffa9 cc3f dfe8 7150 8e6e d83f
000001a0: 2dba 2896 0a3d bf3f 4591 d873 cbb3 9b3f
000001b0: 8f33 12f8 0793 c63f 8d88 132a 8ee1 7cbf
000001c0: 1917 b862 76f0 913f 5975 1f78 85f7 bdbf
000001d0: 274f 811f da12 cebf e1ef 8f87 8e1c b03f
000001e0: 5749 cecb 5d18 b13f e85d d6d9 97e3 a5bf
000001f0: ecaf c912 967b d5bf 8da3 3dd6 679c c83f
00000200: 5543 9203 02d3 bd3f f117 2b34 a0d1 b7bf
00000210: a4a8 d52d 4dc2 d8bf 988a 788c bbe8 c33f
00000220: f0dd 5c92 9439 ca3f 8e8d 4ac3 77b9 a4bf
00000230: 8a67 4967 0bf4 c13f 26ab afda ed08 c6bf
00000240: 02ed 09f8 a48a acbf 86fd dba1 ef21 d2bf
00000250: 29a2 f7ea cb0d ad3f 8ec6 d183 0492 a5bf
00000260: 1025 d353 6c98 ca3f 5fd4 6450 f1e0 d23f
00000270: 5c38 5504 51ea a7bf b103 0b22 8c7f a63f
00000280: b376 a8d4 e062 c7bf 42f9 36cb 674b dd3f
00000290: 7eba 9d17 28f9 ccbf 5dee bc98 a705 d33f
000002a0: 57e2 47e4 b662 afbf 27ff e3cf 31d5 a13f
000002b0: 65ad aebc 6f70 c83f 3d71 a19a 7e40 a8bf
000002c0: 5d9f 063e d2d6 d1bf 6bc1 0fdc 288d c73f
000002d0: 106d db4d 9c5b c3bf 8f53 e9df 2b96 91bf
000002e0: 0f1c 7fb1 8225 cbbf 2266 cdb3 1d23 c9bf
000002f0: 6d33 b543 45c6 debf 153f 6037 1a4e ca3f
00000300: bb25 f4e2 ab96 bd3f a205 7c24 78e0 a3bf
00000310: 1671 73bf 6521 83bf c1cf fd0c 0aa1 c7bf
00000320: c347 ccc3 bc7e bcbf 68a6 8a8b 5ab2 be3f
00000330: 5a1a 36ba f5d6 a93f 8b56 1157 6834 b5bf
00000340: dd8b 9569 2af9 86bf a6bf af0c 6ebf c23f
00000350: c30b f614 a799 ad3f 4f7f 3239 72b1 b83f
00000360: d169 5bb6 6130 b43f 36ed 6f01 6e6c be3f
00000370: 3aaf 3223 ab20 d73f b3bd 7a39 df0e c13f
00000380: cbff 3ece 7fda bcbf aa8c 7558 627b dfbf
00000390: c4e9 491d dac6 aa3f 7056 c22c 814d d7bf
000003a0: 6948 d92e 6a25 c0bf 0f63 fae3 a9b5 c1bf
000003b0: 1848 1996 308d b4bf 79df d229 010b a33f
000003c0: b4b5 2719 f0dc c03f 903a 6cfc 0466 cebf
000003d0: 811e baa8 11bd 993f 54aa 116e e268 b13f
000003e0: 5b6a 4090 c889 a73f faa2 128b 0956 5b3f
000003f0: 82a1 3ead f5f5 c63f 5b0f 091f 2027 d0bf
00000400: 8f42 9be5 ec9c c13f a38c 8ff3 fc65 a53f
00000410: deb5 7a41 c237 a23f 39bc b22e 3de8 c4bf
00000420: 893a 74ed 7071 883f 20f1 3367 bd5f c5bf
00000430: dc48 80d6 b11c d03f 8374 f307 32c3 b3bf
00000440: 2d29 d3cf a674 a6bf d0e7 1c08 e582 be3f
00000450: 3a3a 671a 91c0 c53f 6391 259a 0edc c03f
00000460: 746d 1861 2765 c5bf 309a 8d6b a205 c8bf
00000470: 9c5a 37f4 894b b53f 7db7 d16e 50ce cfbf
00000480: 35fc 800b 943e b73f a4a7 88f7 c4d7 d2bf
00000490: a3ff b5c6 5c86 d2bf 5d0b fcfd 465b 8fbf
000004a0: a35b 1cbf f76b c7bf d09e f0a6 41aa c33f
000004b0: d46e 6f44 853c b9bf dfbe 3b21 b689 c8bf
000004c0: 6fc8 1035 4aa0 c43f 2ad1 9fac 260f c2bf
000004d0: 7084 0c75 42e5 a13f bae2 b06b 4013 c33f
000004e0: 9feb a485 edcf 83bf 9f24 4fd5 5dfe c53f
000004f0: e02f e72e 95dc b43f 2380 142b c6d6 bcbf
00000500: 1dd4 7c71 f10a d53f e2c5 65b3 d6cc ccbf
00000510: c33c 6822 4fee c2bf a4da 4148 5a6d 7e3f
00000520: af22 cc24 43b4 c73f 9410 32e4 6008 c83f
00000530: 3aef c1db 2401 d9bf a6c0 b6cf 1ec7 5d3f
00000540: 8492 0e49 ba13 d3bf 7825 c92c 37db d2bf
00000550: f37f 4946 14c6 c5bf f7bd 8482 b894 b73f
00000560: 78f0 43f7 7845 ce3f a615 c4f3 9eef e03f
00000570: c529 38b3 0900 d23f 03ed 859b db49 d03f
00000580: fef1 6284 e0a4 b73f 568f 1253 ba0b bd3f
00000590: f8d2 802d 6a17 c33f a8a6 9a35 222d c73f
000005a0: 5e14 d37c 2de0 c93f 3e53 9a41 19ff e2bf
000005b0: 759b 6ba2 1e2c bc3f f200 fe9e 7c5e d23f
000005c0: 730c 3525 5bc8 c5bf ebe7 7aac 1d4d 8c3f
000005d0: 5793 3971 8821 b1bf 8b29 fa43 f8ba ccbf
000005e0: 9107 e55d a504 c6bf 49b5 7b2c e97b cebf
000005f0: 0054 ccca 075f cfbf 97c6 9c7d 5852 dc3f
00000600: 760e 7b34 c5a8 8bbf 778d 2535 cd19 a33f
00000610: ab4c 4283 d376 be3f 1bb7 10dd b936 3e3f
00000620: 2b6c 32ab bb96 b7bf 299c 75b4 9628 a9bf
00000630: ede2 e95e 106c b83f 898a b41a 7cdf b7bf
00000640: 230b 56e8 03d8 b0bf 1a29 c09e 4d44 69bf
00000650: fe89 b500 18b0 c83f 76ae 03fc ee11 c1bf
00000660: c30e 6424 d751 b9bf 10e8 c236 8b66 b83f
00000670: caae fbf7 7e45 b2bf fe2a 6abc e942 9abf
00000680: a4ca 1f3a 8824 c7bf abbe c9c9 a415 c5bf
00000690: b4e9 8e5e 121c babf 72aa 6dff 8b0d a03f
000006a0: 3fbf 3f0c 03a6 afbf 7e68 21e8 de29 b1bf
000006b0: 3bd4 60c6 57ad a53f ed40 6715 9ed9 ad3f
000006c0: a64d a3d6 8522 c83f 3ef0 aba8 c1b7 cf3f
000006d0: 50b0 401e e1b3 b43f e971 10ea fc4f be3f
000006e0: c832 0d5a 9a2f a53f 1441 1e0e bf2a bbbf
000006f0: 2b9e 7f2b 56f6 b6bf f40d 9552 611d c0bf
00000700: 0779 42fa 63ca c0bf 48cd 687a 8f53 d63f
00000710: 7983 f36c 5193 a83f 037a aa00 fc9d d1bf
00000720: a84b 1065 5d32 d63f 9222 a90e 5bb6 c5bf
00000730: f3fb 2996 c030 cd3f 4a33 53fc af33 cd3f
00000740: 76ac 5351 c54f a73f 2ac0 eaf9 12ed c23f
00000750: fd02 c729 1258 afbf e8d0 5465 4a1d d6bf
00000760: 3ac3 4d59 275a 813f de0b 6ed5 a087 c0bf
00000770: e037 be58 3116 98bf 4bd9 381b 2933 bebf
00000780: 03d7 0b65 fb5d c9bf 298a 550a 14fd 803f
00000790: 6b78 92ef 28f4 c9bf 9abe 1d6f 3bc6 be3f
000007a0: ac00 8f63 4fc8 ccbf 8645 dfba 9b8c c83f
000007b0: 62a6 3e4e 32b2 a23f 0dfa 0ea1 cbf5 d6bf
000007c0: f46d c0fe 4bd3 c83f 2ed2 f90c 4ff6 9abf
000007d0: a0da da54 c6fc b0bf 4752 a609 e21a d43f
000007e0: 4f68 7bd8 10c7 c73f e446 1622 df9f a23f
000007f0: 59bc 62bc b995 bc3f 0ae1 51c0 f566 ccbf
0.04320476802615358 -0.2211538975738494 -0.14064244712354942 -0.035377388121101645 -0.20458240673348982 0.09328519634697897 0.08521754029221087 0.08477152965952836
0.009858207472550581 -0.3440526620666118 0.11050464476756204 0.09539424311728298 0.05655984387159191 0.31143823514294366 0.09977857877839479 -0.08296307989026379
0.14990660865512437 0.14770356516034697 -0.06987561794204157 0.3609480684580847 0.17116227029345227 -0.030776280824905917 0.2121066640819155 0.10353166046661454
-0.06671744779506802 0.05924431041868646 -0.1234959743117197 0.2428062693360289 -0.18221495089773257 0.09320500829649565 -0.3632622466081218 0.1144171134004232
-0.19837676370766547 -0.11578031255072868 -0.14638005894444195 -0.18041227122859602 0.35925962935170275 0.16479489720153545 0.04952333570129986 0.14841126911500335
0.0289084472816448 0.10559349545671232 -0.007114530454706858 0.05176669911221136 0.09658327203454631 0.08938939028794698 0.025992150338229224 0.11896110924160791
-0.04689703000292114 0.29495709925886604 0.22393792804333615 0.3817477975459393 0.12202516714089802 0.02705304998939197 0.17636203396650926 -0.007051043824704573
0.017518853926978915 -0.1170581262844811 -0.23495031870208402 0.06293574151635496 0.06677805162170124 -0.04275202306888187 -0.3356681045031553 0.19227312050795967
0.11650097453299442 -0.09304238580361336 -0.3868592212298927 0.15553993567398972 0.20488221308345045 -0.0404775071995359 0.14026014846131957 -0.1721474950603234
-0.05574527290169763 -0.28332129293990993 0.05674588435414691 -0.04212965115665411 0.20777658551222844 0.2949794087501853 -0.04670956781284083 0.04394185939373275
-0.1827050245637359 0.45772738309087313 -0.22635365632182308 0.29722013393231866 -0.06130000626211956 0.034829670550605756 0.19093128884319835 -0.047367054343995886
-0.2787366491052035 0.1839953493613494 -0.15123323251359766 -0.01717442087313575 -0.21208223025152548 -0.19638415603076093 -0.4808514748772755 0.20550849632172033
0.11558031359540781 -0.03882193990103679 -0.009341044335478926 -0.18460202822063645 -0.11130885868286015 0.11990896136071572 0.05046813867652551 -0.08283092618634151
-0.011217433306859032 0.14646697635134592 0.05781290179131517 0.09645761391084061 0.07886324598386031 0.11884200606430259 0.36136892735770554 0.1332663565312778
-0.1127090338259215 -0.491905771623531 0.05229837043312416 -0.3641055047131436 -0.1261418083909718 -0.1383564341711225 -0.08027938522835176 0.03719333301108824
0.13174248913075604 -0.23748838734941957 0.02513530342414905 0.06800666033965658 0.04597307930835789 0.0016684621043998025 0.17938109358989257 -0.2523880293922411
0.13760148249868506 0.041793732387099845 0.03558165597256012 -0.16333737163719933 0.011935121771356154 -0.16698424853519445 0.2517513842332286 -0.07719719595066192
-0.04385873114513781 0.11918479393071313 0.16993917264194797 0.1317156078977276 -0.1671494697664958 -0.18767194987886304 0.0831838818770429 -0.24848370944112821
0.09079861908775018 -0.29441951916907727 -0.2894508305107541 -0.015310816408150957 -0.18298241454678274 0.15363331462253038 -0.09857972069533655 -0.19170261976932232
0.16114165869800298 -0.14108737400932486 0.034952236927218716 0.14902501352641712 -0.009673934594152387 0.1718251506374928 0.0814908256062945 -0.11265219260940333
0.3287929161336381 -0.22500118026395827 -0.14789761714971492 0.0074285055780964095 0.18518866822002653 0.18775569097863765 -0.390694822890271 0.0018174935238271322
-0.29807908186402465 -0.29462985395056007 -0.1701073973845265 0.09211304842460054 0.23649513314728998 0.5292505990079703 0.28125231267827316 0.25450792491729163
0.09235957367031486 0.11346020248543928 0.14915206167065498 0.18106486909282649 0.2021538600439809 -0.5936399728112531 0.11004821267452576 0.28701701666433543
-0.17017688099631165 0.013818961931395498 -0.06691792263297934 -0.22445586508940737 -0.17201678356837793 -0.23815645858796078 -0.24508759882215259 0.4425259806331296
-0.01350549761207918 0.03730622552645973 0.11900064425053596 0.00046102559741966067 -0.09214375428784709 -0.04913779213784892 0.09539892499186538 -0.0932538571546876
-0.06579613134639976 -0.0030843273179971377 0.1928739551031668 -0.13335978799237908 -0.0989050353855943 0.09531469428011996 -0.07137292436862733 -0.025645877957269463
-0.1808023723420621 -0.16472301342900172 -0.10199084099341499 0.03135335438749544 -0.06181344532512733 -0.06704514662979652 0.042338126150220444 0.05830091487189457
0.18855355244032274 0.24779530273360878 0.08086974133101532 0.11840801920374812 0.04137880658399734 -0.10612100691492216 -0.08969629823661111 -0.12589661152206555
-0.1311764690371506 0.34885012582818264 0.04799894766779906 -0.2752676016333739 0.3468240248632193 -0.169627554091012 0.22805030185915562 0.22813987560803134
0.045530477693170576 0.14785992815950638 -0.061218803024081205 -0.3455377568782425 0.0084727357986779 -0.12913904591923048 -0.023522158662267034 -0.11796814837075435
-0.1981806033506289 0.008295208516476542 -0.20276366899355777 0.12021228277967069 -0.2248629795194622 0.19179102539650844 0.03651578145156688 -0.35875216225022727
0.19394826830908551 -0.026330218474372717 -0.06635703632023615 0.31414080564835384 0.18576250620282272 0.03637597361661252 0.11165963029155658 -0.22189208880059424
