models/wo_tangent_loss.pt (torch, 326315 bytes, 41 tensors)

module.feat_mlp.0.weight f8 [32, 3]
000000 3f b3 10 83 8a 62 de 3f 13 ed 05 83 53 e6 e4 3f
       0.4747644691404282 0.6531159934087633
000010 12 88 bf 72 de 03 da 3f 7e 1f 63 e0 84 c9 e0 bf
       0.4064861412608717 -0.5245994932711111
000020 02 d0 9b 24 ab 57 d0 3f 6d 82 c2 7c 89 6d c3 3f
       0.25535086226523174 0.15178030578410376
000030 a0 69 a5 a5 38 e4 e3 3f 2c 03 db 93 8e 42 d7 bf
       0.621609042670844 -0.3634373134519133
000040 b5 08 c2 69 da 1a db 3f c5 be 77 2b c4 f7 a8 bf
       0.4235139878075061 -0.048765306764719386
000050 47 27 ba d5 a0 80 df 3f 88 c7 36 e5 b6 be c7 bf
       0.49222584602158687 -0.18550764267052622
000060 f1 c6 46 d9 8b cd e0 bf dd 1b a6 ac 09 61 e5 3f
       -0.5250910991364589 0.6680954334304904
000070 85 6a 63 14 13 75 bd bf fd 7b 38 83 a8 b9 c0 bf
       -0.11506766555559451 -0.13066584021814256
000080 2c 6b 50 cd 61 2d a9 3f c7 86 a1 e3 2e 53 cd bf
       0.049174362480888995 -0.2291010486106215
000090 34 4e 42 6f 61 c3 d1 bf 29 b4 52 a7 16 95 d2 bf
       -0.27755008568894657 -0.2903496393217347
0000a0 d7 01 be a9 91 f1 c4 3f ec 32 5b 59 a3 a2 ca 3f
       0.16362210071748848 0.2080883203801912
0000b0 33 cb ef 15 f0 1e ea 3f 01 39 c8 8e 7d 13 d1 3f
       0.816276591153246 0.2668146032673491
0000c0 7b 63 2d 9b a0 92 e3 bf 69 00 2c d9 99 3d e6 3f
       -0.6116488486105561 0.6950196496618563
0000d0 6b db 51 b2 6d 9e da bf 6f e0 46 2e e9 ac c0 bf
       -0.41591970838583475 -0.1302768207513085
0000e0 a4 3b c9 64 03 e1 d8 3f ce 14 16 7a 67 9b c9 3f
       0.38873371927632605 0.20005506001704138
0000f0 78 0f 94 c9 6c b6 c5 bf bf b0 b9 0c 6d c5 c9 3f
       -0.16962966768926058 0.20133746262889038
000100 ed 66 d3 d4 af 86 db 3f c2 90 74 0c 52 b5 d4 3f
       0.4300956323983048 0.3235669252046699
000110 b2 13 05 4f a5 b0 b7 bf 6b 7e 6e eb c3 06 e5 3f
       -0.09253915003962623 0.657075843646408
000120 df 8e cf e7 59 b0 cf 3f d9 85 e0 25 c7 5f ec 3f
       0.24756931132207335 0.8866916408334716
000130 78 84 cf 5f 21 be c9 3f 52 ba 56 8e ee a8 e1 bf
       0.20111481836559952 -0.5518715648702914
000140 aa 2d 2c c9 8f bc a1 3f 15 17 fa d3 a4 86 d4 bf
       0.03464173632354613 -0.3207180090033586
000150 31 54 33 c4 20 6f ca bf 40 c8 3b 0f c1 59 d1 bf
       -0.2065163572321196 -0.2711031578793417
000160 74 2d 76 63 55 50 e6 3f 79 e8 e3 e6 ff 91 e3 bf
       0.6973063414201719 -0.6115722188544758
000170 66 cc 9a 2a 70 ea e1 3f 1f 14 72 84 d6 3b eb 3f
       0.5598679382441218 0.8510544382885462
000180 df 86 06 6b 1b a5 f0 3f 6b a5 cd 5f f5 11 c6 bf
       1.040309351032583 -0.17242304971595543
000190 56 7d 46 64 67 a1 b9 3f 84 6e a4 6c de 57 a8 bf
       0.10011907766464864 -0.047545386087418456
0001a0 28 20 ad 01 f9 31 ce bf d5 2e ce e6 cf 4a dc 3f
       -0.23590004522179808 0.44206616916265534
0001b0 a1 ee 99 63 a0 63 8f bf fe ad 56 99 d4 9d e6 bf
       -0.01532674125632322 -0.7067664141554244
0001c0 70 71 8b c7 7a 7a d2 3f e1 4c 09 d4 5f ad e6 3f
       0.28872556196963384 0.7086638585409696
0001d0 5f 32 2f 8f 60 40 e1 3f 00 c7 c4 62 b0 71 e1 bf
       0.5391085430688455 -0.545128052623312
0001e0 8c b6 c1 f3 ed 57 e6 bf cc ae 76 9b 47 eb c2 3f
       -0.6982335816262135 0.1478051671123154
0001f0 ab 5c 2c 76 53 b0 e2 bf a3 02 65 00 1c f2 d8 3f
       -0.5840241725990344 0.3897771839001882
000200 c2 65 8e 6e c5 3e d8 3f 95 6b df 75 ad 2e e6 3f
       0.37883125111110527 0.6931979467584478
000210 04 ce 8f ba b7 79 d3 bf 70 14 30 af ed df e0 3f
       -0.3043040582553831 0.5273350164067221
000220 e3 fc 1e fb b0 91 e5 3f d7 e1 75 14 9f fd db bf
       0.6740345864017424 -0.43735482214063154
000230 d4 57 4e b8 f5 2e d8 bf ac 44 2d 67 eb 6e d9 3f
       -0.37786620138774407 0.397394991644499
000240 b9 db 44 06 de da e0 3f 53 d0 f5 9b 1a 88 ab bf
       0.526717197651002 -0.05377276567279012
000250 22 54 ed c3 3e 86 dd bf 85 73 9b 44 08 7a bd 3f
       -0.4613186753607029 0.11514331507664906
000260 7f 60 70 a4 5f 1a d9 bf ed 30 bc 82 5c 8c ea 3f
       -0.3922347169732418 0.8296339562816947
000270 58 11 ac 12 88 10 d5 bf ab 21 05 00 ff c9 d8 3f
       -0.329134004816543 0.38732886316258924
000280 49 7e 4e 01 2d 20 e2 3f 9e 85 53 07 4a fd cc bf
       0.5664277101058782 -0.2264797721646063
000290 09 91 30 0e 09 c4 bc bf 2b 96 7b 92 0c 5a e2 bf
       -0.112366262401853 -0.573492323016301
0002a0 67 a9 1d 3b bf 7f d8 3f 43 15 e2 af 2d 15 dd bf
       0.38279705784829904 -0.4544176309212455
0002b0 e8 82 99 04 0a 79 91 bf 15 bc d3 1f 82 72 cf bf
       -0.017063290148487648 -0.24568201593453468
0002c0 5a 12 2a cf aa 43 eb bf d2 9b 30 8f 4e 2d ce bf
       -0.8520101591280522 -0.2357576560181927
0002d0 61 c0 d1 f7 4c a9 d1 bf 87 7e 82 74 c5 11 d2 bf
       -0.2759582920180091 -0.28233467462448697
0002e0 e1 cc 1e b2 2e fd e7 bf 21 19 d5 46 81 e1 e4 bf
       -0.7496560553467156 -0.6525274642415618
0002f0 05 c0 e5 41 03 5f e4 bf 18 50 c8 ca 5e 1e db 3f
       -0.6365982329425611 0.4237286548898296

module.feat_mlp.0.bias f8 [32]
000000 3a e6 3f 5a 5b cf a3 bf 88 25 e9 27 16 be d5 3f
       -0.03869138218574304 0.33972696206600306
000010 99 b8 0f 00 48 d0 d0 bf ef 17 7a 0d 5e 81 e0 3f
       -0.2627124786948883 0.5157919181081051
000020 ba 85 d9 5d e8 3a c7 bf 1b 36 75 b5 21 0d dd bf
       -0.18148521978859639 -0.45392649384015876
000030 0d 64 c0 2e ef f6 c3 bf 77 4c 6d 1a 84 b5 c4 3f
       -0.15597333700932872 0.16178942957285233
000040 a1 cb 67 2c 9e bb 6a bf 44 b5 12 14 2e a6 e0 bf
       -0.0032632912946097413 -0.5202856437732994
000050 7c 3a b9 c6 93 28 df 3f b8 4c 21 13 a4 0e db 3f
       0.4868516388568549 0.4227686106507451
000060 b3 48 f2 6f 03 70 c2 bf 9a bf 6c 0c c3 87 48 bf
       -0.14404337850698354 -0.0007486059556409575
000070 7a f3 c2 c2 38 88 bd 3f 0a b6 14 03 0e f9 d6 3f
       0.11535982851905927 0.35895109463567165
000080 42 d6 ce ee 38 2b b2 3f 04 75 e7 64 ab 9c b8 bf
       0.07097202139160522 -0.09614058698157996
000090 5a 02 39 82 89 45 b8 3f d2 e2 92 97 85 34 a2 bf
       0.09481105260147996 -0.035556959870012186
0000a0 02 f8 4a 05 b7 c7 d4 bf 59 41 a5 94 f3 63 6a bf
       -0.3246896316230733 -0.0032214887079719365
0000b0 19 1e 28 d8 3d 01 cd bf be 42 19 6d 46 35 df 3f
       -0.2266003900005991 0.4876266541878457
0000c0 c4 63 8f 3c 57 0a 76 3f 5f da 70 71 74 03 d3 3f
       0.005380955474685704 0.2970858676739336
0000d0 31 39 b0 94 ef 39 60 3f 9d dc ea 62 96 6c df 3f
       0.0019807509720585416 0.4910026517858997
0000e0 94 51 e4 6c fb ed 98 bf 15 b1 a2 1d 2b 58 c5 bf
       -0.024345329781753813 -0.16675318667456254
0000f0 9f e4 7e dc d0 98 bc bf 55 a1 52 53 31 2f c6 bf
       -0.11170678504176344 -0.1733152062272533

module.feat_mlp.2.weight f8 [32, 32]
000000 16 60 1e fd 0a 6b d9 bf 47 7f 77 4f 26 42 a8 3f
       -0.3971583816396572 0.04737968177846468
000010 9a 88 d2 cf e4 b7 a7 3f a5 e2 69 d0 7b d4 b7 bf
       0.04632487332243436 -0.0930859931776334
000020 6e 78 a4 11 04 64 dc bf 7e 3a 48 49 09 8d c4 3f
       -0.4436044857301401 0.16055408552388778
000030 99 7c 7e 4f 16 77 cb bf 6d 2e 18 02 67 3a c6 bf
       -0.2145717514185648 -0.17365729906338193
000040 eb 8f f2 65 96 20 b7 bf 0e d3 14 d8 3b f4 83 bf
       -0.09034099568322033 -0.009743182689456311
000050 9f 84 a2 ee cb e8 d3 bf 10 6c 4c 7d af 85 95 bf
       -0.3110837774675676 -0.02101778223287104
000060 5c fd 38 42 30 ed ca 3f 38 17 fc 38 92 08 a5 3f
       0.21036341889883203 0.0410810179292142
000070 a2 e5 dd 15 6d 55 c6 bf 28 4f 89 c2 82 2e c1 3f
       -0.17448199813570137 0.13423189638944533
000080 d2 b5 e6 44 82 98 ce 3f a1 0a 6a 33 e0 04 d4 bf
       0.2390292011672686 -0.31279759426994685
000090 7b ee 7a 41 8c be c5 3f 13 ac 5e 27 a9 16 d5 3f
       0.169877559635882 0.3295081028433639
0000a0 c5 5f 16 6a d9 66 c5 bf fe fb a6 38 61 94 d7 bf
       -0.16720121078537722 -0.36843138248872254
0000b0 89 a7 fc ec 15 d3 c5 3f c4 68 da a7 25 ce c1 bf
       0.1705043227350951 -0.13910361000018245
0000c0 b2 27 fd 2d 65 f8 c0 3f 0d 61 15 5e da 50 9e bf
       0.13258042092848893 -0.02960530471077143
0000d0 b0 f7 f9 b3 7d 78 cd bf 48 19 b7 a4 b7 cb cd 3f
       -0.23023959434425256 0.2327794603608686
0000e0 78 3c 56 b2 8f 28 a7 3f 2a 03 59 5a 5d c8 d1 3f
       0.04523133327449441 0.27785428832071324
0000f0 db 93 bb 69 15 31 c2 3f 6f 88 99 c9 7c 4f ca bf
       0.14212291395884233 -0.20555076450097284
000100 64 0a 20 89 0f 8a d8 bf 59 d8 b1 32 eb fe c8 3f
       -0.3834265555489422 0.19527950263335717
000110 fd c2 17 5c f9 cc b7 3f 8a 27 80 cb 0a c3 74 bf
       0.0929714059673294 -0.005068819205925732
000120 db 33 51 c2 c7 60 c8 3f 79 d1 59 79 18 53 b0 3f
       0.19045350063461694 0.06376793825785922
000130 02 2f c3 95 1c b8 d0 3f 21 e0 77 c6 03 71 b2 bf
       0.26123728394735235 -0.0720369681874904
000140 5b bb cf 71 ee 1c d1 3f fc a1 92 66 a0 af b0 bf
       0.2673908339920012 -0.06517984871118893
000150 ba 20 a3 4d 20 03 c4 bf f6 36 13 83 be a4 ca bf
       -0.15634540358428756 -0.2081525936140946
000160 e7 1e cf 70 5c 95 c8 bf ed 30 36 06 0a e9 d3 3f
       -0.19205813892607823 0.3110985813771226
000170 73 bd 0c b0 85 60 b9 bf 8b 37 34 50 fa 2a 90 bf
       -0.0991290621575354 -0.015788947243940348
000180 40 df 3d 3d 2d 13 9d 3f 93 56 f4 08 cf 53 d4 3f
       0.028393465865035994 0.31761527895410174
000190 43 5f 0a 86 d0 df b5 bf 57 13 8c 70 51 b4 d8 3f
       -0.08544638893579042 0.38600574484762745
0001a0 e0 ea 5d f7 4d ab 8a 3f fd 9d 68 c5 4f 19 b3 bf
       0.013022050010240205 -0.07460497445628529
0001b0 34 5b c9 2e d4 27 6c bf aa a0 a2 33 3c 59 87 bf
       -0.0034369606203584983 -0.011400671315940098
0001c0 92 7a a6 b7 01 9d b5 3f 28 7f 93 88 b1 f7 99 3f
       0.08442698224687664 0.025358938179919438
0001d0 25 a9 6a 21 8e bc c6 bf ba ee e2 b3 4c 07 c6 3f
       -0.1776292479674534 0.17209776671903915
0001e0 0a 31 48 3c ed 29 d4 bf ad 89 1c ae 2d 02 bd bf
       -0.3150590027514829 -0.11331449032562686
0001f0 af 67 56 e8 db e6 bc bf 44 11 1b 56 ff 22 91 3f
       -0.11289762899687504 0.016735067015148944
000200 88 c3 78 91 0a 67 d2 bf 57 88 5e 67 30 9b 98 3f
       -0.28753914076065046 0.024029499348792473
000210 a5 d6 43 eb c0 2b cb 3f 73 d4 eb 06 56 00 c5 bf
       0.2122727535967687 -0.16407275522184114
000220 8b 4c 25 b6 03 a8 d2 bf 00 28 b1 aa 76 21 c3 3f
       -0.29150479114213884 0.14945872625895618
000230 b4 73 35 c2 e7 a5 8d bf 23 16 11 ba 53 08 8d 3f
       -0.014476595510751845 0.014176038852507017
000240 d4 10 d4 24 66 be c5 bf 94 7e 69 14 73 9a a4 bf
       -0.16987301634083585 -0.04024085640116684
000250 90 bc 8e cd da 50 a1 3f 66 fd 0c 7a 3d 01 a6 bf
       0.03381999739883057 -0.04297821154477326
000260 64 d5 e3 c5 46 8f e6 bf 90 18 c4 ad b9 b8 d0 bf
       -0.7049898018873759 -0.2612747380193321
000270 fe 5a b8 bb f7 b5 a2 3f e2 34 58 ff d6 9e 8d 3f
       0.03654455343728634 0.01446311918973681
000280 cc b6 35 67 62 83 c2 bf b3 cb 36 41 51 29 b6 bf
       -0.14463453330556886 -0.08656795351161754
000290 8b 7a 9c 4a 38 dd c8 bf 80 78 98 a6 39 62 f0 bf
       -0.19425109522940817 -1.0239807613029654
0002a0 a0 de 92 e2 0e a4 ac bf 03 b0 21 d7 7e f0 db bf
       -0.055939164312289735 -0.4365536785978749
0002b0 15 ee db 31 82 98 ce bf 12 cc b0 85 64 9e b0 3f
       -0.23902919230009503 0.06491688026362422
0002c0 0a 8c b7 75 92 d3 c5 bf cb e1 9e ac dc 69 a7 3f
       -0.17051916835689013 0.04572953803239307
0002d0 4d c5 88 77 49 da d8 bf bd 68 e0 8d 64 c8 b7 3f
       -0.3883231799437297 0.09290150131019721
0002e0 25 e0 b3 54 ed 8c ba 3f f1 a7 55 df f9 bc a6 3f
       0.10371287649093171 0.04441052294971815
0002f0 28 cd 78 f7 48 8d c7 bf 18 25 77 91 07 b3 9b bf
       -0.18399917682254707 -0.027050131085876478
000300 48 81 03 df 3f 76 c2 3f 42 1d d1 bd bd ae c8 bf
       0.14423368825283434 -0.19283267753983507
000310 ae e7 f9 b3 04 da b7 3f 77 28 51 87 8f 32 b1 3f
       0.09317044633817659 0.0671777444232776
000320 d6 90 ae 0f 0d 01 d8 bf 46 22 08 5d ec d1 c1 bf
       -0.3750641492026835 -0.13921885054175415
000330 b3 9e 03 ec f3 93 9f 3f ca d4 5f bf 30 e6 5e 3f
       0.03083783271804803 0.0018859363603927364
000340 0e c8 03 d0 58 7e d5 bf 0a d0 60 98 fb c1 be 3f
       -0.33583660425131334 0.12014744253320955
000350 45 ad e2 e6 99 89 a0 bf 18 8b 7c 2a 0e b7 bb 3f
       -0.03229981368471128 0.10826195275562289
000360 18 8b 1e 5d 15 d6 b6 3f 2c 40 62 08 d3 58 b3 3f
       0.08920415423794414 0.07557410196955122
000370 9c 0e 95 fc 31 61 c3 bf 84 b2 2e 18 81 54 ad bf
       -0.15140366395109062 -0.05728534145541622
000380 c4 27 65 f2 dd ef d0 3f 6b b4 0f 2b 53 64 d3 3f
       0.26464031859779547 0.3029983444710697
000390 e8 5d f0 03 32 4a c6 3f de 35 3d a3 c8 11 d3 bf
       0.1741392630799361 -0.2979604334003322
0003a0 9f f5 c1 11 92 17 af 3f ee e5 20 cc 93 e3 d0 3f
       0.060726704280550374 0.26389021810936597
0003b0 d1 e5 4c e3 b2 41 d1 3f 6f f5 12 27 7a 83 a1 bf
       0.2696349353533068 -0.03420621611574403
0003c0 f8 9a 77 5d 37 53 c7 3f 62 d9 bc eb 96 1e c5 3f
       0.18222705901936087 0.16499601851109974
0003d0 12 55 d5 e7 da c5 c0 3f 36 12 8c c8 9a 42 c7 bf
       0.13103805847155364 -0.1817201117738862
0003e0 dd 13 2c fa 64 2e bf 3f 8b 22 2a 3a 73 00 cc 3f
       0.12180167300910179 0.218763736153296
0003f0 c3 d0 d0 0b ec 5b c3 bf 5c 2a 18 fb 4f 6e a9 3f
       -0.15124273850381628 0.04966974201314109
000400 2b 7c 7c 17 c6 85 b8 3f 8b 78 d3 ed ed 25 cd bf
       0.09579122613330131 -0.2277200137386369
000410 f1 d3 29 52 31 fb d6 3f 97 35 92 b5 0f 7c be bf
       0.3590815832497461 -0.11908052618874475
000420 c0 3f 61 e9 38 f1 c9 bf be 13 a6 85 aa 92 c3 3f
       -0.20267402072431473 0.15291339422051736
000430 e0 af b9 b4 43 04 a9 3f b6 25 bb c8 ba 4a 7d bf
       0.04886066037292358 -0.007151345849430715
000440 69 ab e8 90 19 08 c2 bf 9a 52 da e0 fc 18 b4 bf
       -0.14087218833568763 -0.07850628366061088
000450 b0 26 71 53 8c f8 ba bf b8 d4 76 0d 2b 62 bb 3f
       -0.10535504376562232 0.10696667746272481
000460 5d d6 72 fd ac ba d8 3f 61 a2 10 ef 40 bb c4 3f
       0.3863937831004927 0.16196452782721152
000470 6f 5d 82 70 aa 02 c0 3f 20 39 1d 9f dd f2 b6 bf
       0.12508135312667032 -0.089643336626271
000480 78 d6 71 d4 df bd be 3f 24 0a 18 2b b5 25 b2 3f
       0.12008475243222871 0.07088787366959842
000490 33 bd 99 32 f0 35 c7 3f 1a 20 3d 8c ac 82 d5 3f
       0.18133356543283127 0.3361007089156388
0004a0 6c 72 4d 23 bb 74 c9 bf 92 4b f5 91 3b c8 be bf
       -0.19887484763866625 -0.12024280847007976
0004b0 99 2e 6e e0 5a b2 d8 bf 0b d5 2b 0e 9d 43 96 bf
       -0.3858859245017157 -0.02174230002397785
0004c0 93 3f 7c 6a bb 42 ce 3f c1 e7 ae 6b a3 69 bf 3f
       0.23641150187949886 0.12270566348061519
0004d0 59 44 46 0d 81 3b b9 3f 9c fa 6a 51 3b 00 aa 3f
       0.09856421064456934 0.05078301781531033
0004e0 3c 1f c2 3f e8 40 b8 3f 94 08 07 0e 4a 20 d2 3f
       0.09474040562247138 0.2832207810389573
0004f0 02 93 55 e4 b7 b9 b3 bf 52 b0 4a b9 b0 8c d8 3f
       -0.07705258678977248 0.3835870561113143
000500 e4 c5 b7 88 0d e4 d1 3f 60 07 e8 a5 43 03 c5 3f
       0.2795442423949608 0.16416211701294525
000510 27 e8 91 3e 4d 5f d5 3f 7b 66 ec 82 15 3e a6 bf
       0.33394175634714646 -0.043442413551201896
000520 a0 36 ad 64 f1 8c c5 3f 8f 1d 81 18 5c ac b7 bf
       0.16836373725748377 -0.09247375105143461
000530 ce e5 0e 5d 8d 03 b0 3f b1 a4 c8 30 b7 0e b4 bf
       0.06255420228890005 -0.07834954205522383
000540 59 b3 31 ee ac 17 ca 3f c9 cf bf 59 6a e4 a7 3f
       0.20384751921246894 0.04666454644748758
000550 5a a5 50 9c ae 57 a8 bf 05 3c 3f f2 e3 29 ab bf
       -0.047543961125777925 -0.05305397350422684
000560 9a f8 27 97 d1 f8 d0 3f 56 3f 28 13 31 3f d9 3f
       0.265186689008155 0.3944819151956741
000570 9b 33 62 7d 56 64 d0 3f 18 53 c7 7c b8 a5 bc 3f
       0.25612413639537984 0.11190369650223564
000580 b6 41 1c ba 9b 09 bf 3f e6 e6 85 60 ed d2 b1 3f
       0.12124036115370171 0.06962474447746167
000590 36 29 1a 5b 6e 67 c4 3f 55 5c 98 55 a1 12 d3 3f
       0.15940646599148928 0.2980120979204391
0005a0 31 b7 b5 e2 7f 8b ae 3f 24 59 3a 02 f8 89 ce 3f
       0.059658047127284404 0.23858547314439094
0005b0 a9 6a f2 cf 50 13 cd 3f bf 5e 7c f0 4b 48 ac bf
       0.22715196756037884 -0.05523907957666329
0005c0 2c 91 f3 50 4b f5 d3 3f 1a 69 c3 51 ce 1a c0 3f
       0.31184657006658045 0.12581805221891146
0005d0 d7 17 ac 43 5b d4 d4 3f 78 7f 9a cd 1d 84 8b 3f
       0.3254612122403819 0.013435585820218185
0005e0 d9 c3 e6 49 7b ae d7 3f 16 6d c1 34 2b 48 b6 3f
       0.3700245114987957 0.08703870809533884
0005f0 78 94 b6 f4 e0 d3 d0 3f 38 25 22 3a ef a0 c9 3f
       0.26293205163739897 0.2002238305906674
000600 12 7c 97 6d 20 c3 c1 3f 6d 51 3b f9 61 a1 cc bf
       0.13876729346426991 -0.2236750094367709
000610 64 62 c7 f8 f1 9d bf 3f 32 95 5b 19 37 65 ae bf
       0.123503802525542 -0.05936596092741765
000620 b3 58 6e df ec ea c8 3f 51 92 42 92 7a 84 bb bf
       0.19466935071677013 -0.10749021597673304
000630 da 0c 25 24 e3 9d a5 3f d1 53 4b fc 5c 06 bf 3f
       0.042220209276388324 0.12119084510352642
000640 4c d8 4a 22 91 cc c0 3f 3b e4 fd 59 1b 6f a1 bf
       0.13124288725311073 -0.03405080293209336
000650 47 61 00 9d 67 46 a2 3f 88 75 45 9a 35 5c 8d 3f
       0.03569339553377176 0.014336031694876863
000660 cb 6d e7 66 1b 73 bd 3f 17 d7 f7 ce 4f 76 d8 3f
       0.11503764402680543 0.38222117625933677
000670 e8 75 04 d9 8b 0b a6 bf 5c 80 57 ee 79 b1 c3 bf
       -0.04305684112680891 -0.15385364663871115
000680 63 46 65 db fb 8d 8a 3f 90 e3 a9 f4 a0 ff cc 3f
       0.012966125138208889 0.22655116983858337
000690 ce cf 17 44 ba 0d b8 3f 6f 6f cb 44 71 13 ce 3f
       0.09395946657588114 0.2349683366691084
0006a0 20 5a 0e d9 ad 63 dc 3f 08 94 19 44 dc be 9c bf
       0.4435839290321457 -0.02807182469986816
0006b0 d7 0a 31 03 fc 91 cd 3f 43 a7 19 0d 08 b8 c5 bf
       0.23101759105528316 -0.16967869414957634
0006c0 f2 c1 74 5a fe c5 bb 3f 0a 5d 56 65 db e7 a7 bf
       0.1084898920860338 -0.0466908036425427
0006d0 0f 13 88 d0 58 89 b7 bf a0 a3 fb 55 78 5c d1 bf
       -0.0919394978628356 -0.27126892468236896
0006e0 67 a8 ae 1f ca 59 d0 3f 95 63 30 d6 5d 01 d3 3f
       0.2554803189656298 0.29695840756317554
0006f0 d6 6b fe aa 0f 00 b2 3f e2 01 33 76 9d c8 e0 3f
       0.07031343388227582 0.5244891460970929
000700 36 28 03 77 01 7c cd bf ce 4c d8 59 d5 8a ad 3f
       -0.23034685431622542 0.05769983979930658
000710 3f f3 a8 de df 2b cc 3f d4 39 b6 24 b8 72 bd 3f
       0.2200889432150692 0.11503172775540033
000720 18 a9 f1 f7 ed 14 db bf 43 10 61 ca 23 af c3 bf
       -0.42315243924407886 -0.15378234273714683
000730 45 98 b8 2d 67 ad cf bf 95 f9 43 e2 b3 fb ce bf
       -0.24747934086298265 -0.2420563559353012
000740 d1 e1 c4 a6 1f 1e ab bf c7 f4 47 2d 86 5d be 3f
       -0.05296420012240655 0.11861456494803511
000750 e1 07 9e fc 11 e7 ce bf 31 f2 ce 1d ef 43 71 3f
       -0.24142670473889807 0.004215177582349614
000760 17 5a 1a d7 63 7b b1 bf 17 6c 5f 5d 4b 8e d1 bf
       -0.06828903199707557 -0.2743099605410761
000770 a1 41 d4 ca 4e 82 c2 bf ef 73 85 71 bf c5 c9 bf
       -0.14460167793050707 -0.201347284727404
000780 3d 6f aa 22 54 d4 99 3f 29 3b e4 2a 4a 60 ea bf
       0.02522403203566558 -0.8242541158414031
000790 26 1c 52 db b4 fa c3 3f fb db 78 a0 53 7b ca 3f
       0.1560884543325482 0.20688863120605547
0007a0 99 bd c9 0e 1f 44 db bf 0e 75 94 4d 61 a1 a1 bf
       -0.4260327953733963 -0.034434357376293176
0007b0 e5 c3 ca 7e 4c fd c4 bf e0 7d d9 21 4a 26 a4 bf
       -0.16398006621378083 -0.039354626304653584
0007c0 4c f0 0e c8 fe cc a0 3f 48 c6 ca dc a0 28 c5 3f
       0.032813989564119156 0.16530237942565607
0007d0 09 6e 54 75 d4 dd bf bf f7 64 b8 1e 1e 15 a6 3f
       -0.12447860588547867 0.0431298649311404
0007e0 d4 b4 b7 f1 9e ae d7 3f 79 83 70 6f 9a 53 d7 bf
       0.3700330124400584 -0.3644777382160594
0007f0 0c 8a e9 55 1e 3b e9 bf e1 90 bf a7 a7 ff e6 bf
       -0.7884666135763054 -0.7187078739484855

module.feat_mlp.2.bias f8 [32]
000000 d6 a7 94 59 3d 46 69 3f 9d 1c d7 40 2a 25 a1 3f
       0.003085250686713596 0.03348667184359864
000010 23 a9 04 96 8c 2a be 3f 5b 10 84 73 5e fe b2 bf
       0.11783674871972898 -0.07419386215411931
000020 21 05 0f e5 d8 46 b7 3f d2 72 40 39 60 21 b4 bf
       0.09092479316952452 -0.07863427541492321
000030 84 3c 10 8b 9d 92 9e 3f 57 12 dd 26 42 67 b9 bf
       0.02985616837764528 -0.09923184822862062
000040 9a 62 a9 0d 30 b5 c0 3f 56 37 b4 6e 06 e8 90 bf
       0.13052941004823 -0.016510105616411273
000050 9e 05 9b 48 f8 a6 c5 3f 22 fc 0c 51 9c ed af bf
       0.16915801568215455 -0.062359700101744645
000060 63 4d ce 74 ab 25 98 bf 9a 6a 34 7f e4 c7 a4 bf
       -0.02358119869638865 -0.04058755924980524
000070 7b 5b 0e 3c 0b 1a b2 3f bb b8 83 42 d3 d6 b0 bf
       0.07070989814961408 -0.06577797292604519
000080 73 75 32 21 c7 4e ba bf ae 9c 91 c3 08 76 c1 bf
       -0.10276455460048854 -0.13641461896188417
000090 42 2a b0 ac 29 00 7f 3f 85 40 78 7c 42 81 9f 3f
       0.007568514624845481 0.030766524168996518
0000a0 b0 4f 90 f3 9b 32 cc bf 73 5f 3e 83 53 17 c5 bf
       -0.22029446976432387 -0.1647743597829919
0000b0 2a 02 54 c2 60 7e c0 bf 81 3b ff 6b a7 d8 a0 3f
       -0.1288567494266471 0.032902938779094455
0000c0 0b 61 d7 1f de 8a b1 3f 0d b6 c2 68 de 3a c5 bf
       0.06852520253540122 -0.16585903277648165
0000d0 31 6d 2c c3 b4 6e b9 3f 2f 88 a4 1c 68 aa ba bf
       0.09934549107531578 -0.10416269969258062
0000e0 f8 74 b0 c0 13 ee bf bf ba d4 6e f7 77 5a b3 bf
       -0.12472651914909594 -0.07559919157832243
0000f0 ac 68 14 6c 41 86 a2 3f cb 23 a3 39 94 95 aa bf
       0.03618053860027834 -0.05192244723873037

module.feat_mlp.4.weight f8 [32, 32]
000000 8f 28 99 b4 a5 6b c3 3f e4 c4 b0 4f 1e 83 c0 bf
       0.15172263448977616 -0.12900141612184435
000010 20 2c 07 88 52 4b b4 bf 48 a6 09 ed cc 70 a1 bf
       -0.07927432843204985 -0.034063724456086464
000020 1b 7f ee 22 18 90 bb bf 16 68 9f 13 5e 17 c6 3f
       -0.1076674542696278 0.17258811910761612
000030 52 b3 94 f9 23 68 b5 bf 34 3b 91 31 a3 82 cd 3f
       -0.0836203083351397 0.23054923935202398
000040 93 1d ee 26 63 3a d0 3f 2e c7 b6 74 0e bf a7 bf
       0.2535636787583481 -0.04637952017527734
000050 79 72 f9 94 8d 1b b5 3f 17 86 81 ee 60 46 ae 3f
       0.08245167624540696 0.05913069640588391
000060 b5 23 04 91 7c 7a be 3f 4f 75 c4 69 8e 2c cd bf
       0.11905649700578531 -0.22792225040840683
000070 dd 4c d4 bb 8e f4 a9 3f 46 c0 da 6a b4 4a aa bf
       0.05069395106161221 -0.05135120205284287
000080 bd 78 38 5a d4 59 91 bf ea ed c8 25 56 aa b6 bf
       -0.016944234854343366 -0.08853662893755368
000090 59 b7 3e 8d 67 ed b3 bf eb d8 dd e7 2c 32 ab bf
       -0.07784125517238517 -0.05311718302157139
0000a0 de 54 6d 93 fb f6 b3 bf f1 6f 2b 9e 89 ff c0 3f
       -0.07798740720075467 0.1327983877480388
0000b0 20 66 12 60 b3 8e b6 3f 60 c2 12 f2 fd a5 b3 3f
       0.08811493964676531 0.0767515865325179
0000c0 7c bc d4 a7 bc 99 c7 bf ee f1 91 9e e3 9a a9 3f
       -0.18437917895196054 0.050009835344983475
0000d0 b3 53 3a 16 9f c9 b1 3f ad c6 f1 56 c4 f9 b8 bf
       0.069482748915404 -0.09756114123026789
0000e0 f1 bf b0 8e 14 a9 c2 3f 9e e5 ef 77 70 fd c0 bf
       0.14578492133432477 -0.13273435455611787
0000f0 5b 86 11 26 c8 6e c0 bf 51 77 0c 82 06 32 74 3f
       -0.12838079317866655 0.0049305204600196975
000100 ec 6b 7e 5f 59 c5 a4 bf 79 14 4e af 0f da af 3f
       -0.0405681542462942 0.062210550450836295
000110 85 b4 6f 89 49 3d 9a bf 62 d6 e9 c7 c9 2c bc 3f
       -0.025624417317818633 0.11005841379832185
000120 40 a2 6f 79 09 c0 a3 3f cb 2c 6c 97 34 61 c6 3f
       0.0385745011079206 0.17484147447280515
000130 9d f6 91 6a ff 8f 90 3f d8 81 6b 72 2c 69 78 3f
       0.016174307708289083 0.0059596763810252015
000140 9c 9c af 31 20 fa b1 3f 92 08 ad 08 c0 7e bc bf
       0.07022286618267731 -0.11130905353369006
000150 dc ab ec 80 7c ad c1 bf 9c 90 73 0f 73 20 b4 3f
       -0.1381068830026767 0.07862013938171447
000160 9c 62 c7 a5 0a 6a c5 bf a2 2c 4c ad e2 11 95 bf
       -0.16729863257093747 -0.020576040103190814
000170 fd 7c 10 aa 14 49 ad 3f 18 c8 b6 41 40 35 bd bf
       0.057198186645331696 -0.11409379581780887
000180 23 9a 18 a4 8e 92 b0 3f c5 b1 2f 14 35 e5 8d 3f
       0.06473628526928414 0.014597334555184536
000190 e2 48 e5 26 81 90 c6 3f 35 b6 30 45 41 2f b7 bf
       0.1762849273605474 -0.09056480349746539
0001a0 ba e1 7c d8 b3 2a 6b bf 40 68 ce 4a f2 a6 5d bf
       -0.003316260586782441 -0.0018098226675875712
0001b0 cc ba ee 47 3a dd b4 3f d7 1e c6 89 3f 9d c7 3f
       0.08150066620030855 0.1844863341068421
0001c0 a0 90 e0 b9 ae 68 8e 3f 37 f7 09 59 6f 64 a8 bf
       0.014848103568575077 -0.047641257876405545
0001d0 e2 54 ec 7f 60 22 c4 3f c9 57 28 d4 91 21 b8 3f
       0.157299101316915 0.09426223210934305
0001e0 77 24 2e 94 6d 3a 77 3f dc b4 20 fa 72 4f b6 bf
       0.005670955698300443 -0.08714979750284918
0001f0 e6 cc 77 ec d4 03 b3 bf 4c f0 80 14 6e 20 c6 bf
       -0.0742772176088696 -0.1728646850696144
000200 07 ea dc f5 82 6f c2 bf 7d 74 fc 92 64 de c4 3f
       -0.14402806286837253 0.16303689171846605
000210 18 f4 76 6b aa 28 a2 3f 5f 53 86 0d 51 f7 91 3f
       0.03546650468658913 0.01754500050590779
000220 e3 4e 8a e8 72 c3 b2 3f b8 7c bb 00 f7 dd cc 3f
       0.07329481293919175 0.22552382980118124
000230 ba 77 b8 6c bb fd a9 3f d1 07 79 ef 18 36 b6 3f
       0.050763947507433696 0.08676296087745007
000240 7f bd 52 2d 84 d1 a4 bf 73 b5 75 18 51 d3 c1 3f
       -0.0406609826399018 0.13926137632681054
000250 b2 c5 17 4b d8 02 c6 bf dd d4 5b 33 93 c4 b2 bf
       -0.17196181933063098 -0.07331199649691507
000260 0a 47 18 6c da 61 a4 3f 85 74 31 f3 9f 63 ba 3f
       0.03980906075970665 0.1030826538785324
000270 a9 e4 fb 86 6c 04 b7 3f 08 7e e5 5c ad a6 c4 3f
       0.08991125388628753 0.1613365844341248
000280 9a de 78 b7 54 a9 cc 3f 0b f1 00 3a 91 37 d2 3f
       0.22391756971932325 0.2846415583078545
000290 4f 75 c5 f2 24 cd 96 3f 80 30 c3 3b 93 98 a6 bf
       0.02226693851240685 -0.044132805867406866
0002a0 88 b6 16 0a ab 96 b1 3f 4f 6c 1a ae 78 16 c9 bf
       0.06870526310259539 -0.1959982729066234
0002b0 5f 1f 5b 03 ba fe bc 3f aa 06 a6 a4 46 d5 bf bf
       0.11326181966717062 -0.12434808273067213
0002c0 13 55 cb 93 ba b6 c3 3f 04 f9 66 f2 f5 c0 c4 3f
       0.15401394096867502 0.16213869415327775
0002d0 3b 9a 64 bc 0b 9e b0 3f bb 23 f5 34 b4 00 ab 3f
       0.06491158818662594 0.05273974558310309
0002e0 ad 6c 3b 69 2a 7b b0 3f f9 ee 44 cc a2 42 bd bf
       0.06437935895103193 -0.11429803359072456
0002f0 0e 79 cd 08 06 3b ba bf 42 81 10 ed f6 b3 c5 3f
       -0.10246312823207779 0.16955458236135185
000300 91 28 33 56 1c 56 78 3f 2e 44 73 39 8b 34 60 3f
       0.005941496553712026 0.0019781798579079557
000310 cd 96 2a a0 f1 ec a1 bf c4 25 09 65 7d 05 b4 3f
       -0.03501086311488919 0.07820876805012406
000320 3d b2 0b da 59 51 ac 3f bf 32 a0 65 fa 44 b5 bf
       0.05530815874758275 -0.0830837724790383
000330 c7 f8 3a ed 2c 33 ba bf 9a ba 3a 29 37 a1 d3 bf
       -0.10234337608105469 -0.3067148115759807
000340 90 b8 28 43 19 df b4 3f 4f b0 3f b5 5d 18 58 bf
       0.0815292157137455 -0.0014706530682771118
000350 4c 51 06 1c e4 bf 88 bf 80 e6 23 2f 9a 2b c3 bf
       -0.012084753136868763 -0.14976813604134875
000360 e7 bd f4 89 32 2b ab 3f bb 59 23 1d dc 0d 41 bf
       0.05306394514115791 -0.000520451047374241
000370 e9 10 0d 8d 5f e1 99 3f dd ac 0d 67 6a 73 a1 3f
       0.025273793205330106 0.034083676414263776
000380 b6 77 5f 28 74 bb 7a bf e4 af d3 ff 1c 89 66 bf
       -0.006526426068345905 -0.0027509275811237067
000390 1a 36 6f 18 fe 84 a5 bf 53 e2 b8 12 d5 de b7 3f
       -0.04203027771255226 0.09324390132031483
0003a0 76 d9 bb d4 1f 7e a7 bf 5e c4 2f 94 db bd 6d bf
       -0.04588412734840379 -0.0036305702828874206
0003b0 87 be c1 a1 83 bb b9 3f 95 0a 04 70 53 91 ce 3f
       0.10051748942509607 0.23880999536057304
0003c0 17 5a 69 ab 36 64 c2 bf fb ae 8f 1d f6 af c5 bf
       -0.14368327493384989 -0.16943241542264062
0003d0 90 43 a7 48 06 a1 9a 3f 31 3a 60 77 30 a2 c0 3f
       0.026004884895715785 0.12994962529087808
0003e0 66 33 ce 4c 88 aa b7 bf 04 82 20 58 3f a2 bb 3f
       -0.09244586825498188 0.10794444943940823
0003f0 3e 23 e5 43 fc b5 a3 3f 5a d6 26 c6 e1 a3 96 bf
       0.03849781349942426 -0.022109534949512934
000400 ed d6 d7 e2 2a 15 b9 bf 1c ba 5f 7b a1 5e ce bf
       -0.09797924078142346 -0.2372629024898324
000410 7f f8 57 7a 72 aa c5 3f e2 7a 0a ec 14 62 88 3f
       0.1692641351109536 0.01190582604732299
000420 98 65 d1 d2 4c d9 cc bf 1f de 14 f0 e9 9c c2 bf
       -0.22538147252889185 -0.14541362974863234
000430 eb 71 30 f3 bb 4f a9 bf 71 02 82 2b c6 28 bc 3f
       -0.049436448513208685 0.10999716341212619
000440 73 72 20 d3 1f 97 c4 bf 05 73 c8 cd c1 da 9f bf
       -0.16086194809840357 -0.031107929406164043
000450 cb c4 ab db 43 45 c0 3f 09 33 98 23 e4 d0 9e bf
       0.1271138022052923 -0.030093731567876456
000460 8e d6 eb 87 43 4c b9 bf 24 6b 7c a5 69 cb a9 bf
       -0.09881994312658035 -0.05038004059880155
000470 b9 ec 35 e1 e0 75 b3 3f 0b c6 76 e1 11 9f c6 bf
       0.07601743219668124 -0.17672942646963494
000480 2c 5c c8 e1 ed 5d bc bf e3 34 8a db 38 ca c5 bf
       -0.11080824625274549 -0.17023382873268308
000490 97 ce 34 c3 c7 a0 c9 bf 74 df 9f cf 59 6b c4 bf
       -0.200219126048627 -0.15952608716883854
0004a0 d2 db d9 5a 7a a0 76 3f 49 e2 16 49 69 f0 bc bf
       0.005524137448097615 -0.11304338488015121
0004b0 07 03 7c 75 cb fe a1 bf d3 51 5d 9b c8 63 b8 bf
       -0.035147054759368905 -0.09527257721976605
0004c0 87 cb bd ea c2 a2 b1 3f a4 d0 b6 ce 7e 20 a7 bf
       0.06888979178419961 -0.045169794782311784
0004d0 15 e7 b0 f7 bd 2c c9 bf 8b e8 03 a9 57 c9 c3 3f
       -0.19667791933334713 0.15458198311518276
0004e0 cd 56 cf 49 46 23 a7 bf b5 a4 38 d4 50 bf ae 3f
       -0.04519099856376627 0.06005337324706642
0004f0 57 0b c7 24 79 b4 bb 3f b9 33 60 41 47 fe a6 3f
       0.10822255275620073 0.04490873978657057
000500 33 d4 79 27 4c bc bd bf c2 fc 54 31 60 27 c4 bf
       -0.11615444148795077 -0.15745165261066602
000510 5b 28 15 e1 3a a5 ab 3f ff 66 b2 18 f6 b0 93 bf
       0.05399497983542353 -0.01922974134195154
000520 8e 3c 21 31 df 86 cb bf 18 9f eb aa d1 9c d0 bf
       -0.21505346201817982 -0.2595714730400558
000530 a4 25 7b 2c ae 56 b9 bf c7 54 64 b9 8c 6b b1 3f
       -0.09897888742411581 0.06804732824487579
000540 1f be c2 fd 6d 15 b4 3f 67 a4 f0 53 04 9a b1 bf
       0.07845199055986328 -0.06875636147801033
000550 c7 14 ef 98 9b 37 d0 3f 74 b7 92 bc 5b 58 b1 bf
       0.2533940309043143 -0.06775449136577355
000560 49 5d 52 27 f0 12 a7 3f d1 3d 75 42 cb b9 d1 bf
       0.04506636123658809 -0.2769649647716195
000570 e2 a5 c3 03 77 1d b5 3f 58 4b d4 e8 ea 27 c2 bf
       0.0824808487119735 -0.14184318894020964
000580 a5 10 05 ac 18 7f c8 bf 16 e6 8f 51 b9 a1 cd bf
       -0.19137867354777885 -0.2314979217770065
000590 ed e6 ea e4 ae 3e ab 3f 24 3b fd 3e 16 d5 bf 3f
       0.05321260971454742 0.12434519803830973
0005a0 3c c0 f9 4c 48 c0 c1 bf bc a1 b6 f4 e6 04 b3 3f
       -0.13868049391339976 0.07429355120132802
0005b0 42 d4 12 cd 47 0c 84 bf ea 60 b6 43 f0 b4 b7 bf
       -0.009789048143242 -0.09260465291152156
0005c0 84 55 67 8a d0 01 c2 bf 2d d5 c6 b5 b9 a4 bd bf
       -0.14068037755957274 -0.11579476058871725
0005d0 5e f0 ca 19 7c 6e be bf 7f 99 78 97 6a 04 62 bf
       -0.11887336377816513 -0.0021993715161158773
0005e0 1c f2 6c 75 91 6c c4 bf c3 b8 e4 25 75 1f c9 bf
       -0.15956323846502662 -0.19627251005426247
0005f0 85 83 7f d5 78 2b c9 bf 86 69 21 84 3e d2 b1 3f
       -0.19663916039192145 0.06961432195513426
000600 93 93 17 e4 79 c2 d3 bf 0d 9e de 80 2d 1c bc bf
       -0.30874488138788897 -0.10980495830755661
000610 66 12 21 bb 97 4e b8 3f 34 bf 77 a1 64 68 c6 bf
       0.09494922941764514 -0.17506082424324065
000620 89 1f 74 1a 85 0a ab 3f 01 f8 df db 70 3e d2 bf
       0.05281463573379514 -0.28506108734279684
000630 a0 94 2c 6d bd a5 ac bf 51 eb d7 31 4c f5 c7 bf
       -0.0559519954461305 -0.18717338975678868
000640 f9 91 e8 01 b7 4e 4e 3f 89 96 eb 10 ec 8d c2 bf
       0.0009249108878220384 -0.1449561197870717
000650 07 49 14 a7 98 44 a4 3f d2 f8 f1 5b 54 0c c7 3f
       0.039585848231711344 0.18006376733314383
000660 16 c3 5d 60 1d 9b b6 bf 3a b0 46 6c 6a ab c6 bf
       -0.08830436327640387 -0.17710619246406784
000670 a1 b4 0d 55 fa 5b af bf 26 d4 99 c3 60 65 c3 bf
       -0.061248610384475606 -0.15153131056618568
000680 3c 2b 3a 36 df 56 bb bf 2a 6f 1a b6 cd a9 8a bf
       -0.10679431032091896 -0.01301918708787005
000690 14 8c 9f fa 93 3e c0 bf 4d cc cf c9 eb b8 c4 bf
       -0.12690973031485042 -0.16189334253394563
0006a0 10 12 5a 7d 02 2a ad bf 81 70 35 60 44 bd c7 3f
       -0.05696113376783185 0.18546347329800386
0006b0 a6 ba a4 9f c0 81 b6 bf e4 b9 19 86 01 4b 97 3f
       -0.08791736505075196 0.022747062501759077
0006c0 33 d6 08 ea 83 07 5b bf 8b 89 d4 9e 73 f0 c3 bf
       -0.0016497410034736037 -0.1557755017793848
0006d0 c7 4e 6b ab d3 cb a6 bf 9f 83 14 50 f8 b7 c5 3f
       -0.04452382533568549 0.1696768179909016
0006e0 cd cd 82 6d af 2e 97 3f 57 ed 57 05 9e 36 a3 3f
       0.02263902765180408 0.037526071693685985
0006f0 c8 27 fc a7 14 53 9e bf 9a bc ef 7e 38 69 b3 3f
       -0.029613802674283624 0.0758242902663703
000700 4b c7 23 5c 13 5f cd bf 1e f7 f8 20 b4 2d 8e 3f
       -0.2294639778042956 0.014735610252610661
000710 3c 96 6e 62 ad 4b c5 bf 4f a7 b7 86 c3 5e b7 bf
       -0.16637198740242976 -0.09128973044394438
000720 a0 aa e5 02 55 73 ac bf fc 0f ab 91 dc 90 a6 3f
       -0.05556741390576758 0.04407395628143715
000730 f0 d6 75 fe 0b 6e bc 3f be ed 3d 0c eb 23 c9 bf
       0.11105418169412551 -0.1964086351180025
000740 96 21 ae 97 05 bd be 3f 31 97 20 72 57 33 aa bf
       0.12007174447183497 -0.05117295520930865
000750 45 3a 87 ad 37 a3 a8 3f cf 63 0c 25 5c 05 ab 3f
       0.04812025063767015 0.05277526809931709
000760 35 07 aa 3d fc ac c4 bf 7f 66 b0 4d c0 a5 c0 bf
       -0.16152909289308473 -0.1300583247510083
000770 65 7f 80 14 1e 8e bf bf 4d da 69 db 27 a2 b7 bf
       -0.12326229095969905 -0.0923180494954547
000780 60 60 7c 48 0f 0b 86 3f 71 89 56 de e9 aa b8 bf
       0.010763282203285651 -0.09635793378996539
000790 3c db 4a 21 5a a1 93 3f 7c 77 42 f9 c0 be a8 3f
       0.019170196802146253 0.048330336024476644
0007a0 aa a0 93 f1 2f 95 a4 3f 2a 9f a9 f3 88 7c b1 3f
       0.04020070861753429 0.06830650280755593
0007b0 68 4c 01 35 c1 5a c1 3f d7 0f 62 7b 71 54 9f 3f
       0.13558211410654342 0.030595563083366386
0007c0 26 5b bc fd 06 35 b0 3f da ee f4 69 4c fc b5 bf
       0.06330913252564283 -0.08588101946673579
0007d0 e2 07 eb 55 b8 86 8e 3f e4 6f 5a 90 2b 10 c3 bf
       0.014905395624172205 -0.14893097446918013
0007e0 c3 36 0b 80 6e da bd 3f dd 11 6d 26 02 11 ae 3f
       0.11661425233907168 0.05872351378505745
0007f0 f9 f6 cb f3 0d ce ae bf 8d 0b 5b 3b c0 70 a5 bf
       -0.06016582108530417 -0.04187584614330495

module.feat_mlp.4.bias f8 [32]
000000 7f d5 4c 16 88 29 a6 bf 1f a0 d3 ff ee 65 b9 bf
       -0.0432856108877031 -0.09921163316505542
000010 f2 c0 13 d6 10 ed b2 bf ba 56 bf 5a f6 00 8a bf
       -0.07392983652585253 -0.012697147983924285
000020 73 85 a6 bf aa 9a c9 3f 43 57 86 bf 39 27 b4 bf
       0.20003256185467996 -0.07872353483102494
000030 7c c1 c1 cb 57 14 d0 3f 2e da 00 07 d3 a1 b2 3f
       0.25124163530474397 0.07278174324969974
000040 9a c2 f2 2b bb 3b c7 3f 5f 66 38 aa ae 7a c0 bf
       0.1815103497115345 -0.12874396621264148
000050 48 28 44 a9 eb 0b 9b 3f 9c bb 39 6b 9e d0 c4 3f
       0.02641266079539431 0.1626165412485222
000060 d8 ff fa e6 84 43 ac 3f a8 57 46 4b ed e6 9f bf
       0.055202630229814253 -0.031154353827865272
000070 d0 3d ad 79 19 f1 ab 3f 05 ec b8 73 4b b0 b7 bf
       0.054573818305125976 -0.09253379416706771
000080 15 db fe 0b 7d fb c0 bf 4f 6a 0e 84 be 69 c0 3f
       -0.132674818856423 0.1282270569616508
000090 83 ca ef 20 a2 50 aa bf 76 eb 73 2e 0b 57 b4 3f
       -0.051396433373061455 0.07945318111516805
0000a0 7a b4 43 be c6 3d 55 3f 12 93 bb e6 eb 2e b7 3f
       0.0012964669086230883 0.09055971511004327
0000b0 81 81 c3 73 76 4a a3 3f 05 93 fb 3c a1 e9 c0 bf
       0.03767748034602204 -0.1321298167960309
0000c0 cb e7 2a 5e 2c 3e b3 bf 25 b8 30 c0 2b 42 cc 3f
       -0.07516743945134789 0.22076937565128776
0000d0 5f db 04 92 aa 70 ba bf 14 c2 52 0d b8 44 c0 3f
       -0.10328165116230313 0.12709713602591022
0000e0 2d ba a0 f3 bd e7 ba bf 99 74 f8 b2 79 9e aa bf
       -0.10509860227532704 -0.05199032125185816
0000f0 e9 56 d1 56 48 04 bc bf a9 7b b0 3b 9e 6e b4 3f
       -0.10944034690450234 0.07981289822826788

module.transformer.to_qkv.weight f8 [96, 32]
000000 c7 3c 83 4d 00 a4 b0 3f 4e 3b d5 37 1d 44 be bf
       0.06500245945356929 -0.11822683919056695
000010 83 c9 66 ff cb 6d a5 3f 9d c0 cb 76 71 3a c0 bf
       0.041853308608000205 -0.1267835454996246
000020 9b db 50 a6 5d 96 93 bf c2 91 23 4f ee e1 b2 bf
       -0.019128287578691432 -0.07375993187049004
000030 78 1e e3 7a 6c e6 bc 3f cb c4 b2 08 60 85 98 3f
       0.11289098739791281 0.023946285754111323
000040 02 b8 aa 6e 7f 0d c9 3f c8 ba e6 0f 7e 67 8b 3f
       0.1957244196286752 0.013380989895123277
000050 54 5c 91 18 3a 5f a0 3f ba 92 90 e9 50 d3 91 3f
       0.031976523875237334 0.017407669311199504
000060 59 ff ef 2f bb c3 98 bf 68 1c 4f f0 4d 68 c9 3f
       -0.02418415527426929 0.19849561914290637
000070 75 6d 9c 74 ef 70 d2 3f fa f2 52 71 3a 85 c2 bf
       0.2881430281429041 -0.144690804800028
000080 09 70 35 79 7f dd b3 3f 91 58 ae b9 15 3d a7 3f
       0.0775985403938081 0.045387915531294294
000090 a4 99 0c 5d 9f e8 bc 3f 48 b1 8c c1 ea 96 b3 3f
       0.11292453786572892 0.07652156091052575
0000a0 62 6e 9c 18 94 59 c0 3f 08 c9 07 8a 33 c6 b1 bf
       0.12773371888839608 -0.06943056220896804
0000b0 df 28 98 cf c6 26 b6 3f 8a cd f0 e0 12 bc 9b bf
       0.08652918403837216 -0.02708463190010727
0000c0 36 93 8c ba 50 35 95 3f 19 22 c8 fe d6 3e c4 3f
       0.020711194406561627 0.158167719273721
0000d0 8a 8c f1 c5 fc bd aa bf 8f af 23 18 bb 33 d1 3f
       -0.05223073879531011 0.2687823997246079
0000e0 fb 89 87 57 f5 5e ad bf cf 0d 99 7d 6a 0c c7 3f
       -0.05736509984469148 0.1800664056082568
0000f0 2c d6 ad fb 12 9e c2 bf 0c 37 80 34 24 35 b3 3f
       -0.14544904030815198 0.07502962381132877
000100 87 16 36 de e7 96 9c bf 76 22 1e b3 82 3b c0 bf
       -0.02791940969247844 -0.12681611772520157
000110 b4 0c 74 3f 04 57 b6 bf dd a5 8c 5c a6 33 ba bf
       -0.08726526784089367 -0.10235061416155795
000120 e6 85 be 1b ea 07 b4 3f b4 53 7d 34 1c 59 c4 3f
       0.07824576547002202 0.15896942675558778
000130 1d 38 09 7f d8 55 75 bf f5 99 23 26 17 de a2 bf
       -0.0052088219532162834 -0.036850665479324286
000140 df e2 e9 a9 9f 14 b7 bf 24 a9 ee 39 0c ac 95 3f
       -0.09015844248086634 0.02116412261572366
000150 e2 1a ac e7 2e 28 b5 bf a9 cb 74 f7 28 72 b5 3f
       -0.08264439731656695 0.08377319375430993
000160 ba 08 95 47 a6 27 a7 bf 6e dd fe e0 67 c8 b5 3f
       -0.045224376905495814 0.08508919947677437
000170 ce 64 a8 b7 d2 cf b5 3f 43 c5 9f 1d 9f 7e ad 3f
       0.08520237907250136 0.05760667072889671
000180 54 a1 26 55 f6 c2 aa 3f e7 90 3b c1 2b 46 bd 3f
       0.052268693823239204 0.11435197322458955
000190 6a c9 87 4e 3c 87 c1 3f 33 a6 69 64 9d 28 7d 3f
       0.13693956217282316 0.007118811429430094
0001a0 17 63 32 d1 da 45 d1 3f 79 7f d1 fd f8 ec 83 bf
       0.2698885958612193 -0.009729333158418051
0001b0 eb e1 4f 5b 66 0a c3 3f 46 62 73 ff 59 4e 85 bf
       0.14875487764926673 -0.010403349979626896
0001c0 23 7a d5 a6 bb a3 c0 3f ef 39 4a e4 e4 87 d0 bf
       0.12999673505960727 -0.2582943181413659
0001d0 05 27 49 c8 2e 8c ca bf bd 14 d0 b8 1f 25 ca bf
       -0.20740303783014027 -0.2042579319387751
0001e0 92 43 87 81 55 1b bc 3f 85 f8 10 7f 92 d1 b9 bf
       0.10979208385766828 -0.10085406877712629
0001f0 87 f1 dc 56 9d d9 bb bf fa 4a e2 a0 56 8e ba bf
       -0.1087892853801745 -0.10373441150504084
000200 a3 46 80 c7 fb c7 ae 3f d4 f4 bb 48 3c 01 b0 bf
       0.06011950311962024 -0.06251885200250068
000210 72 46 70 b5 45 eb c4 bf ce 3e 0e 3c 78 cb b1 3f
       -0.16342994078927436 0.06951095071985522
000220 0b 87 55 4e 7c 65 db 3f 9c 99 cd f2 f3 51 cc bf
       0.4280691876393667 -0.22125100474950166
000230 d1 16 c6 87 4c 8c da 3f a4 96 aa ec bd 33 c4 bf
       0.41481316813620334 -0.15782903724646247
000240 e9 66 bf 46 42 80 e0 3f d3 44 ff 38 10 39 c2 bf
       0.5156566030302346 -0.14236643584312123
000250 e0 5e 80 9e 5c eb b4 3f 97 be bc fd 96 f4 ac bf
       0.08171633596100092 -0.056553572152890634
000260 0f e2 f5 55 25 f8 c7 3f 58 e0 b1 89 bd d0 c9 3f
       0.18726031014718145 0.20168275092487664
000270 8e 6e 7c cd be 05 c4 3f 5b c4 e0 12 0c 7d b6 bf
       0.15642533334254377 -0.0878455682839258
000280 c4 17 01 f0 b0 66 d5 bf 7f 10 fd c8 6c a8 d2 3f
       -0.3343927711288155 0.29152984264170095
000290 ec 4f db 59 1f 00 ca bf 04 be 56 2a b2 55 c0 bf
       -0.2031287373307572 -0.12761523310972234
0002a0 98 7d 96 25 76 cb b3 bf e0 e4 54 72 1c c1 c1 3f
       -0.07732332627937522 0.13870578367804054
0002b0 02 b2 2f db e5 bc c2 3f 28 7c f0 77 55 ab d4 bf
       0.14638970568138637 -0.3229573890002393
0002c0 85 ee d1 15 a8 dc d5 bf 4b 7d d6 53 84 f0 d5 3f
       -0.34159280901779027 0.3428049868325231
0002d0 de 4c 6f 8a 67 4a c2 bf 49 df 3c e2 a3 29 d0 3f
       -0.14289564380178538 0.2525415143349972
0002e0 4a 8b 9f f8 83 8c c4 bf 25 64 92 26 77 08 bf bf
       -0.16053819312863943 -0.12122292224593474
0002f0 1d 0c ae cf da 0a c5 bf 79 b1 dc 1d 05 73 a7 3f
       -0.16439376011484877 0.04579940785910969
000300 86 a4 11 6b d9 57 c2 3f 76 1b 39 65 b2 d7 ca bf
       0.1433059475705571 -0.20970754568608257
000310 df 3e b1 2d 31 75 d3 bf ef 69 eb 03 84 75 c2 bf
       -0.30402783834595754 -0.14421129409204478
000320 84 d9 7a a0 db 10 c8 3f 24 53 0f d2 c6 a2 d7 3f
       0.18801446281367984 0.36931009782465396
000330 83 89 a8 60 cd 95 d1 3f fb b5 25 21 98 66 96 bf
       0.2747682041100676 -0.021875741027022482
000340 d1 67 fe e7 b8 47 c0 3f 20 93 8e ef 46 1b ba bf
       0.12718879058667068 -0.10197871540601655
000350 86 8b f6 04 39 07 b4 3f 0e e4 3b 8b 9a 86 d3 3f
       0.07823521014374366 0.3050905570704011
000360 2a a5 8a ba 9b 9a d4 3f 2b 6d 1c bb e0 4b d6 3f
       0.3219365426726478 0.348381216741205
000370 bd c9 4d d2 c5 04 d5 3f 3a 2c 19 80 8a 5c bc 3f
       0.3284163049458149 0.11078706385994588
000380 1d 85 84 90 40 c8 c0 bf 11 98 87 6e a8 87 a3 bf
       -0.13111121231580905 -0.0381443629192263
000390 2d e9 50 6f 5b 0c bb bf d3 76 41 91 d8 16 d9 bf
       -0.10565730540921399 -0.3920194071305165
0003a0 5f 2e 49 de ef 39 76 3f fc cd 62 8f 6b a0 a0 bf
       0.005426346765101535 -0.03247390866581765
0003b0 19 c6 dd 48 f0 6b cb 3f ef f8 2a a0 f6 2d a3 bf
       0.2142315250198841 -0.0374600477712067
0003c0 82 c1 5d c8 f6 ff c5 bf 17 0f 4a 73 8a 27 be bf
       -0.17187390120990292 -0.11779084505729674
0003d0 50 2e 58 61 9a 12 d7 bf d2 eb 41 45 e1 60 d1 3f
       -0.36051043993277165 0.27153808368137533
0003e0 81 a3 2b 86 8c 11 bf bf d8 1b 5e 2b 8b 8e d2 bf
       -0.12136152530332646 -0.2899501727592315
0003f0 ca 76 5a f3 fc 41 71 bf 00 ae 4e 9d d6 05 ae bf
       -0.004213321769979303 -0.05863829298263212
000400 96 37 01 14 c3 cf c2 3f 83 df 5d 68 55 05 b0 bf
       0.1469653937987771 -0.06258138463988243
000410 a1 c4 3b 2e 02 67 ba bf 54 e9 5f 9e ae c1 bf 3f
       -0.10313428524729541 0.12404910437172606
000420 bd d7 90 55 33 9b b3 3f 65 fb eb e9 94 26 89 bf
       0.07658692206390945 -0.012280619991995765
000430 fa 68 47 93 4f f1 a2 3f b6 ee ef cd 4e 66 d4 bf
       0.036997305611025724 -0.31874437438066694
000440 8d 00 eb f3 46 53 cb bf 3b 5f 45 eb 38 13 b4 3f
       -0.2134789172178028 0.07841830963058964
000450 26 ce c2 7d 59 9d b6 bf a2 e3 d7 d6 0f 2d ca 3f
       -0.08833846397720233 0.2045001791991839
000460 f1 ec 17 df 0f d4 b2 3f 45 75 64 5d eb 37 b8 3f
       0.07354830929391533 0.09460326223457567
000470 dd 95 cc 6c be 9b b8 bf 52 7c 6b 4e 56 1f 8d 3f
       -0.09612646251897368 0.014219927089867
000480 5c af 4e ee 4f ba d1 3f 78 46 95 a9 c0 4f c2 bf
       0.27699659607127614 -0.14305885582375644
000490 ee 2b b4 d2 41 0b c2 bf 9f 2e 4b c4 ef de be bf
       -0.14096854007979637 -0.12058924238516021
0004a0 c1 f2 9d 51 8d 74 c4 3f 44 d1 d8 2e c6 9b d0 bf
       0.15980688557819714 -0.2595076997270278
0004b0 cb 51 3e 9a ec e2 89 3f 5e 82 b8 d8 fb 40 a5 3f
       0.012639854867111297 0.04151141186253392
0004c0 7d d2 ac 29 33 f2 c5 3f 92 85 f6 57 d9 f9 d0 bf
       0.17145385298649166 -0.26524957265981997
0004d0 50 b5 6c c5 0d 86 9d bf 9f 7c b0 cf 6b c7 cc bf
       -0.028831687140315865 -0.22483585015377103
0004e0 33 b2 69 3a 07 ea c9 bf 87 9f 99 d8 0a bf 96 3f
       -0.2024544749468916 0.022213143797130932
0004f0 b3 89 6e ef bf ee cc 3f 51 ab 04 6f b1 05 a7 3f
       0.2260360640621691 0.0449653099079429
000500 de 3f 29 a4 78 17 c6 3f 52 a4 be 92 72 c9 cc bf
       0.17259128585510458 -0.2248976913954573
000510 37 a6 ac ef ca 35 a2 3f d3 4b 25 49 aa 04 a4 3f
       0.03556665588105228 0.039098092488209744
000520 f8 0e 8b 4f 7c 8f 5c bf 9a 25 7b b0 65 01 c1 3f
       -0.0017431940051872413 0.13285513989675907
000530 df 7e b2 b1 c0 94 cb bf 25 9a 9d 6f a3 ad 74 bf
       -0.2154770724928232 -0.005048407003278165
000540 27 bd d9 42 17 6b c4 bf d1 8f b1 97 8b da bf bf
       -0.15951815380274434 -0.12442848638016747
000550 d6 48 6b 4d 28 54 94 3f f9 e1 f5 0b 11 5c 8c 3f
       0.01985228512314382 0.01384747808218466
000560 6f 5c 60 e7 ba a9 c5 3f 21 71 9f 13 d3 91 c0 3f
       0.16924225137401858 0.12945021112580782
000570 f1 cc 86 e1 72 8e bd bf 42 20 48 7d a8 ba 74 bf
       -0.1154548454858746 -0.0050608235947109965
000580 b3 7d f6 7c af 78 d6 3f 3c e9 fe 63 fa f9 c6 bf
       0.3511160583820711 -0.17950372583966068
000590 58 83 8e f3 65 e3 c4 3f d1 aa 6f 8f 90 9b bb 3f
       0.1631896437875422 0.10784247876987797
0005a0 ac 77 70 c1 91 0c a1 bf cb 0a 08 89 7e 8a d6 bf
       -0.03329902159042261 -0.3522030199239167
0005b0 88 27 e1 95 b4 27 8b bf d7 8f 16 2c bf 2e a4 3f
       -0.013259325813254966 0.03941914952454766
0005c0 c5 8f 98 ac 8c 80 ab bf de 1c 57 15 ac 60 b8 bf
       -0.053715129917946615 -0.09522510071757348
0005d0 d7 a4 b3 fe 45 66 b6 bf cf c2 29 05 45 49 c7 bf
       -0.08749806850723317 -0.1819235110483732
0005e0 ad 9e 12 70 0e a4 b4 bf d0 90 e6 18 8b ae cb bf
       -0.08062830196524358 -0.21626414028026497
0005f0 55 86 7f 07 2e be 98 3f e4 a5 d4 73 71 91 9d 3f
       0.02416297837033306 0.028875134176962095
000600 11 48 7f 7c a1 1f a8 bf dc e7 84 2d fe c2 b1 3f
       -0.047116323897754005 0.06938160525615394
000610 98 f7 9b 0b 17 c6 ae 3f 81 1e c0 3e 73 00 66 bf
       0.06010505692209661 -0.0026857615357618885
000620 7b 35 60 a7 58 00 8b bf 88 68 a2 49 45 9c b3 bf
       -0.013184254272369902 -0.076603250958586
000630 ea f5 37 d9 56 6b bf 3f 5c 19 03 2f 48 99 b4 bf
       0.12273161700428373 -0.08046389720684516
000640 b6 9f 53 ed f8 90 c0 bf 44 4b 3f b0 9b ef b4 bf
       -0.12942420566764462 -0.08178113034163653
000650 01 aa 89 df 65 01 c5 3f e4 53 08 3a e6 9c c7 bf
       0.1641051618092462 -0.18447568734759934
000660 91 81 0e 23 bb 6b c5 bf 30 7c 7d f1 68 1e 7d 3f
       -0.16735018932105253 0.0071090792988278
000670 1c a3 1c c7 66 13 a6 bf 1a ee 64 12 3a 43 86 3f
       -0.043116771512649005 0.01087041252741643
000680 6c 63 8e ca af 5c c9 bf 0e 54 fd ce 0e 04 cc bf
       -0.19814107313575435 -0.21887383562958046
000690 28 ba 24 d9 2c ff cf bf 2d 3d 56 90 e7 18 94 bf
       -0.24997482874592092 -0.01962625330412242
0006a0 17 97 27 e7 47 fc 1a bf bd 3f 8e 77 4e b9 85 bf
       -0.00010294140682950665 -0.010607350371884533
0006b0 d1 2b e3 41 7f 72 a1 3f 20 f2 17 27 97 f9 98 bf
       0.03407666854180714 -0.024389611970024316
0006c0 e2 93 77 01 ee 91 c3 3f d8 36 5e b8 10 a6 be 3f
       0.15289092132220988 0.11972145558521718
0006d0 76 64 17 46 e1 e8 a1 3f 92 f7 f4 96 da ab 9e bf
       0.0349798582134974 -0.029952445472410334
0006e0 e7 95 38 bf 56 53 b2 3f fb 45 d6 03 b8 f1 bf bf
       0.07158415001375538 -0.12478208631207359
0006f0 eb da 18 cc 91 64 77 bf fe b6 c1 9d 2b b7 c3 bf
       -0.00571114494373746 -0.15402741625751298
000700 88 00 ac 4e 27 d1 a6 3f ac ee a2 db 3a 79 b5 3f
       0.04456446490621696 0.08388107168405651
000710 1e 37 b1 d9 6d 87 b0 3f 62 a3 63 bc 46 1d a8 bf
       0.06456648411514407 -0.047098360535364106
000720 ec 5f 23 c0 c0 e1 bd 3f d2 ae 6c 30 38 e6 4b 3f
       0.11672596636651605 0.0008514189110874987
000730 9f 36 29 d7 cd 36 96 3f 56 fa c6 5a b9 43 b2 3f
       0.02169343591440642 0.0713458868621982
000740 14 03 b1 c2 aa 96 ca 3f 04 f4 53 1c eb da c4 3f
       0.20772299295824637 0.16293085940552043
000750 3e 98 e5 80 4b f9 a5 3f 2c f7 6a 1e a2 30 c1 bf
       0.0429175944180291 -0.13429666981931498
000760 c3 19 c7 50 72 ba c4 3f 4c f6 a0 fe c0 16 98 3f
       0.1619398970053237 0.023524299184137384
000770 da e8 9a 64 fa 42 ab bf e9 ef cd d3 31 d2 bf bf
       -0.053245377331636326 -0.12430106564528355
000780 91 4c ce 49 06 c9 95 3f fe 7c ea 5c 3e ee 95 3f
       0.021274660353424017 0.021416639729634028
000790 b4 31 ed 52 ae 68 ca bf 53 85 08 ca 19 93 c0 3f
       -0.20631960915706105 0.12948915829569305
0007a0 57 8e b4 c4 6f 9a 95 3f dd 54 b1 b8 ba 8b c0 bf
       0.02109694135755399 -0.12926420229147242
0007b0 4c f5 8f 2f 67 01 c5 3f b4 3b ed 16 37 2a bc bf
       0.16410531828288766 -0.11001915273412416
0007c0 db 1f 9b d0 88 40 a4 bf 95 a5 8d 74 69 e9 ae 3f
       -0.03955485865077409 0.0603745417382228
0007d0 7e d9 db f7 e8 41 c1 bf ca 92 d0 2f 04 5d c1 3f
       -0.1348239145515428 0.1356511338682565
0007e0 1e 97 b0 41 8d a6 b6 bf 6a af 7e 80 eb 74 c6 bf
       -0.08847887853388811 -0.17544311308062827
0007f0 76 c1 e6 b3 bd a8 b5 3f fc c5 d9 bb 58 0c 90 bf
       0.08460603372691886 -0.015672098603721082
